episode_0.pth (torch, 540888 bytes, 8 tensors)

main.0.weight f4 [256, 6]
00000000: 66ce 9f3e a87d ad3e 9cdf c3bd d202 c03e
00000010: dc30 b7bd 38b7 a83d 2687 4bbe e482 753e
00000020: 4a43 b83e 6258 99be 9eae b53e 847b 9c3d
00000030: 9a6d 9a3e 0877 623d b493 493e f818 6cbd
00000040: 0a22 a13e f029 773d 2229 43be 581e d53d
00000050: f69b 40be 181a 44bd 00cb 29be eea8 8a3e
00000060: 23ff a4be 41b9 40be 6817 ecbd 165c 7bbe
00000070: 78d3 1d3d a272 cebe 4cc5 bc3e fa8e b1be
00000080: 205f a13e 4c24 8b3d d4bd 07be 742a 813e
00000090: 404e 823d 0ee2 a83e 80cd 363d 30d7 03be
000000a0: f8a4 e03d 28bb e2bd 1cf0 2f3e d89e ba3e
000000b0: d8a7 713e 23c2 36be c852 713e 5099 953d
000000c0: 6c4c 543e 23cd 7ebe ede9 cebe 3e84 21be
000000d0: 5553 a0be f882 ab3e 20d2 f03d 1029 2d3e
000000e0: 3836 043e c0b6 e8bb 4e95 a33e 8783 94be
000000f0: f092 d23c acaa 8ebe c8e7 003e bef7 0fbe
00000100: a018 003e 5831 aebd b25c ad3e dec6 77be
00000110: 6c52 79be 4656 79be 1e01 bc3e 7c50 0b3e
00000120: f621 c93e 7880 acbe 3753 cfbe 3a88 a3be
00000130: 8a9b 8cbe 5453 293e 38b1 153e b4ae ad3e
00000140: c3e3 57be 587e 8ebe 64ce 5d3e e7f9 28be
00000150: e4b8 7d3e c067 c6bd 4424 6f3e 7f67 a2be
00000160: 8af7 52be a8e7 fe3d 9cc1 b03d 4c2b d5bd
00000170: 442f 793e 8a18 8e3e f893 97be 7e2e 5fbe
00000180: 0065 bf3e fa0f 0dbe 4a34 14be ea3f cabe
00000190: 1467 6fbe e8db d03d 90b7 5cbd 1aba 97be
000001a0: 40e5 1c3c a4c7 8ebe a455 b1be d433 66be
000001b0: 88f0 b6be ce17 85be fef0 d03e bcea 9d3d
000001c0: 34d3 003e ddf3 c2be ea47 89be 2e26 0bbe
000001d0: a0bd 823d 85ec b7be f71f 34be 6b45 7abe
000001e0: 004a 943a 6e8e 1bbe 30c0 e7bc eaa3 8dbe
000001f0: f478 8fbe 92e3 73be 9e18 0fbe 5cfa a4be
00000200: 7442 af3e 30ef a5bd c4d7 b33e 7841 023e
00000210: 0a00 b1be c0a6 903e e80b e6bd 7e3f 20be
00000220: 0281 adbe 75cd cfbe 0837 ef3d a8a3 b6bd
00000230: 4cc1 223e a389 abbe 542f 9b3e 286f 99be
00000240: f45e 90bd 68a2 ae3d 30d1 573e 1ebf a83e
00000250: 5c69 be3e 34bd a5be c86a d23d 03d0 33be
00000260: 003f 37bd a673 9cbe fa63 be3e a269 99be
00000270: e46c 5f3e 04eb 123e bcd8 073e df03 62be
00000280: ecfd bd3e 50bb b73d 281c 573d e033 b8be
00000290: b47d 2f3e b8dc 7abd 6484 3fbe 2a8a b33e
000002a0: e467 ba3d 8e4b 67be e996 53be 80b6 9fbc
000002b0: bc6b 693e 60a6 d5bd d686 6ebe 2e28 0fbe
000002c0: ea27 9cbe c016 153e d4ca a13e 66c8 c4be
000002d0: e02e c23d 94f5 573e b09b 973d 68e0 14be
000002e0: 2c32 5a3e 58b0 5b3e a451 1c3e 5ceb 92bd
000002f0: fc65 ddbd 50e4 323d fcb2 93bd 0c28 f9bd
00000300: ea9b 853e 68a2 b33e b88a 25bd d032 bbbd
00000310: 4035 c33b c0af c7bc 9001 c93d 204d ea3d
00000320: c0d8 bdbe 5c46 1abe 4806 b03e 1cda 223e
00000330: 4057 a6bc e10a 7cbe 49c3 7fbe 6a3c bbbe
00000340: 7244 08be 0c2d 0d3e 1647 853e c802 413e
00000350: c7c3 b8be b865 7bbe 08f3 83bd cc32 ca3e
00000360: e0e4 713d 0486 d8bd bcf3 2c3e e239 1fbe
00000370: 9a4a 87be 3690 983e 1d16 3ebe d89b a7bd
00000380: e6ef cfbe 9ee4 8b3e f85c 9e3e 305b 183e
00000390: 17bf 91be 144b cebe a2c3 a9be 5cde 9b3e
000003a0: d8b4 483e d6e4 af3e 7800 5b3e c89b d33d
000003b0: 4000 83bb 9ef6 9ebe d015 b3be 6f82 c3be
000003c0: dc21 2b3e 513f 4dbe 0c44 a8bd 7c96 70be
000003d0: 145b 98bd 261e 93be 3994 88be a4ab 0a3e
000003e0: d47b f8bd fc09 813e e81c 06be 2055 99be
000003f0: f084 93bd 98a5 4abe a4cb ffbd 36fd c6be
0.31212157 0.3388493 -0.095641345 0.37502152 -0.08944866 0.08238071 -0.19875774 0.23975712
0.35988837 -0.29950243 0.35484785 0.07640746 0.30161744 0.0552893 0.1968525 -0.057641
0.31471282 0.06034273 -0.1905866 0.10406178 -0.18809494 -0.047876447 -0.16581345 0.27082008
-0.32225904 -0.18820669 -0.11527902 -0.24546847 0.03853175 -0.40321833 0.36869276 -0.34679395
0.31517887 0.067940325 -0.13256007 0.25227702 0.06362581 0.32984966 0.044629574 -0.12875056
0.10968965 -0.110708535 0.17181438 0.36449313 0.23599184 -0.17847495 0.23566735 0.07304633
0.20732278 -0.24882941 -0.40412846 -0.15773103 -0.31313577 0.3349836 0.11758828 0.16910195
0.12911308 -0.0071018636 0.31949848 -0.29006597 0.02570483 -0.27864587 0.12588418 -0.1405935
0.12509394 -0.08505505 0.33859783 -0.24196956 -0.24347848 -0.24349317 0.36719602 0.13604921
0.39283723 -0.33691764 -0.40493175 -0.3193987 -0.27462417 0.16535693 0.14618385 0.3392235
-0.21082978 -0.27830768 0.21660763 -0.1650158 0.24777561 -0.096877575 0.23353678 -0.31719586
-0.20602241 0.12446529 0.08630678 -0.10408649 0.24334437 0.27753097 -0.2960508 -0.21795079
0.37381744 -0.13775626 -0.14473072 -0.39501888 -0.23379165 0.10198194 -0.053885996 -0.29634172
0.009576142 -0.2788669 -0.3463565 -0.22480708 -0.35730386 -0.25994724 0.40808862 0.07710788
0.12580568 -0.38076678 -0.2681268 -0.13588783 0.06383824 -0.35922638 -0.17590319 -0.24440543
0.0011313558 -0.15191051 -0.028289884 -0.2766412 -0.28021967 -0.2381728 -0.13974234 -0.3222226
0.34230387 -0.08102262 0.35125554 0.12720287 -0.34570342 0.2825222 -0.1123274 -0.1564922
-0.33887488 -0.4058644 0.11680418 -0.08917934 0.1589405 -0.33503446 0.30309546 -0.29967618
-0.07049361 0.0852707 0.21075892 0.3295831 0.37189758 -0.32370913 0.10274273 -0.17559819
-0.044737816 -0.30556983 0.3718565 -0.29963404 0.21818882 0.14347464 0.13266271 -0.22071789
0.3710779 0.08971274 0.052517086 -0.35977077 0.17137796 -0.06124565 -0.18702847 0.35066348
0.09101847 -0.22587416 -0.20663036 -0.019496202 0.22795004 -0.10432124 -0.23293623 -0.13980171
-0.30499202 0.1455946 0.31600058 -0.38434142 0.09481597 0.21089774 0.07402742 -0.14538729
0.21308202 0.21453989 0.15265518 -0.071737975 -0.108104676 0.043674767 -0.07211873 -0.121658415
0.26095515 0.35084844 -0.040415496 -0.09140551 0.0059572756 -0.024375796 0.09814751 0.11440492
-0.3707943 -0.15065902 0.34379792 0.15903515 -0.020305276 -0.24613525 -0.24976839 -0.3656953
-0.1330736 0.13786715 0.26030797 0.18848717 -0.36086866 -0.24550521 -0.06442839 0.3949188
0.059056163 -0.105724365 0.16889852 -0.15549424 -0.26424104 0.29797524 -0.18563123 -0.08184022
-0.40612715 0.2732286 0.30930305 0.14878535 -0.28466102 -0.40291655 -0.33157068 0.30443084
0.19600236 0.34354275 0.21386898 0.10332447 -0.0039978325 -0.3104753 -0.3497758 -0.3818545
0.16712135 -0.20043685 -0.08216104 -0.23494905 -0.07439247 -0.2873394 -0.26675585 0.13542038
-0.12132993 0.2520293 -0.13096964 -0.29947758 -0.0720309 -0.19789732 -0.12490013 -0.3886506

main.0.bias f4 [256]
00000000: 80e5 733d 5456 00be 38d2 57be ea6b 06be
00000010: c60d 15be bcf5 c73e d059 203e d2b3 cd3e
00000020: b840 e53d 4851 bd3d 2cdb 2b3e 2c80 8f3d
00000030: 0f09 a4be 9036 77be 3c91 cabd 801b c93b
00000040: ec7b 1d3e d0f7 203e 24d2 a53e a434 aa3d
00000050: 26ad 0ebe de30 9dbe 3d17 99be f7b6 79be
00000060: 202b fc3d d8db 613e 82e0 b63e a23b 04be
00000070: 28e8 03bd f849 f8bd 0087 c3ba 8431 063e
00000080: 20f6 12bc b0d3 9a3c 28d8 533d 24b0 1b3e
00000090: f0ab fdbd ae47 79be 3841 c53d 00ff 45bd
000000a0: fb62 3dbe 6090 2f3e 80a4 723b 683e 73bd
000000b0: 925e 4abe a800 5cbd d4bc b1be f833 be3d
000000c0: 40c0 c83b 8caf 7d3e 90f2 d73c e8b1 053d
000000d0: 30c3 e33d b60d 9f3e 0c8d 45be 6493 793e
000000e0: e079 cc3d 5e71 8bbe e88e 113e 62b7 7abe
000000f0: cc97 03be 0645 47be 8f33 8ebe e29e a43e
00000100: 49d4 babe 8807 513e 911f bcbe d883 4bbd
00000110: 3077 c73c c498 943e ca49 17be 80a6 f03d
00000120: 0484 813d dcf8 753e 00d4 c63c 0089 1c3e
00000130: b489 7cbe a240 91be 7e41 ba3e ea4e 98be
00000140: 0c56 8ebd 4822 4abd 4a66 cc3e e0b0 b4bd
00000150: 5621 9fbe d4f2 d3bd 18a3 573e e8aa 253e
00000160: 56ec ac3e 8c29 abbd 38eb 443e fbb2 c4be
00000170: 3cc2 213e bc13 403e 8ed6 863e b2b9 6fbe
00000180: f837 dfbd 9046 ca3d f088 94be 2046 a6be
00000190: d616 c9be 40b1 ba3c 04cd 813e 38c2 d63d
000001a0: b0e3 cb3c 7ca8 113e dc59 83be b04a 303d
000001b0: 80b4 cfbd 32fe 4ebe 8441 b43e 18b6 a1be
000001c0: 480e 753d d7ab b7be 60ed 62bc 8ec3 39be
000001d0: 5099 093e b5bf 6abe 78c8 853e 889d a9be
000001e0: f017 7b3e 8e03 9dbe 44e6 5f3e 7606 30be
000001f0: 0050 79ba fc96 98bd 8ca9 873e 5c01 093e
00000200: 2d31 b8be d8bd 193d 7c32 90be f441 9c3e
00000210: a85e 893d e806 d7bd 4046 55be acb2 103e
00000220: e05d 7abe 7843 463e 141e 643e 924c 803e
00000230: 486b da3d ebf8 b6be 9a5a 963e 10b0 01be
00000240: cc2d f7bd 60a8 33bd f8d2 983e 34b9 a03e
00000250: 4c1a 813d b878 473e 15cf c2be 00ce 7c3a
00000260: 5aeb b8be 2848 0e3e 1deb 94be 60fe 14be
00000270: 1c1d 923e 36c3 c73e 9efc 7abe 2e05 68be
00000280: f017 4f3d 1056 243e 242d 88bd 428d 02be
00000290: a74b 89be 2c74 323e faca cc3e 125e 4abe
000002a0: 602d 453e ec2b 4c3e 1e03 a83e 7862 3ebd
000002b0: 40ae 523c ae91 993e 5e20 843e 2274 ce3e
000002c0: 6099 efbd 546a 253e b4f4 913e 64e3 8dbe
000002d0: e018 a63d f813 bbbd 7a5d 863e 86c1 3bbe
000002e0: c091 ea3c 201f 7a3e 597d bfbe c07d b0be
000002f0: db1d 56be 2e12 863e e427 8c3e acc1 8ebe
00000300: a86e 9f3d c583 5dbe 8c09 42be e443 b43e
00000310: 90eb 493e 34a8 e4bd f025 763d acff a13d
00000320: e0d8 c33d 9e16 0fbe 702e 76be fc62 8a3e
00000330: 20b2 603d 20f9 2e3e 9853 1ebe 287d 4a3e
00000340: b01e 983e a03e 7e3e 8054 e33d 80a7 cd3e
00000350: 000e 6aba 6c00 b23d 6099 c63e 2226 cb3e
00000360: ee81 30be ea49 bc3e c048 1a3e 302e 3bbd
00000370: fa81 b63e 688f 58be fecf 873e 5821 cf3e
00000380: e829 90be a6af 76be bd1f cfbe 1877 96bd
00000390: e7d5 bdbe 4c03 0cbe 68d5 fd3d f8c0 933e
000003a0: d4dd 683e ac0c 683e a86e 2d3e a2a4 81be
000003b0: 9bf6 a5be f0a2 8a3c 1a7c c63e b04e bc3c
000003c0: 10d3 0fbd 30df 8dbe 8948 4fbe da20 a1be
000003d0: b45b a73e 6839 88bd 21a7 b8be 1062 333d
000003e0: e0b1 f23c a098 4ebd 40a5 153e 0cd1 603e
000003f0: 4691 c4be 8221 a0be d0a9 a0bc 11cb c1be
0.05954504 -0.12532932 -0.21076286 -0.13127103 -0.14556035 0.39054668 0.15659261 0.40176255
0.11193985 0.09244019 0.16782826 0.07006869 -0.3203816 -0.24141908 -0.098909825 0.0061373115
0.15379304 0.15719533 0.32386887 0.08310822 -0.13933238 -0.30701345 -0.29900542 -0.24386202
0.12312913 0.2205652 0.3571816 -0.12913373 -0.032203823 -0.121234834 -0.0014917552 0.13104826
-0.008969814 0.018899769 0.051719815 0.15203911 -0.1238631 -0.2434375 0.0963158 -0.04833889
-0.1849479 0.17144918 0.003702432 -0.059385687 -0.19762638 -0.053711563 -0.34714377 0.09287256
0.0061264336 0.24773997 0.02636078 0.032640368 0.111212134 0.31065148 -0.19292086 0.24372631
0.09984183 -0.2723493 0.1421467 -0.24484017 -0.12850875 -0.19459924 -0.2777371 0.32152468
-0.36490086 0.20413029 -0.36742833 -0.049686283 0.024348825 0.290228 -0.14774242 0.11750507
0.06324008 0.24020714 0.024271011 0.15286636 -0.24661905 -0.28369623 0.36378092 -0.29747707
-0.06950006 -0.0493491 0.3992179 -0.08822799 -0.3108012 -0.1034905 0.21058309 0.16178477
0.3377406 -0.08357534 0.19230354 -0.384178 0.15796751 0.18757528 0.26335567 -0.23410681
-0.10899347 0.0987674 -0.29010725 -0.32475376 -0.39275235 0.022789598 0.25351727 0.10486263
0.024888843 0.14224428 -0.25654495 0.043039978 -0.101418495 -0.20214155 0.35206234 -0.3158424
0.059828073 -0.3587329 -0.01385054 -0.18141004 0.1343739 -0.22924693 0.26129508 -0.33128
0.2452085 -0.30666775 0.21865183 -0.17189965 -0.0009510517 -0.07450673 0.26496542 0.13379425
-0.35975018 0.037534565 -0.28163517 0.30519068 0.06707507 -0.10499364 -0.2082758 0.14130658
-0.24449873 0.19361675 0.22277099 0.2505842 0.106649935 -0.35736784 0.29365999 -0.12664819
-0.12069282 -0.043861747 0.29848456 0.313913 0.06303844 0.19479644 -0.38048616 0.00096437335
-0.3611706 0.13894713 -0.29085627 -0.14550161 0.28537834 0.39016122 -0.24510428 -0.22658226
0.050559938 0.16048455 -0.06649235 -0.12749198 -0.2681553 0.17427129 0.3999861 -0.19762447
0.1925559 0.1993863 0.32814878 -0.046480626 0.012858927 0.29993957 0.25805944 0.40322977
-0.11699176 0.16153842 0.28507006 -0.27712548 0.08110213 -0.09134668 0.26243192 -0.18335542
0.028633952 0.24425936 -0.3740032 -0.3447094 -0.20909826 0.26185745 0.27374184 -0.27882135
0.07784778 -0.21632297 -0.18948954 0.35208046 0.19718766 -0.11164895 0.060094774 0.07910094
0.0956285 -0.13973472 -0.24041152 0.27028644 0.054857373 0.17087221 -0.15461576 0.19774306
0.29710913 0.24828577 0.111001015 0.40166855 -0.0008928478 0.08691487 0.3878889 0.3967753
-0.17237064 0.36775142 0.15066814 -0.045698345 0.3564604 -0.21148455 0.26525873 0.40455127
-0.28156972 -0.24090442 -0.40453902 -0.07346934 -0.37077257 -0.13673133 0.1239422 0.2885816
0.2274087 0.22661084 0.16936743 -0.25320917 -0.32414708 0.016923398 0.38766557 0.02298674
-0.035113394 -0.2770934 -0.20242514 -0.31470376 0.3268715 -0.066515744 -0.3606501 0.04379469
0.029625833 -0.050438523 0.14613819 0.21954745 -0.38392085 -0.31275564 -0.019612223 -0.3785024

main.2.weight f4 [256, 256]
00000000: 448a 68bd 6c06 623d 10c5 9bbb bc20 fdbc
00000010: e89f afbc 6edd 47bd 0cc6 473d 000b 5ebc
00000020: d4ee 0fbd 5827 42bd 24a1 153d 888c 0dbc
00000030: 4028 d7bb b871 85bc 7427 f7bc e028 363c
00000040: 76f5 443d 5e5f 14bd 2040 443b 00b1 42bd
00000050: 4813 f0bc 88b5 603d 80c9 2b3a 149c 763d
00000060: b868 33bc 0488 0bbd fef4 18bd 84e5 623d
00000070: 54dc 44bd ec58 063d 588c 7e3c 4c18 973c
00000080: 0872 103d 70f3 85bc 4a67 1e3d 02f6 4bbd
00000090: 8c24 b4bc 1067 3b3d 84f3 973c 605e 08bc
000000a0: a822 6fbc 3c51 1cbd e6ab 1b3d e040 02bb
000000b0: 6095 0abb 582b 723c 2eea 3c3d 609b 02bd
000000c0: dc54 b0bc 3a79 2d3d ee94 103d 18df fbbc
000000d0: 2640 7dbd b0f6 3d3c fea0 063d f896 743c
000000e0: a095 353d 1e21 4bbd e418 013d 6026 1fbd
000000f0: 1a14 103d 1064 3e3d 9c28 a23c 821f 4f3d
00000100: 28be 28bd d0f5 64bd 3425 76bd 90b9 203d
00000110: d45b b33c d675 3bbd a8f3 f73c da93 693d
00000120: fa6f 7cbd 32b5 393d c80d 1d3c c081 be3b
00000130: d858 663d c2d4 673d 58bb d73c 4846 4a3d
00000140: 2801 d53c 28da 263c de06 61bd f843 3f3c
00000150: 5821 36bd a4a0 9d3c 18ab 343c 000a b83a
00000160: b608 2fbd be2f 1bbd 2038 3d3d 905a f93c
00000170: 30f9 063d 6c90 98bc 3854 30bc d436 83bc
00000180: ac0c 303d 3006 ddbc d23e 213d aa82 303d
00000190: 5820 6abd 001a c839 4006 43bc c485 0dbd
000001a0: 140a dd3c 60d2 f8bb 4e21 603d 3e3b 20bd
000001b0: 2ce4 ed3c 2892 5abd 1050 00bd 40b3 8b3b
000001c0: 8c43 4a3d 12d7 063d a832 52bd 00d9 e23b
000001d0: cee8 16bd 807a 313b 4a44 55bd 0c35 96bc
000001e0: f294 2f3d a6e3 6abd 8213 74bd 0884 3a3c
000001f0: d85f 0c3c 5846 3bbc d48a 5f3d 8022 1abd
00000200: 9c69 1bbd 985a 3fbd e896 3ebc 38aa 82bc
00000210: 3266 1e3d 80fc 65bb 5082 a33c d8c3 d4bc
00000220: 4eaa 4f3d 14d0 573d 0244 65bd 7495 83bc
00000230: 2037 59bd e882 d93c b4a9 5fbd 6414 f2bc
00000240: c4c9 7f3d 9675 74bd c2e0 3c3d 6003 ad3b
00000250: dcb4 4c3d d2ea 01bd ea25 283d 5019 f73b
00000260: 4084 9d3b 6eba 2e3d c055 73bd 0e32 4ebd
00000270: 463c 773d 24ba 19bd da86 38bd c045 48bb
00000280: 78e4 a3bc 6818 0cbc 2c84 2bbd 40bd b83c
00000290: 8648 5cbd a0df a53b d862 153d 50bf 443c
000002a0: 080f 083c 40c6 153c 9cfd 95bc f811 43bc
000002b0: 30e8 d7bc 70ef 2cbd 708a 07bd 4e12 7d3d
000002c0: 805f 2bbc 005a b33c b009 313d 40fc 9fbb
000002d0: acb8 09bd 3273 2dbd 5c9f bcbc 60c0 b63c
000002e0: b497 57bd e00d fabb 08c2 c23c e2db 503d
000002f0: 9013 9a3c 5883 4a3c 5641 2f3d c896 ec3c
00000300: 7437 ad3c 6cbe 9ebc 3e49 4dbd a82f 5dbc
00000310: 70b7 39bc 4066 963b 503d e1bb e8fe ce3c
00000320: f41f 2a3d 4093 cfbc 88e8 72bd e057 03bd
00000330: dcfa f4bc 701c 113d 9421 25bd 00a1 c0bb
00000340: 9006 59bc ea5f 1bbd f414 e83c c446 d5bc
00000350: 20e5 53bb 5cfd 33bd 908f cebb f07e 113c
00000360: 80ad 26bb c04e bfbc 581b 983c 70a8 84bc
00000370: 16ed 0dbd 62c8 3cbd d8e9 58bc 72d6 71bd
00000380: 307c 543d bc98 f4bc a02e d4bc b050 bd3b
00000390: 38ba 843c 601c c1bb 329f 2f3d 303c 15bd
000003a0: b07d b73c 00ce 13b9 a43f 50bd 844b c6bc
000003b0: 244c 823c 78a0 433c 8c25 3a3d 2043 2b3d
000003c0: d4a0 0bbd 9ca3 dabc 6021 59bc 5667 37bd
000003d0: 1c3c 8abc f47c 51bd 34bc c23c 9c22 353d
000003e0: 4027 a23b f443 37bd f0de 41bd 3852 c7bc
000003f0: bcea 943c c0d1 c73a 882f 3a3c 7446 713d
-0.056772485 0.055181906 -0.0047537163 -0.030899398 -0.021438554 -0.048795156 0.048772857 -0.013552427
-0.035139874 -0.047400802 0.03653063 -0.008639462 -0.0065660775 -0.016289577 -0.03017018 0.011118144
0.048085652 -0.03622376 0.0029945448 -0.04753208 -0.029306069 0.05486062 0.0006553158 0.06020744
-0.01095026 -0.03406526 -0.037343018 0.055394664 -0.048061684 0.032799646 0.01553639 0.018444203
0.035265 -0.016351432 0.038672723 -0.04979516 -0.021990083 0.045752585 0.018548734 -0.008323282
-0.014595665 -0.03816341 0.038005732 -0.0019875094 -0.0021146163 0.014780842 0.04612177 -0.03188646
-0.02152484 0.04235194 0.03529828 -0.030746028 -0.061828755 0.011594459 0.032868378 0.014928572
0.044332147 -0.04959213 0.03151788 -0.038854957 0.03517542 0.046482146 0.019794755 0.050567158
-0.041196972 -0.055898488 -0.060094073 0.039239466 0.021894373 -0.045766674 0.030267552 0.057025768
-0.061630227 0.045338817 0.009585805 0.0058138072 0.05623707 0.056599386 0.02633445 0.04938343
0.026001528 0.010183848 -0.05493819 0.01167392 -0.044465393 0.019241638 0.01102712 0.0014041066
-0.042732917 -0.037887327 0.046196103 0.030438691 0.032952487 -0.018623553 -0.010762267 -0.016017355
0.042980835 -0.02698049 0.03936655 0.04309336 -0.05715975 0.00038166344 -0.011903346 -0.034551397
0.026982345 -0.007593438 0.05471926 -0.039118998 0.029039465 -0.05336204 -0.031326354 0.0042633116
0.049380824 0.03291995 -0.05131784 0.006922841 -0.036843114 0.0027081072 -0.05206708 -0.018335842
0.042866655 -0.05734601 -0.059588917 0.011384018 0.008567773 -0.0114303455 0.054575756 -0.037630558
-0.037942514 -0.046717256 -0.011632659 -0.015950307 0.03867168 -0.0035093129 0.019959599 -0.025972292
0.050699525 0.052688673 -0.05597306 -0.016062476 -0.053031087 0.026551679 -0.0546052 -0.029550739
0.062448278 -0.05968245 0.046112783 0.0052799433 0.04997717 -0.031718083 0.041051783 0.0075408593
0.004807025 0.042658262 -0.05940795 -0.050340705 0.060360216 -0.037531033 -0.04505048 -0.0030559152
-0.020006403 -0.008550741 -0.041874096 0.022551179 -0.0537801 0.0050620586 0.036471218 0.012008503
0.008304365 0.009141505 -0.018309407 -0.01190614 -0.026355833 -0.042220533 -0.03309101 0.061785035
-0.010459781 0.021893501 0.04322213 -0.0048823655 -0.033623382 -0.042346187 -0.023025207 0.022308528
-0.05263491 -0.0076310486 0.023774162 0.050990947 0.018808156 0.012360416 0.04278692 0.028880492
0.021144606 -0.01937791 -0.050118677 -0.013500132 -0.011335239 0.004589826 -0.006873764 0.025268033
0.04153438 -0.025338769 -0.05930379 -0.032066226 -0.029904775 0.03542751 -0.040315226 -0.0058785677
-0.0132461935 -0.037933268 0.028330304 -0.02603472 -0.0032332614 -0.043942794 -0.006303735 0.008880362
-0.0025433004 -0.02335298 0.018567726 -0.016193599 -0.03464993 -0.046089537 -0.013239346 -0.0590424
0.051876247 -0.029857986 -0.025901139 0.005777441 0.016202077 -0.005893275 0.04287643 -0.036434352
0.0223988 -0.00014095753 -0.050841942 -0.02420593 0.015905447 0.011940114 0.045445964 0.041812062
-0.034088925 -0.026689343 -0.013252586 -0.044776283 -0.016874366 -0.051144555 0.023771383 0.04422246
0.0049485266 -0.04474254 -0.04733175 -0.024331197 0.018178336 0.0015245005 0.011363871 0.05890508

main.2.bias f4 [256]
00000000: 6ed2 47bd 40d8 a33b 90fd dcbc 1823 453c
00000010: ea58 53bd e459 fc3c 2a87 3b3d 746e 5a3d
00000020: 983c 43bc b4f2 37bd 020d 0d3d 1aaa 103d
00000030: dc3d e7bc f6b7 073d 78b5 443c 04df a2bc
00000040: 049d 183d e8a7 ff3c 1c6d 843c 1458 13bd
00000050: 284a 10bc a057 5e3d 007a 20b9 d829 78bd
00000060: a02b 013b b85d bebc 3855 b23c da73 0abd
00000070: 3806 66bc ae23 4dbd 46a9 69bd ee80 1ebd
00000080: d4dc 19bd b80a 683c 2cca d43c 100c 1e3d
00000090: c806 ffbc c8e0 19bd 44dd a53c b405 fdbc
000000a0: 804a 25bd 1058 373c 1cd2 ff3c 6002 963b
000000b0: 8215 5dbd 7844 9e3c b87d e63c 90c3 e0bb
000000c0: 6414 06bd d09b 203c a894 493c 84ca f2bc
000000d0: f06f b3bc 54fc f7bc 541c 80bc e47c c83c
000000e0: e070 d2bc 409f a33b 30d7 05bd c8ec 92bc
000000f0: e00e e83b f89c ed3c 78a6 2c3d 9aff 55bd
00000100: a0f2 32bb e0d4 76bc 4008 2e3d ac7f d2bc
00000110: 387b 8fbc ec9f 26bd f8d9 fa3c 1c89 8abc
00000120: 2046 493b ec3c bfbc e0e3 1dbd a670 59bd
00000130: a07a 29bb 804b 8b3b 8030 633b 4c64 613d
00000140: 0ce4 36bd 70a4 e6bb f09e a83b f083 3b3d
00000150: 10c1 1b3d b8a7 1e3d d4b5 5abd b83e a33c
00000160: bace 56bd 7838 9a3c 5a99 55bd 2c28 5b3d
00000170: 6eaf 7d3d 3096 403c a01f ec3b a61a 57bd
00000180: 0c68 acbc c071 94ba d005 f3bb 7a3a 76bd
00000190: 5233 1cbd 1489 fbbc 1ae1 033d c048 533c
000001a0: 74a8 05bd 9cf9 023d aaf2 4bbd 6809 593c
000001b0: 1893 2d3d 18f6 26bc 2071 c53b d4d1 aabc
000001c0: 88a4 3dbc 4e79 0abd 78e1 453c 80d5 cfbc
000001d0: c8d0 8dbc b8ba 51bd 14f6 e43c 0c7d 64bd
000001e0: 503e 05bd d0b9 dc3c a0d6 6c3d ac50 47bd
000001f0: 0c46 7fbd 8c4d eb3c 3c39 bfbc cc4b dc3c
00000200: 5a17 793d ec1d 353d 80e4 e63b 94ab d5bc
00000210: 7868 a6bc 4058 733b 2894 853c 260f 303d
00000220: aca4 3b3d a8e7 233c 8c8d 92bc c8fa 7b3d
00000230: bac3 1dbd 2abe 49bd c0bd e93a 2c77 ff3c
00000240: 1883 1c3c f0a8 47bc ec70 183d 3ef5 43bd
00000250: 30ac 883b aef0 283d e8be 3dbc 7222 713d
00000260: 0440 f7bc ca83 26bd 4c64 643d 08ea 333c
00000270: accc 50bd f0b7 c1bc 6c5f d33c d055 a2bc
00000280: c67d 5d3d f0df 76bd 98f5 fb3c 8cc8 c0bc
00000290: 905f 78bd ccad 2fbd 787b 233d d038 96bc
000002a0: 2ec4 5ebd cc2a 783d c4ba a53c b6cf 453d
000002b0: 5e6b 2ebd bed8 17bd a83c 483d 8010 563d
000002c0: 0095 bcba 5419 15bd 84ec f13c 003a 51b9
000002d0: 903b 153d f21e 77bd 0e1a 0abd e247 5e3d
000002e0: 309a bbbb 5e58 683d 307a a73b c674 023d
000002f0: 448d f03c 10cc ad3b e830 4a3d 4061 0b3b
00000300: 6656 353d 0890 eabc eecf 323d baa6 0bbd
00000310: 88f8 a1bc 405c 2fbb a437 8bbc b4e7 f93c
00000320: d80c 5cbd e00b 693b c0d7 e33c faf1 293d
00000330: 7406 8e3c 1033 46bd 1ca9 b13c 007b 603c
00000340: 0005 a0b9 1c75 29bd 826b 06bd 38dc aebc
00000350: 08f6 b4bc 18a5 40bd b48f 47bd 00de e53c
00000360: 000b 4e3c 52e3 033d 68a7 04bd aa77 043d
00000370: f4c7 b13c f8a3 23bd 0075 bfb9 147c f1bc
00000380: 00a7 c83a 049e 093d 883d 08bd 649f 303d
00000390: 802e 03ba 4092 06bb c0ae a53b c076 5cbb
000003a0: 38c1 30bc 085c 2b3c c8f7 67bd b087 4fbd
000003b0: c021 8f3b 54c8 9abc 8c91 a13c f053 c83b
000003c0: 7284 0e3d a4e5 663d ee22 06bd 0005 6f3a
000003d0: 0c7f 023d 68e1 71bd a08f 9c3c ac2d ea3c
000003e0: 00d1 95ba 7edc 30bd ba70 553d 5885 63bc
000003f0: 6899 493d 8025 0ebd 985b f8bc 0cbb 383d
-0.048784666 0.0050001442 -0.026976377 0.012032293 -0.051598467 0.030804582 0.0457832 0.053327993
-0.011916302 -0.044909194 0.034436233 0.03531847 -0.028227739 0.033134423 0.012006156 -0.019881733
0.037259117 0.031207994 0.016165309 -0.03597267 -0.008806743 0.054282784 -0.00015304238 -0.06058678
0.001970984 -0.023238048 0.021769151 -0.03380189 -0.014039569 -0.050082855 -0.057046197 -0.038697176
-0.037564114 0.014162712 0.02597531 0.038585722 -0.031131163 -0.037567884 0.02024711 -0.030886509
-0.04035425 0.011190429 0.031228118 0.00457792 -0.05397559 0.019319758 0.02813612 -0.0068592504
-0.03273429 0.009802774 0.012303509 -0.029637583 -0.021903962 -0.030271687 -0.015638508 0.024473615
-0.025688589 0.0049933493 -0.032675922 -0.017935172 0.0070818514 0.029005513 0.042150944 -0.052245714
-0.002730526 -0.015065402 0.042488337 -0.025695644 -0.01751481 -0.040679857 0.030621514 -0.016911082
0.0030711964 -0.02334448 -0.038547397 -0.053085946 -0.0025860444 0.0042509437 0.003466636 0.05502729
-0.044651076 -0.0070386454 0.0051459 0.045780122 0.038025916 0.038734168 -0.05339606 0.019927368
-0.052443244 0.018825755 -0.0521482 0.053505108 0.06193488 0.0117545575 0.0072059184 -0.05251565
-0.021045707 -0.0011325404 -0.0074164644 -0.06011436 -0.03813488 -0.030705012 0.032197095 0.012895763
-0.032631353 0.031976327 -0.04979197 0.0132468715 0.042376608 -0.010190509 0.0060254484 -0.020852007
-0.011574872 -0.03380709 0.012077682 -0.02537036 -0.017311469 -0.05120346 0.02794937 -0.055783316
-0.03253013 0.026944071 0.05782187 -0.04866092 -0.06232266 0.0287235 -0.023342721 0.026891612
0.060813285 0.04421799 0.0070462823 -0.026082791 -0.020313486 0.0037131459 0.016305998 0.042983197
0.04581134 0.010003962 -0.01788976 0.06151846 -0.038516738 -0.04925362 0.0017833039 0.031184755
0.00955274 -0.012186274 0.037217066 -0.047841303 0.004170917 0.041245155 -0.01158116 0.05887074
-0.030181892 -0.040653028 0.055759713 0.01098109 -0.05097644 -0.023647279 0.025802337 -0.01981631
0.054075025 -0.060272157 0.030756757 -0.023533128 -0.06063801 -0.042890355 0.03991267 -0.018337637
-0.05438631 0.06058769 0.020230658 0.04829379 -0.042582862 -0.037071936 0.04888597 0.05226183
-0.0014387667 -0.036401108 0.029531725 -0.000199534 0.036433756 -0.060332246 -0.033716254 0.05426777
-0.0057251677 0.0567249 0.0051110014 0.031849645 0.029364236 0.005303867 0.049363047 0.0021267682
0.04427185 -0.028633133 0.04365533 -0.03409455 -0.01977183 -0.0026757866 -0.016994305 0.030505992
-0.053723186 0.0035560057 0.027812839 0.041490532 0.017337061 -0.04838854 0.021687083 0.0137012005
-0.00030521303 -0.04137145 -0.03281737 -0.021345243 -0.022089973 -0.047032446 -0.04872103 0.02805996
0.012575865 0.03219921 -0.032386214 0.032340683 0.02170179 -0.039951295 -0.0003651753 -0.02947811
0.0015308559 0.03359796 -0.033261806 0.043120757 -0.00050041825 -0.002053395 0.005056232 -0.0033640116
-0.010788254 0.010458954 -0.056632787 -0.05066651 0.004368037 -0.018894352 0.019722722 0.0061135218
0.03479428 0.056371346 -0.032748155 0.00091178715 0.031859443 -0.059052855 0.019111454 0.028586231
-0.0011430085 -0.043179028 0.052109458 -0.013886772 0.049218565 -0.03470373 -0.030317113 0.045100257

main.4.weight f4 [256, 256]
00000000: 00cb c3bc 7294 343d 60c0 a13c a251 1fbd
00000010: 0622 693d 3082 93bb e0f0 483b e0d3 1c3d
00000020: a829 573d 1c4f 7fbd 408f bbba 286a 0cbc
00000030: fac9 0cbd f262 7dbd e042 08bb 4ea3 49bd
00000040: c0ed ef3b e2b3 35bd b8e5 f5bc 0083 263d
00000050: c8a4 663d be94 3cbd b817 473d 4cae 51bd
00000060: 78db 223c a06e 27bc 8407 20bd 8cba 8fbc
00000070: ecf9 92bc ba89 0cbd 4034 4cbc 8026 8dba
00000080: fcde d8bc 50dc 0fbc b8e8 19bc cc00 f4bc
00000090: e49f eabc 081b 943c c4ed 0d3d 68c0 a33c
000000a0: f876 45bc cadf 7bbd c093 613b 0024 eb3a
000000b0: 5c6c 1fbd d28d 3b3d 2abf 32bd f466 693d
000000c0: c036 393b 60f3 c2bb 1046 4a3d bae7 1d3d
000000d0: 703e 643d b064 c73c eca1 ecbc 1a4f 503d
000000e0: 785e a93c d486 a43c ecb7 57bd c0cb 9bbb
000000f0: 106d 1fbc 0205 2c3d cc18 493d e071 39bd
00000100: cabb 733d 60f2 24bb bae1 57bd f0eb 0abc
00000110: 10ea 26bc 5803 84bc 00e9 80ba 4016 2e3d
00000120: cc04 d7bc 6c52 c8bc 381c 743d a891 dbbc
00000130: 8cb2 70bd 408d fb3c f413 6f3d 60b1 4a3d
00000140: 94f4 1dbd d8a2 a4bc caca 1abd a877 733c
00000150: 60ec 923b 04fc 24bd d810 693d ce16 1c3d
00000160: 2077 15bb 6098 abbc 9074 cbbc d00d 42bd
00000170: 18ae a23c c07b 5d3c 56f6 46bd e0e8 fabc
00000180: 50f2 6f3c beac 0fbd 681f c13c 10af d13b
00000190: 1850 3bbc 2aa5 7b3d 84ba 703d c4d2 c93c
000001a0: 44d5 82bc 325f 10bd ecb8 003d 3856 113c
000001b0: 14e9 8b3c 904f 6abd d084 0bbd 7efb 09bd
000001c0: 1ebf 5c3d 1c2f 9bbc d0e1 c13c 505b 743d
000001d0: 9019 623c 00a0 6038 645f 46bd 9291 6bbd
000001e0: 3ef1 16bd a4fb 5bbd ea96 353d a8da 8e3c
000001f0: 00a6 4c39 d670 603d c409 22bd 1cfa 5e3d
00000200: 5eb5 303d f45c 803c 4ac4 56bd 767f 3abd
00000210: f819 b0bc b676 34bd ac16 323d 2087 1e3b
00000220: f828 83bc 185e 4bbd 6061 193c 56c5 563d
00000230: 1c5c a43c 04c5 4cbd 0459 913c 8c1e 3f3d
00000240: 785d 713d 40ec 873c 8cc0 6a3d 80a2 cabc
00000250: 46bc 5d3d 2436 0dbd 0c79 bb3c 2aef 53bd
00000260: 9ee9 1c3d 507c ae3c 5e1a 13bd 8096 783a
00000270: a694 3abd b64a 573d 2c87 1abd 14e2 e2bc
00000280: 78d0 3b3c 2442 24bd ac29 86bc 0a6f 743d
00000290: 4622 48bd 4862 70bc fc43 b83c a016 1bbc
000002a0: c89d 413c 36b7 3a3d e056 38bd ba52 3bbd
000002b0: 16cc 1a3d 88d1 453c 74de 613d 64ba 9fbc
000002c0: eac3 3ebd 7448 bcbc 8676 7fbd 40b6 c9ba
000002d0: b850 4f3d 04d2 f23c b846 283d 18e1 62bc
000002e0: 8cc7 9e3c 54d2 9dbc d074 0fbd 5005 b43c
000002f0: aab9 493d 484a 0d3c 0822 ffbc c409 0bbd
00000300: 90da 0fbc 8a34 20bd 9021 3d3d d07c 4d3d
00000310: cc65 2a3d 8001 88ba 7cbe 86bc 3487 0abd
00000320: c04e 0cbc 10fb bd3b a80d 83bc 2c94 f63c
00000330: 184d 903c f80a 533c 4867 b73c 5494 b13c
00000340: dcb8 cc3c 1e98 183d 722f 7d3d 8e83 0e3d
00000350: 8ca4 9fbc c832 d23c f636 06bd 0808 403c
00000360: 862f 59bd 8407 d73c 4814 79bd 3218 13bd
00000370: f424 3c3d 5258 303d 1875 5abd 300a c6bc
00000380: 542a 373d 9ad7 48bd 805e fd3a 8e50 1cbd
00000390: 26b7 723d 4836 6dbc 0008 a938 189f ffbc
000003a0: 441b f1bc 10c1 043c 0e85 483d 1c98 33bd
000003b0: d4e6 91bc c043 84ba d8e3 7e3d 2c1c 21bd
000003c0: c201 32bd b8d1 2d3d c0f2 fc3b 50d9 863c
000003d0: 0c0f 53bd 7c2a 42bd 4019 dd3a a071 f73b
000003e0: 6037 a53b f8c7 89bc 4096 54bc f2bb 3c3d
000003f0: 00be 303c 688f 193c 147a 7cbd 4cda 9e3c
-0.023900509 0.04408688 0.019745052 -0.03889621 0.056917213 -0.0045016035 0.003066115 0.038287997
0.05252996 -0.062331304 -0.001430966 -0.0085702315 -0.034372307 -0.06186194 -0.0020791814 -0.049228005
0.007322043 -0.044361003 -0.030016765 0.040652275 0.05630949 -0.04604029 0.048606604 -0.051191613
0.009940021 -0.010219246 -0.039069667 -0.017545007 -0.017941438 -0.034311034 -0.012463629 -0.001076892
-0.026473515 -0.008780554 -0.009393863 -0.029785536 -0.028640695 0.018079296 0.03465058 0.019989207
-0.01205229 -0.06149272 0.0034420341 0.0017939806 -0.0389217 0.045789547 -0.04363934 0.05698295
0.0028261393 -0.0059494227 0.049383223 0.03855107 0.055723608 0.024340004 -0.028885804 0.050856687
0.020674929 0.020083822 -0.052665636 -0.0047545135 -0.009730592 0.041996963 0.049095914 -0.045274615
0.05950526 -0.002516888 -0.052705504 -0.008479103 -0.010187641 -0.016114876 -0.0009835064 0.042501688
-0.026247405 -0.024453364 0.059597224 -0.026802853 -0.058764026 0.030707002 0.05836864 0.049485564
-0.038563326 -0.020097181 -0.03779105 0.014860071 0.0044837445 -0.040279403 0.05690083 0.038107686
-0.00228066 -0.020946681 -0.024835855 -0.047376454 0.019858405 0.013518274 -0.048574768 -0.030628622
0.014645174 -0.03507685 0.023574546 0.006399043 -0.01143267 0.06143681 0.058771625 0.024636634
-0.015970834 -0.035247035 0.031426355 0.008870654 0.017078914 -0.057204783 -0.034062207 -0.033687107
0.0538932 -0.018943362 0.023667246 0.059657395 0.01380004 5.3554773e-05 -0.048430815 -0.057511874
-0.03685116 -0.05370678 0.044333376 0.017438248 0.00019516796 0.05479511 -0.039560094 0.05443774
0.043141715 0.015669324 -0.05243329 -0.045531712 -0.021496758 -0.044058524 0.043478653 0.0024189427
-0.016010746 -0.04965028 0.009361595 0.052434288 0.020063452 -0.049992576 0.017742641 0.04665999
0.05892703 0.016592145 0.057312533 -0.02473569 0.05413463 -0.03447546 0.022884868 -0.051741756
0.038308732 0.021299511 -0.035913818 0.00094828755 -0.04555192 0.052561484 -0.037726566 -0.027695693
0.011463277 -0.04010214 -0.016377293 0.059676208 -0.04886081 -0.01467187 0.022493355 -0.009465843
0.011817403 0.04558488 -0.045004725 -0.04573319 0.037792288 0.012073882 0.05514379 -0.019498058
-0.046573557 -0.022983767 -0.062368892 -0.0015389398 0.05061409 0.029641159 0.041083068 -0.013847612
0.01938226 -0.019265331 -0.03502351 0.02197519 0.04924933 0.008623667 -0.031144157 -0.03394486
-0.008780137 -0.039112605 0.046174586 0.05016786 0.041600987 -0.0010376424 -0.016448252 -0.033820346
-0.008563697 0.0057977512 -0.015997723 0.03009995 0.017614886 0.012881033 0.022388116 0.021677174
0.024990492 0.037254445 0.061812826 0.03479343 -0.019487642 0.02565898 -0.03276726 0.011720665
-0.053023838 0.0262487 -0.060810357 -0.035911746 0.04593368 0.04305298 -0.053334326 -0.02417478
0.0447181 -0.04903374 0.0019330531 -0.03816276 0.059256695 -0.014478274 8.060038e-05 -0.031203791
-0.029431947 0.00810267 0.048955016 -0.043846235 -0.017810263 -0.0010090992 0.062229007 -0.039333507
-0.043458708 0.04243633 0.0077193677 0.016461045 -0.05152802 -0.047403798 0.0016868487 0.007551387
0.0050420016 -0.016818985 -0.0129752755 0.046077676 0.010787487 0.00937257 -0.06163986 0.019391201

main.4.bias f4 [256]
00000000: b0de 7abc 24a6 00bd b81b d9bc 9e76 2d3d
00000010: 32ce 613d c060 2a3d e41f 52bd 00b3 fcba
00000020: c841 153d 004c a838 f872 6cbd 7ed6 3c3d
00000030: bc86 8c3c 381d 5a3c f41f e83c 5c1c a93c
00000040: 140d a23c 2c0e be3c fc49 ce3c 0c5c d03c
00000050: de44 3e3d 54b5 3b3d 98df 5a3d 66bd 2d3d
00000060: 709f 313c a0ac 1d3c 88cd 443d 602c 723c
00000070: fe3d 46bd ac85 b83c f606 56bd 0017 d73a
00000080: d402 27bd c4fb 7f3d 92e2 543d 6851 53bc
00000090: b002 333d 1815 023c 701f 96bb cc0c 0ebd
000000a0: e8c9 9cbc c073 b9ba c04e adbb 56df 60bd
000000b0: 983e 69bc a2d7 653d 0014 43bd a05a 88bc
000000c0: a064 b0bb dc43 9f3c 68f0 5a3d d8c4 22bd
000000d0: e0a8 6a3d 4638 5ebd f82c 7a3c c497 2d3d
000000e0: 241e 26bd e63f 4bbd 6843 aebc 06a3 4ebd
000000f0: ae75 4fbd 60ac be3c c844 0dbd 80a0 4dbb
00000100: cecf 053d 7c54 c83c 1400 1c3d d884 123c
00000110: 785c 22bd 02f2 77bd 1017 553c d015 40bd
00000120: 66a0 703d a07a 993c 9c56 39bd f4b2 4ebd
00000130: 80ee c43c 5c27 a0bc 9870 97bc 5049 81bb
00000140: 4886 98bc 580e 70bd 90cf 44bd b4bf 233d
00000150: 40a1 08bc ac90 d6bc a000 e63b 8a7e 5f3d
00000160: f82a 88bc d081 8e3b 6c17 cd3c 602a e7bc
00000170: a0a5 7c3d d40f 7cbd e04c 8bbb f0d1 b4bb
00000180: 586d 12bd 0874 4c3d c44c d53c 047c b5bc
00000190: 54cd a7bc 70f7 d33b e020 823b d0e6 fd3b
000001a0: 00ff a1b9 70b9 bd3b 6a9d 4c3d 12ee 613d
000001b0: 4ca3 9f3c 10b9 763c fa62 2f3d 5070 643d
000001c0: 9076 14bc f4f1 f33c 2c34 98bc 58fd 05bd
000001d0: c610 66bd f09b a93c 9058 e6bc c8f3 0c3c
000001e0: e049 b6bb 407e 783b 285d 593c 6498 ea3c
000001f0: da23 0fbd 46c2 553d e067 213b 5484 7b3d
00000200: 64d5 c5bc 88d0 5d3c 2a47 303d 6006 133c
00000210: c87e 84bc e2fb 15bd b0b3 383d 049e 743d
00000220: 88d6 533d 9871 d0bc 30e3 2b3c 003d 07bc
00000230: 707a d83b 0065 de39 0c78 ac3c 54fd 343d
00000240: 9409 c43c 1e10 09bd 30b3 9a3b 127e 3cbd
00000250: 3463 cfbc 184b 2fbd 825a 313d 7a3b 2c3d
00000260: a41c 693d 7c78 233d 383d dcbc 7e09 453d
00000270: bc14 bdbc 1426 85bc dcae 853c c07e 15bb
00000280: bc76 6ebd b083 5abc 80b9 8fbc e037 62bb
00000290: 90c0 dbbb 0050 15bb 8000 843c 6082 0a3c
000002a0: cca2 17bd 00a9 9ebc 2e79 75bd b811 363d
000002b0: 5829 253d 383b 4f3c 5461 ae3c 6802 c3bc
000002c0: 5a8b 79bd aa7d 40bd 38b9 003c 5854 493d
000002d0: fca5 eabc a0ca a33c 9a3c 16bd e0c7 44bd
000002e0: 0880 82bc 8841 4e3c ee53 733d 4472 96bc
000002f0: 6025 efbc 20fc 563c 9a38 0abd 4499 cabc
00000300: 4e21 66bd 8061 643b 9460 78bd 104a c63b
00000310: 5066 37bc bad2 253d b07a 9b3b a0be bf3c
00000320: 02a0 4f3d 6aaa 6bbd 9206 6ebd 6095 63bb
00000330: 948d c93c e899 13bd 4459 8cbc 1a8d 7dbd
00000340: 50b9 54bd b260 31bd 9819 df3c 8ad4 09bd
00000350: 4858 f3bc 4870 1e3d 2854 523d 22a2 5d3d
00000360: 007d af3a 5c40 7cbd 982e 653d d8d2 b73c
00000370: b0c4 043d 3c93 b53c 28f7 68bd f295 363d
00000380: 7cc4 5b3d 9094 d4bc ec3a fc3c a67a 74bd
00000390: c4af 88bc b072 fbbb 54f5 86bc d4b5 d9bc
000003a0: 2c2a 63bd 2058 35bb b253 4a3d ca42 0fbd
000003b0: 2801 a9bc 94d3 bcbc b0e2 0b3c 34cb 5fbd
000003c0: ba7c 3e3d c6a6 0e3d 943e e83c d8ae 8f3c
000003d0: 1a63 5c3d 0eb2 4bbd 102b 2bbc f041 5f3c
000003e0: b4be ff3c 9620 233d dcfe 183d 6cb4 5ebd
000003f0: 0c46 d03c 500c 74bd 2c41 05bd 6085 b03c
-0.015311882 -0.031408444 -0.026502475 0.04234945 0.055128284 0.041596174 -0.051299945 -0.001927942
0.036439687 8.02502e-05 -0.05772683 0.046102993 0.01715409 0.01331263 0.028335549 0.020643406
0.019781627 0.023200117 0.025181763 0.025434516 0.046452396 0.045827225 0.053435892 0.042416953
0.0108412355 0.009623677 0.048047572 0.014781088 -0.048398964 0.022524677 -0.052252732 0.0016410053
-0.04077418 0.06249596 0.051973887 -0.012897827 0.043703735 0.007939599 -0.0045813844 -0.034680173
-0.019139245 -0.0014148876 -0.0052889287 -0.05490049 -0.014236115 0.056113847 -0.047626495 -0.016644776
-0.005383089 0.019441538 0.053451926 -0.039738506 0.057289958 -0.054252885 0.01526951 0.042381063
-0.040556088 -0.049621485 -0.021272376 -0.05044844 -0.050649337 0.023275554 -0.034489423 -0.0031376183
0.03266888 0.024454348 0.038086012 0.008942805 -0.039638966 -0.06053353 0.013005987 -0.046895802
0.058746718 0.01873523 -0.045248613 -0.05046363 0.024039507 -0.019550018 -0.018486306 -0.003945507
-0.018618718 -0.05860743 -0.04804951 0.039977744 -0.008339226 -0.026192032 0.0070191175 0.054564036
-0.016622052 0.004348971 0.025035582 -0.028218448 0.06168139 -0.061538532 -0.0042511076 -0.0055181906
-0.03574881 0.049915344 0.026037581 -0.022153862 -0.02048365 0.006468706 0.003971204 0.0077484623
-0.00030898303 0.005789928 0.04995481 0.055158682 0.019487046 0.015058771 0.042819 0.055771172
-0.009061471 0.029778458 -0.018579565 -0.03271231 -0.05616834 0.02070424 -0.028118402 0.008603044
-0.005563006 0.0037917048 0.013266839 0.028637119 -0.0349463 0.052187227 0.0024628565 0.061405495
-0.024149604 0.013538487 0.043036617 0.008973688 -0.016173735 -0.036617167 0.04509324 0.059721008
0.051718265 -0.02544479 0.010491177 -0.00825429 0.0066063926 0.0004241839 0.021053337 0.044186905
0.023930348 -0.033462636 0.004721068 -0.046018668 -0.025315858 -0.042796224 0.043299206 0.04204891
0.05691208 0.039909825 -0.02688466 0.048104756 -0.023081176 -0.016253509 0.016318731 -0.0022811145
-0.058218703 -0.013337061 -0.017544508 -0.0034518167 -0.006706305 -0.002278328 0.01611352 0.008453935
-0.03702049 -0.019367695 -0.05993002 0.04445049 0.04032263 0.012648396 0.021286644 -0.023804858
-0.06092391 -0.046994843 0.00785666 0.049152702 -0.0286436 0.01999408 -0.036678888 -0.04804218
-0.01593019 0.012588866 0.059406213 -0.018365033 -0.029192626 0.013121635 -0.033745386 -0.024731286
-0.056184106 0.0034848154 -0.06063898 0.0060513094 -0.011193827 0.040484168 0.00474485 0.023406327
0.050689705 -0.057535566 -0.058111735 -0.0034726486 0.024603643 -0.03603545 -0.017132409 -0.061902143
-0.05193454 -0.043305106 0.027233884 -0.03364996 -0.029705182 0.0386813 0.05134979 0.0541097
0.0013388693 -0.061584815 0.05595264 0.022439405 0.03241414 0.022164933 -0.05687633 0.044576593
0.05365418 -0.025949746 0.030789815 -0.05968728 -0.016685374 -0.007673584 -0.016474403 -0.02657596
-0.05546014 -0.0027670935 0.049396224 -0.034975804 -0.020630434 -0.023050107 0.008537933 -0.05463715
0.046505667 0.034827016 0.028350152 0.017539427 0.053805448 -0.049730353 -0.010447279 0.013626561
0.031218864 0.039826 0.037352428 -0.054371282 0.025424026 -0.059582055 -0.032532856 0.021547973

main.6.weight f4 [4, 256]
00000000: a854 47bc 60a2 423b 705c bd3b 5cf0 953c
00000010: 885a 193c 605b 2cbb e09a a3bc 5c96 cf3c
00000020: 0041 f6bb f03a 81bc a28c 18bd 5898 403d
00000030: 985a 7f3d d884 3bbd 7041 35bd 0836 483c
00000040: 681b 0b3d de0e 293d 00c9 d9bc 1c54 973c
00000050: aecb 003d 7ccf babc b85b 2fbc b08d fe3c
00000060: 007d 19bd 44f1 143d 40cb 513c ec3b 6c3d
00000070: 94d3 1bbd 3274 7b3d 866c 153d 4465 3cbd
00000080: f025 97bc acd4 763d 3e24 57bd 9c40 273d
00000090: e0e3 f2bb 2406 623d 541a 643d 68c7 8bbc
000000a0: cc81 5b3d d08c 3c3c d65c 29bd 40b3 9ebc
000000b0: 722a 7d3d 8c21 10bd 6456 1cbd 4e9c 613d
000000c0: d23c 623d 1c2e 443d 7c74 ee3c 8e07 5ebd
000000d0: 4465 09bd 98af 6b3c 927f 03bd 684e 97bc
000000e0: 405f ed3c b0eb 773c 98a1 343c 8081 39bb
000000f0: 6868 45bd ca87 3f3d e098 69bc 3c2b de3c
00000100: 947b e9bc 3e98 11bd 842e eebc 1252 05bd
00000110: 5c16 f03c 063d 16bd 7025 b5bc 18aa 16bc
00000120: f04f 84bc 5875 483c acaf 353d 6242 5d3d
00000130: a837 4d3d 00f6 bfbc 0892 78bc 98db 3c3d
00000140: e6f9 5d3d 2ad2 32bd 1c77 c73c 00a0 1c3b
00000150: 1c81 3b3d 9221 473d 0048 3ebd 98a1 29bc
00000160: 0085 eaba 668e 013d d245 573d feeb 5b3d
00000170: 3805 61bd b0fb 06bd f85c a93c a6f8 1cbd
00000180: d8fd 79bd 80ff 203d 244a 2cbd 3039 76bc
00000190: 900b 333c 9aaf 53bd 3cbf 2b3d 7486 4cbd
000001a0: f0e2 8abb 4666 4c3d 5cfc e73c 3028 9dbc
000001b0: b045 e1bb 3c3b 47bd 8600 173d e033 ad3c
000001c0: 020e 243d 20b6 ec3b 4405 cd3c 82cb 603d
000001d0: c074 44bb 4026 23bc e0f3 bf3b 64a6 a8bc
000001e0: 7459 0fbd fa05 093d a0a4 af3c 78f5 8d3c
000001f0: 20a1 01bb 4013 493c 3e46 23bd 007d 6bba
00000200: 903b 30bd 58f5 493d 0cde aebc 48af 7ebd
00000210: 204e abbc 1cae be3c 0059 58bc 1070 033c
00000220: 9c21 e73c 7c2a c43c 481b 8d3c 8632 413d
00000230: 24e6 e33c de91 03bd 5c6d 3cbd 6809 033d
00000240: 9684 103d 1407 7f3d f0e9 8a3b 0aa4 223d
00000250: b672 3bbd 8032 ccba 28c3 28bc 9cf3 ccbc
00000260: 720e 6abd 2c50 c5bc 9024 f33b 5696 67bd
00000270: 8493 a53c a0dc 08bc 386e d1bc 029e 69bd
00000280: ac66 cbbc d69c 4fbd 1438 f13c bc33 543d
00000290: 467a 593d 00c1 60ba ece9 6ebd 5e2d 7dbd
000002a0: eeae 203d be0b 0abd 0442 5b3d 40b4 92bc
000002b0: 6086 a4bc e018 c7bb c496 9b3c 5016 8d3b
000002c0: 1236 7cbd 7413 c7bc a04d 683d 4693 3fbd
000002d0: b04d 173c c6db 1dbd 182e 6cbc c8ab e93c
000002e0: 9826 66bd a8d1 e13c 3c67 b6bc 44be 4bbd
000002f0: 3e91 393d 12d7 01bd 4432 87bc fe37 4c3d
00000300: e0aa 93bb 109e 7f3d 4082 e9bc 8877 12bc
00000310: b025 b7bb 7093 03bc 46a1 55bd 6064 5c3b
00000320: 284c cb3c e623 143d 9c34 0f3d b87e 283c
00000330: c058 3cbc f882 eb3c 80ca 213b f63c 133d
00000340: a8c6 9e3c dcc6 fdbc 2e80 09bd e483 143d
00000350: 60e3 f23c 4235 76bd 405a 533d 8021 2f3c
00000360: 9c5e 2abd 9eba 70bd 5c38 e73c 281a 7c3d
00000370: 3233 273d 60ab 0abd 709b 4abc 7cd2 5cbd
00000380: 98bb 193d 0409 893c 6001 aabc 04ff 94bc
00000390: 28bd 01bd 4234 08bd c0cc 1fbd 088f 51bc
000003a0: d264 1c3d 80be 2e3b 60fa c23c 769b 513d
000003b0: fcc4 59bd d2be 103d 9c99 4fbd e85f d2bc
000003c0: 808c 5bbc 7809 0c3d d099 4abd 5411 17bd
000003d0: f463 bc3c 4a23 5ebd 96ed 533d f273 42bd
000003e0: c47b ce3c 1050 33bc 78d4 cebc c000 cdba
000003f0: d0e9 6cbd e8c6 7e3c f8d6 853c 0873 41bc
-0.01216618 0.0029698834 0.0057788417 0.018303089 0.009359963 -0.002629958 -0.019971311 0.025340252
-0.007515073 -0.015775174 -0.037243493 0.047020286 0.062342256 -0.045780987 -0.04425186 0.012219913
0.033961684 0.041273944 -0.026585102 0.018472724 0.031444244 -0.022804014 -0.01070302 0.031073421
-0.037472725 0.0363629 0.012804806 0.057674333 -0.038043573 0.06139011 0.03648045 -0.045995012
-0.018450707 0.060261413 -0.052524798 0.0408331 -0.0074124187 0.055181637 0.05568917 -0.017062858
0.05359058 0.011508182 -0.0413483 -0.019372582 0.061808057 -0.035188243 -0.038168326 0.055080704
0.055233784 0.047895536 0.029108278 -0.054206423 -0.03354384 0.0143851265 -0.032104082 -0.018470004
0.028976083 0.015131876 0.011024855 -0.0028305948 -0.048195273 0.046760358 -0.01425764 0.027120225
-0.02850131 -0.03554558 -0.029074915 -0.03254897 0.029307537 -0.03667929 -0.022112578 -0.009195827
-0.016151398 0.012235008 0.044356987 0.054018386 0.050101906 -0.023432732 -0.015171535 0.04610786
0.0541934 -0.04365746 0.024348788 0.0023899078 0.045777425 0.048616 -0.046455383 -0.010353468
-0.001789242 0.031629942 0.05255682 0.053691857 -0.054936618 -0.03295487 0.020674214 -0.038323067
-0.0610331 0.039306164 -0.042062894 -0.015028283 0.01092805 -0.05168114 0.041930422 -0.049932912
-0.004238479 0.049902223 0.028318577 -0.019184202 -0.0068747625 -0.048640475 0.036865734 0.0211429
0.04005242 0.0072238594 0.025026925 0.05488158 -0.0029976815 -0.00995785 0.0058579296 -0.020587154
-0.03499742 0.033452965 0.021440804 0.017328963 -0.0019779876 0.012272656 -0.03986191 -0.0008983165
-0.043025553 0.049306244 -0.021346115 -0.06217888 -0.020911276 0.023276381 -0.013204813 0.008022323
0.028214268 0.02394604 0.017224923 0.047167324 0.0278197 -0.03212153 -0.04600273 0.031991392
0.035282694 0.06226261 0.0042393133 0.03970722 -0.045763694 -0.0015579015 -0.010300435 -0.025018506
-0.057142682 -0.02408608 0.00742013 -0.056539856 0.020211942 -0.008353382 -0.025565252 -0.057035454
-0.024829231 -0.05068668 0.029445685 0.05180715 0.053095125 -0.0008573681 -0.058328554 -0.061810844
0.039229326 -0.033702604 0.053529754 -0.017908216 -0.020083606 -0.0060759634 0.01899279 0.0043056384
-0.061575003 -0.024301268 0.056714654 -0.04677131 0.009234831 -0.03853967 -0.0144152865 0.028524294
-0.05618915 0.027565792 -0.022266023 -0.049742 0.04530453 -0.031699248 -0.01650346 0.049858086
-0.004506454 0.0624066 -0.02850449 -0.008939631 -0.0055892095 -0.008030757 -0.052155755 0.0033629164
0.024816588 0.036167048 0.03496228 0.010284118 -0.011495769 0.028748974 0.002468735 0.03594681
0.019381836 -0.030978613 -0.033569507 0.036258593 0.029649436 -0.060109384 0.05159974 0.010689139
-0.041594133 -0.058771722 0.028225116 0.061548382 0.040820308 -0.033854842 -0.012366161 -0.05391167
0.03753242 0.016727932 -0.020752609 -0.018188007 -0.031674534 -0.033252962 -0.039013624 -0.012790449
0.038182087 0.002666384 0.023801029 0.05117365 -0.053166375 0.03533823 -0.050683603 -0.025680497
-0.013400197 0.034188718 -0.049463093 -0.03688176 0.02299688 -0.054232873 0.05174025 -0.047473855
0.0252055 -0.010944381 -0.025247797 -0.0015640482 -0.05784017 0.015550353 0.016337857 -0.011807211

main.6.bias f4 [4]
00000000: 0074 cfbb 20ce 5c3c 840b 2a3d 98b5 f83c
-0.006330967 0.013476878 0.04151489 0.030360028
