src/episode_100.pth (torch, 540912 bytes, 8 tensors)

main.0.weight f4 [256, 6]
00000000: 9c02 a73c 68d9 0b40 7c5a 2a40 7e74 acc0
00000010: 817a 12bf a0ff 0bc1 bf1f afbe c4ab 8a3f
00000020: d43b 18c2 cb60 51c1 4951 d23e 58dc 18c0
00000030: edf4 4a3d 07e3 a03d d965 a4be 5369 5040
00000040: 4b57 a23d 3a8b ce40 2229 43be 581e d53d
00000050: f69b 40be 181a 44bd 00cb 29be eea8 8a3e
00000060: 23ff a4be 41b9 40be 6817 ecbd 165c 7bbe
00000070: 78d3 1d3d a272 cebe 68ef 533d b60d 0dbf
00000080: 4324 f0be 11ab e9bf c904 973d 1cbf e240
00000090: 53fa 313c 9113 c63f de0c bbbf 2125 76c0
000000a0: 1a8f 223d b0dc fd40 c50a 093c 275e 653f
000000b0: 01c5 f1c0 8e26 fb40 9620 2bbe a604 1041
000000c0: 4760 9d3d 0dbc aebf 0297 1bc0 ff1a 2fc0
000000d0: 2df2 693e 408a e940 1630 c93b 22f6 1e3d
000000e0: 959f 9140 ae17 29c1 5a48 683c f94e 51c1
000000f0: d281 443b 501f f3be 4a47 bebf a501 18bf
00000100: b87b 953e cd4e eb40 cee3 9d3d 9702 03bf
00000110: ee8a 4ebf 7e17 6340 5b03 ee3d 072e d940
00000120: fdc4 ef3c b14c f83b 33b6 70c1 4529 65c1
00000130: 5fec 40bd 0a72 c440 03bf 7bba 5622 213f
00000140: b427 08c0 1d72 4f41 8f6c a0bd 8fd6 2641
00000150: 9327 f73b 02f6 18bf 0ba2 b0bf 2ad7 17c1
00000160: 9551 fd3d 99d1 4fc1 95a3 313e adfb e2bf
00000170: 3da0 e0be 424c 8640 1086 a4bf ced9 a1c0
00000180: 1e99 573d 28d4 d63e 751e 8a40 bf5c 0fc1
00000190: bdc7 0dbe fec0 0cc1 90b7 5cbd 1aba 97be
000001a0: 40e5 1c3c a4c7 8ebe a455 b1be d433 66be
000001b0: 4511 81bf 8d95 aa3d bb04 94bf 6b1c a23f
000001c0: 8f90 cd3e 988f a1c0 ea47 89be 2e26 0bbe
000001d0: a0bd 823d 85ec b7be f71f 34be 6b45 7abe
000001e0: f4c5 853d 0067 45bf 1f97 29c0 f8dd 74c1
000001f0: a242 a5bf 92a0 0241 edf9 6bbe 16d5 d1be
00000200: e543 a9bf fbc6 9b3f 08b2 b53e afcf 74c1
00000210: 0a00 b1be c0a6 903e e80b e6bd 7e3f 20be
00000220: 0281 adbe 75cd cfbe b8ac 4939 677b bdbe
00000230: ec99 883d 5567 bc40 b3cf 7c3e 3b4b e740
00000240: 2bda 2cbe 7b43 fc3e f3f8 4fc2 6306 36c1
00000250: 9319 353f 6956 bebf 45b4 163a 79a1 22bf
00000260: ea7a d5bf b74c a940 f566 9f3e a30b ec40
00000270: 0664 273c cd3e a6be 9c6c 8640 a5d6 9341
00000280: c42a 6e3e d73e 32c1 ee9f c03b cfb1 483e
00000290: 0c8c 0bc0 ab3b 86c0 c684 0fbe ffe9 0941
000002a0: 823c e93c 890d bebf bdf4 883f 21bb b8c0
000002b0: cc68 cf3e b2de 10c1 d19b 44be 11d6 c6be
000002c0: a310 4cc0 ec18 5d3f 02c4 a53e 34d9 9dc1
000002d0: 1fdf ea3b b0d4 083f e7a2 54c0 82e1 97c0
000002e0: cb7d 013d c427 0e41 71f6 633c c37d efbe
000002f0: 14e8 88c1 4a88 f8c0 0ec2 103e 46ba 32c0
00000300: 35cd e63c 5728 3c3f 4bca a5c0 0a7c a8c0
00000310: c131 27be c168 cdc0 7236 113b b222 763d
00000320: b3d5 1c40 c4ea e5c0 27a1 a03e f401 2ec1
00000330: 7d48 55bd 0849 8ebe 3d25 90be fb7f cbbe
00000340: accb 28be aa4b d93d 80d9 4db7 fe0a 113f
00000350: 0f06 0bc0 2332 9841 523a dfbd 33b0 2441
00000360: 704f fb3b 1324 5abf e188 64c0 8b5d 6dc1
00000370: d911 273e be70 1841 9a81 26be 4f68 e1be
00000380: 5fad 0a41 6386 bfc0 8876 103e 4a51 8241
00000390: abba a4be b447 96be c3c7 42c0 c9b2 cbc0
000003a0: 81ca a13e 4783 4041 8ae1 d63d 0bad 30bf
000003b0: 191c 0cc0 f96c f9c0 ba38 043d 184d b5c0
000003c0: 5ab2 b03b 3c04 7abf abe2 cabf 4006 8741
000003d0: 3588 333e f3f7 fb40 3994 88be a4ab 0a3e
000003e0: d47b f8bd fc09 813e e81c 06be 2055 99be
000003f0: ed3b 55bd 1e20 14bf 32e3 db41 18d0 aa40
0.020386986 2.1851444 2.6617727 -5.38922 -0.57218176 -8.749908 -0.34203908 1.0833669
-38.058426 -13.086131 0.4107764 -2.3884487 0.049549986 0.07855802 -0.32108954 3.2564285
0.07926806 6.4544954 -0.1905866 0.10406178 -0.18809494 -0.047876447 -0.16581345 0.27082008
-0.32225904 -0.18820669 -0.11527902 -0.24546847 0.03853175 -0.40321833 0.051741987 -0.55099046
-0.46902665 -1.825533 0.073739596 7.085829 0.010862905 1.5474721 -1.4613302 -3.8460162
0.039687254 7.9331894 0.008364384 0.8959679 -7.5552983 7.8484564 -0.1671165 9.001135
0.07684379 -1.3651139 -2.4310918 -2.7360227 0.22846289 7.298126 0.0061397655 0.03880895
4.55073 -10.568281 0.014177406 -13.08178 0.0029984605 -0.47484827 -1.4865506 -0.5937751
0.29195952 7.353369 0.07709466 -0.51175827 -0.8068074 3.5483088 0.11621734 6.7868686
0.029268736 0.0075775017 -15.044482 -14.322576 -0.04710042 6.138921 -0.0009603353 0.6294302
-2.1274233 12.96536 -0.07833206 10.427382 0.0075425594 -0.5975038 -1.3799452 -9.49003
0.12369076 -12.988671 0.17347558 -1.7733055 -0.43872252 4.196809 -1.2853413 -5.0578375
0.05263626 0.41958737 4.316218 -8.960143 -0.13845725 -8.797117 -0.053885996 -0.29634172
0.009576142 -0.2788669 -0.3463565 -0.22480708 -1.0083395 0.08329306 -1.1563944 1.2664922
0.40149352 -5.0487785 -0.2681268 -0.13588783 0.06383824 -0.35922638 -0.17590319 -0.24440543
0.06531897 -0.7711029 -2.6498487 -15.304192 -1.291096 8.164202 -0.23044558 -0.40982884
-1.3223845 1.2170099 0.3548739 -15.300704 -0.34570342 0.2825222 -0.1123274 -0.1564922
-0.33887488 -0.4058644 0.00019233197 -0.3700821 0.06669983 5.887614 0.24688606 7.2279334
-0.168801 0.49270234 -51.993114 -11.376559 0.7074215 -1.487012 0.0005748908 -0.6352764
-1.6678135 5.2906146 0.31133237 7.3764205 0.010216719 -0.32469788 4.200758 18.479807
0.23258501 -11.140342 0.00587844 0.19599079 -2.1804228 -4.1947837 -0.14015493 8.619628
0.028471235 -1.4847881 1.0699688 -5.772843 0.4050964 -9.054369 -0.19200064 -0.38835195
-3.1885154 0.8636615 0.32376105 -19.731056 0.0071677114 0.53449535 -3.3224428 -4.746278
0.031614106 8.884708 0.013913737 -0.46775636 -17.11332 -7.766637 0.14136526 -2.7926192
0.028174022 0.73499054 -5.180944 -5.2651415 -0.16327573 -6.4190373 0.0022157696 0.06009168
2.4505432 -7.184908 0.3137295 -10.875477 -0.052071083 -0.27790093 -0.2815341 -0.3974608
-0.16483945 0.10610135 -1.2269593e-05 0.566574 -2.1722448 19.02448 -0.108997956 10.293017
0.007669382 -0.85211295 -3.5708544 -14.835338 0.16315402 9.527525 -0.16260377 -0.44024894
8.667327 -5.9851546 0.14107716 16.289692 -0.32173666 -0.2935158 -3.0434425 -6.3655744
0.3159981 12.03205 0.10492237 -0.6901404 -2.189215 -7.7945523 0.03228066 -5.665661
0.005392355 -0.9766271 -1.5850424 16.878052 0.17532428 7.8740172 -0.26675585 0.13542038
-0.12132993 0.2520293 -0.13096964 -0.29947758 -0.052059103 -0.57861507 27.485935 5.337902

main.0.bias f4 [256]
00000000: 4650 0fc2 7f6c abc1 db18 8e42 ea6b 06be
00000010: c60d 15be 704c 9b42 ebba 8442 27aa 36c2
00000020: 1ae5 9542 c208 ab41 faa4 9a42 64a8 8d42
00000030: 806e 9bc2 1780 23c2 b1fa f641 47e5 a5c2
00000040: d09c f841 d0f7 203e 18a2 113f a434 aa3d
00000050: f56e bf42 b680 a9bf 3d17 99be 7db6 8d42
00000060: 1e33 cdc1 807f 8742 01c6 56c2 36f6 8242
00000070: 5963 0242 7f57 48bf 0004 9342 f2b7 20c2
00000080: 099b 83c2 934b d541 8178 a33c dc13 66c2
00000090: 12e7 a142 776a 85c1 3f81 3dc1 1958 a941
000000a0: d481 d0c1 6090 2f3e 8a45 c641 279e 87c2
000000b0: 2b60 eac1 f273 f041 d4bc b1be d71b fa3c
000000c0: 1a3e b9c1 113e ab41 88da 97c2 f838 4fc0
000000d0: 0967 dc40 158f 23c2 0c8d 45be 85a9 5ec2
000000e0: e079 cc3d 6bc9 24c0 660c c240 62b7 7abe
000000f0: edd9 0fc1 11bd 9c42 5ba4 a1be d579 9142
00000100: 2f2e 98c2 ca99 58bf 911f bcbe c572 9342
00000110: 60c1 c1c1 156d c840 bdc0 92c2 de5f ae41
00000120: 0484 813d b471 553e d312 84c2 4e5a 9c42
00000130: c70d 60c0 8bd9 98c1 213f 8442 ea4e 98be
00000140: eae4 9742 6e3e 2b42 b7f5 8742 069c dcbd
00000150: cbc8 80c2 1424 34c1 917b 83c2 6c49 52c2
00000160: e0fa d1c1 af31 8842 75a5 8541 004f 9dc2
00000170: ec37 0ac1 f94f 8cc2 8ed6 863e d32e 3cc0
00000180: 4f6f 30c1 eedd 33c1 b995 a242 5b35 7b41
00000190: d616 c9be f012 cebc 5d2d 5940 38c2 d63d
000001a0: 6e4d e1bb 7ca8 113e b9b8 93be 4054 5bc2
000001b0: 03ee 9842 7505 3bc2 2a15 f23d bf8f 9c41
000001c0: f8ed adc1 d7ab b7be 60ed 62bc 2391 87c1
000001d0: b3d7 8942 fa3e ad3f 59ab ccbe 2386 a9c2
000001e0: f017 7b3e 7a69 0642 44e6 5f3e 4a55 fdc1
000001f0: 0050 79ba 0daa e241 3408 bf42 7c47 cd3f
00000200: 2d31 b8be 5c4d ed3b 344e 8742 ee54 d0c1
00000210: ddcc 0cc0 e806 d7bd 69b5 5ec0 c1c6 45c1
00000220: efc7 e1bf 1652 df3c 7e8c 5e42 3d23 e7bf
00000230: cede 8742 061a b941 8616 6bc1 f517 7142
00000240: b7ef 37bf 60a8 33bd 26c0 8e42 926b bcc1
00000250: 4c1a 813d d7b2 01c2 bb07 76c2 00ce 7c3a
00000260: e081 3142 2848 0e3e 8a92 f441 99aa fbc1
00000270: 1c1d 923e 36c3 c73e 89c6 b540 3fb8 3840
00000280: f017 4f3d f457 1342 270c 9242 35dd 8842
00000290: 9925 c7be bdb8 61c2 8b79 9842 125e 4abe
000002a0: 602d 453e 2d11 9142 7282 653e 35ee 8f42
000002b0: 6621 7141 1225 9242 4f0f 7b3e 8c3e c3c1
000002c0: 6099 efbd 4d14 5542 a068 14c2 64e3 8dbe
000002d0: e018 a63d d54c 9542 7a5d 863e c9db e13f
000002e0: c091 ea3c 201f 7a3e 597d bfbe 8578 c3c1
000002f0: c87d 5bc2 562e 71c2 0c30 fbbe acc1 8ebe
00000300: e91e 8e42 b2c0 c43e 8c09 42be 64d7 9942
00000310: 56db ecc1 34a8 e4bd 85fc 8a42 acff a13d
00000320: e0d8 c33d 4124 9c42 4906 98c1 8667 4d41
00000330: d1a4 8f42 4c7c 9c42 9853 1ebe 4f36 8142
00000340: b01e 983e e43c 8fc0 5d2c f341 5b47 b640
00000350: 83c7 7ec1 a4d2 21c2 3b88 a23e d6e9 0a42
00000360: ee81 30be 16aa 91c2 174f cdc1 fdf8 43c0
00000370: fa81 b63e 406f 25c2 5762 9042 f947 68c2
00000380: f7bc cf42 16e2 76c2 bd1f cfbe 1877 96bd
00000390: ed16 5bc2 866c 8f42 5e1c a6c1 f8c0 933e
000003a0: 9aeb 8242 ac0c 683e a86e 2d3e a2a4 81be
000003b0: 45ba b2be f0a2 8a3c 01f6 563f b04e bc3c
000003c0: 10d3 0fbd 5c50 6ec2 0611 89c2 2fc8 6342
000003d0: 9550 27c1 45fe fb41 a7ea c8be 0f28 d3bd
000003e0: e0b1 f23c ad20 663f f8cc 9742 a55d d8c1
000003f0: b178 1ac2 8446 54c2 1b1a b841 0784 37c2
-35.828392 -21.427977 71.048546 -0.13127103 -0.14556035 77.64929 66.365074 -45.666164
74.947464 21.379276 77.32222 70.82889 -77.71582 -40.875088 30.872408 -82.94781
31.076569 0.15719533 0.5688796 0.08310822 95.71671 -1.3242404 -0.29900542 70.85642
-25.64996 67.74902 -53.693363 65.48088 32.59702 -0.7825851 73.50781 -40.179634
-65.8028 26.661901 0.019954922 -57.519394 80.95131 -16.676985 -11.844054 21.168016
-26.063393 0.17144918 24.783955 -67.80889 -29.296957 30.056614 -0.34714377 0.030530853
-23.155323 21.405306 -75.92682 -3.237852 6.8875775 -40.88973 -0.19292086 -55.665546
0.09984183 -2.5747936 6.0640135 -0.24484017 -8.990705 78.36927 -0.31570706 72.73795
-76.0902 -0.84609663 -0.36742833 73.72416 -24.219421 6.2633157 -73.37644 21.79681
0.06324008 0.20844156 -66.036766 78.17638 -3.500841 -19.106222 66.1233 -0.29747707
75.9471 42.810966 67.97991 -0.107719466 -64.39217 -11.258808 -65.74134 -52.5717
-26.247498 68.09704 16.70579 -78.6543 -8.638653 -70.1562 0.26335567 -2.940358
-11.027175 -11.241682 81.29243 15.700526 -0.39275235 -0.025155514 3.3933938 0.10486263
-0.0068756854 0.14224428 -0.2885187 -54.832275 76.46487 -46.75533 0.11820443 19.570189
-21.741196 -0.3587329 -0.01385054 -16.945868 68.92129 1.3534844 -0.39974478 -84.761986
0.2452085 33.603004 0.21865183 -31.666645 -0.0009510517 28.333033 95.51602 1.603744
-0.35975018 0.007241888 67.65274 -26.04147 -2.2000039 -0.10499364 -3.4798224 -12.361024
-1.763914 0.027260821 55.6372 -1.8057629 67.935165 23.137707 -14.692999 60.273396
-0.7185015 -0.043861747 71.37529 -23.552525 0.06303844 -32.42465 -61.50755 0.00096437335
44.37683 0.13894713 30.571552 -31.4583 0.28537834 0.39016122 5.6804852 2.8862455
0.050559938 36.83589 73.023735 68.432045 -0.38895872 -56.43041 76.23739 -0.19762447
0.1925559 72.53355 0.22413042 71.96525 15.070654 73.0724 0.24517559 -24.40554
-0.11699176 53.269825 -37.102173 -0.27712548 0.08110213 74.65006 0.26243192 1.7645198
0.028633952 0.24425936 -0.3740032 -24.433847 -54.872833 -60.29525 -0.49060094 -0.27882135
71.06037 0.38428265 -0.18948954 76.920685 -29.607098 -0.11164895 69.4932 0.07910094
0.0956285 78.07081 -19.003069 12.837774 71.82191 78.24277 -0.15461576 64.60607
0.29710913 -4.476183 30.396662 5.6962104 -15.923709 -40.455704 0.3174456 34.728355
-0.17237064 -72.8322 -25.663618 -3.062072 0.3564604 -41.358643 72.19207 -58.070286
103.86907 -61.720787 -0.40453902 -0.07346934 -54.77239 71.71196 -20.763851 0.2885816
65.46016 0.22661084 0.16936743 -0.25320917 -0.34907737 0.016923398 0.8396912 0.02298674
-0.035113394 -59.578476 -68.53325 56.94549 -10.457173 31.499155 -0.39241526 -0.10310375
0.029625833 0.8989361 75.90033 -27.045725 -38.617863 -53.068863 23.012747 -45.878933

main.2.weight f4 [256, 256]
00000000: a5a4 81bd 565f 453d f8b2 3cbc bc20 fdbc
00000010: e89f afbc a076 60bd fdd5 2b3d 01b7 a6bc
00000020: d4ee 0fbd ae1c 5ebd ed2c f33c e43d 7cbc
00000030: 08f9 4dbc 8722 bdbc ed2c 14bd e028 363c
00000040: 445c 2c3d 5e5f 14bd 2040 443b 00b1 42bd
00000050: 4813 f0bc ed0a 443d 80c9 2b3a e2b2 5a3d
00000060: 1459 92bc 8584 27bd aad0 34bd 84e5 623d
00000070: 34ba 60bd 0e19 d23c eaca 0e3c b0cb 4b3c
00000080: c446 ea3c d4e4 bdbc 4a67 1e3d 58a2 66bd
00000090: 8c24 b4bc bd81 1e3d 4aed 383c 605e 08bc
000000a0: cac3 a8bc 3c51 1cbd e751 fe3c f9c7 0fbc
000000b0: c269 0cbc 25e7 023c 2eea 3c3d 609b 02bd
000000c0: dc54 b0bc 3a79 2d3d ee94 103d 8781 1abd
000000d0: 8cff 8dbd b938 993b fea0 063d 932b 063c
000000e0: a095 353d aa1c 68bd 1e80 c73c 6026 1fbd
000000f0: 8e84 e23c 8266 223d 5aec 613c 58db 333d
00000100: 3be3 44bd 0130 81bd 3425 76bd 90b9 203d
00000110: 1d0b 743c d675 3bbd 327b bf3c 469e 4c3d
00000120: fa6f 7cbd 32b5 393d 22cf 3a3b daf0 cfba
00000130: 8d85 473d c2d4 673d 7867 a03c 4846 4a3d
00000140: 2801 d53c fa2f 633b 0ad7 7cbd 1ebe b93b
00000150: 1984 50bd a4a0 9d3c 7b8f 9e3b 5c8a b4bb
00000160: e8a1 47bd be2f 1bbd b83c 203d bb55 c43c
00000170: 8b87 d43c 2d96 cfbc 3854 30bc 1bd3 bebc
00000180: 607c 133d 3006 ddbc d23e 213d 44d6 123d
00000190: 5820 6abd c5de e5bb a2a6 a2bc c485 0dbd
000001a0: 140a dd3c 60d2 f8bb 4e21 603d f0b2 3bbd
000001b0: da46 b53c 2f2d 75bd 9d59 21bd 48a1 f6ba
000001c0: 00a8 2f3d 12d7 063d a832 52bd 8bd2 1b39
000001d0: 2b92 32bd 31a3 afbb 6c0f 75bd 3e9a cabc
000001e0: f294 2f3d 3f5c 83bd 8213 74bd 0d9b 973b
000001f0: d85f 0c3c 2286 95bc d48a 5f3d 7df0 3bbd
00000200: 9c69 1bbd 6c34 5bbd e896 3ebc aedc b3bc
00000210: 3266 1e3d 80fc 65bb 9276 543c aad1 07bd
00000220: 64f5 333d fc0c 393d 0244 65bd 850a c1bc
00000230: 2037 59bd 4da4 a13c 91ff 7ebd d2c1 14bd
00000240: aee5 5f3d 9675 74bd 5b41 213d 904d cdba
00000250: dcb4 4c3d 5cf3 1bbd 7fce 0c3d 5019 f73b
00000260: 43bc ddba 6eba 2e3d c400 86bd 871a 67bd
00000270: 463c 773d 24ba 19bd 993d 56bd c512 21bc
00000280: 78e4 a3bc 62f6 7abc 2c84 2bbd 4d7c 813c
00000290: da11 7abd b945 efba a300 f23c 50bf 443c
000002a0: 080f 083c e9a2 163b 8376 d8bc beed 98bc
000002b0: be46 09bd a288 45bd a223 20bd a960 613d
000002c0: 805f 2bbc 8927 823c 03cf 153d 40fc 9fbb
000002d0: acb8 09bd d4f5 48bd 5c9f bcbc 60c0 b63c
000002e0: b497 57bd e00d fabb 08c2 c23c 58b8 343d
000002f0: b8f1 4a3c d83c d03b 8e57 143d c896 ec3c
00000300: c99b 6a3c 5a51 d9bc 3e49 4dbd 23f6 a6bc
00000310: 4869 93bc 4066 963b 49cf 60bc e8fe ce3c
00000320: f41f 2a3d 3aab 03bd a457 87bd d9d7 1ebd
00000330: d3bb 15bd 7890 ea3c 9421 25bd 00a1 c0bb
00000340: 9006 59bc 534e 38bd 8c0b b03c 983c 03bd
00000350: 19b9 26bc ee7a 4ebd 5689 69bc fedd 0b3b
00000360: 80ad 26bb 099a f7bc 6397 3f3c e3da b5bc
00000370: 16ed 0dbd 62c8 3cbd ac9b a3bc 8a70 86bd
00000380: 307c 543d e17f 16bd a02e d4bc b050 bd3b
00000390: ad8c 203c 2021 50bc 08ea 133d 303c 15bd
000003a0: 89ba 813c 00ce 13b9 a43f 50bd 844b c6bc
000003b0: 2335 103c 78a0 433c 9a4a 193d 2043 2b3d
000003c0: d4a0 0bbd 3f88 08bd 56be a3bc 343f 52bd
000003d0: 3c57 c4bc f47c 51bd 34bc c23c 840c 183d
000003e0: 4027 a23b 6ea5 57bd ab4c 5dbd aa84 f8bc
000003f0: 507e 3a3c cccc aabb 664f 983b ad4b 563d
-0.063302316 0.048186623 -0.011517279 -0.030899398 -0.021438554 -0.05480063 0.041952122 -0.020350935
-0.035139874 -0.05422657 0.029684508 -0.015395615 -0.012571581 -0.023087753 -0.036175657 0.011118144
0.04208018 -0.03622376 0.0029945448 -0.04753208 -0.029306069 0.047861982 0.0006553158 0.053393252
-0.017864741 -0.040897865 -0.04414431 0.055394664 -0.054865077 0.025646713 0.008715371 0.0124387
0.028598197 -0.023180403 0.038672723 -0.056307167 -0.021990083 0.038697947 0.011287043 -0.008323282
-0.020601172 -0.03816341 0.031044913 -0.008775705 -0.0085701365 0.007989679 0.04612177 -0.03188646
-0.02152484 0.04235194 0.03529828 -0.037721183 -0.06933507 0.0046759513 0.032868378 0.0081891
0.044332147 -0.05666796 0.024353083 -0.038854957 0.027651098 0.03964854 0.013789261 0.043910354
-0.048068266 -0.06307984 -0.060094073 0.039239466 0.014895228 -0.045766674 0.023374174 0.04995563
-0.061630227 0.045338817 0.0028504808 -0.0015864626 0.04871135 0.056599386 0.019580588 0.04938343
0.026001528 0.0034666047 -0.061728515 0.0056684157 -0.05090723 0.019241638 0.0048388815 -0.005509658
-0.04873839 -0.037887327 0.039120406 0.02396666 0.025943538 -0.025340164 -0.010762267 -0.023294022
0.036007285 -0.02698049 0.03936655 0.03584887 -0.05715975 -0.0070150816 -0.019854847 -0.034551397
0.026982345 -0.007593438 0.05471926 -0.045824945 0.022128511 -0.059857544 -0.039392103 -0.0018816376
0.042884827 0.03291995 -0.05131784 0.00014860385 -0.043596428 -0.00536003 -0.05982916 -0.024731752
0.042866655 -0.06414079 -0.059588917 0.004626638 0.008567773 -0.018252436 0.054575756 -0.045883644
-0.037942514 -0.05351679 -0.011632659 -0.021955814 0.03867168 -0.0035093129 0.0129677225 -0.033158936
0.043935195 0.0451784 -0.05597306 -0.023564586 -0.053031087 0.019731665 -0.062255446 -0.036317654
0.0546624 -0.05968245 0.03936897 -0.0015663374 0.04997717 -0.038073882 0.034376618 0.0075408593
-0.0016917068 0.042658262 -0.06543115 -0.056421783 0.060360216 -0.037531033 -0.052304838 -0.009831135
-0.020006403 -0.015317531 -0.041874096 0.015806342 -0.06105218 -0.0018255032 0.02954132 0.012008503
0.008304365 0.0022985286 -0.026423698 -0.018668052 -0.03351473 -0.048226006 -0.039096482 0.055023823
-0.010459781 0.015887992 0.036574375 -0.0048823655 -0.033623382 -0.049062565 -0.023025207 0.022308528
-0.05263491 -0.0076310486 0.023774162 0.044121116 0.012386732 0.0063549094 0.03621631 0.028880492
0.014319369 -0.02652805 -0.050118677 -0.020381039 -0.017994538 0.004589826 -0.013721296 0.025268033
0.04153438 -0.032145716 -0.06608513 -0.038780067 -0.036556076 0.028633341 -0.040315226 -0.0058785677
-0.0132461935 -0.04499657 0.021489881 -0.03204021 -0.010175967 -0.050410204 -0.014253935 0.0021342034
-0.0025433004 -0.030224817 0.011693808 -0.0221991 -0.03464993 -0.046089537 -0.019971691 -0.06564434
0.051876247 -0.03674305 -0.025901139 0.005777441 0.009799165 -0.01270321 0.03611186 -0.036434352
0.015836017 -0.00014095753 -0.050841942 -0.02420593 0.008801731 0.011940114 0.03742466 0.041812062
-0.034088925 -0.03333306 -0.01998822 -0.051329806 -0.023967378 -0.051144555 0.023771383 0.03712131
0.0049485266 -0.052648 -0.054028194 -0.030336697 0.011382654 -0.005212402 0.004648137 0.052318264

main.2.bias f4 [256]
00000000: f6bb 63bd 3f78 c0bc cc91 63bd 6f4c a13b
00000010: 9733 0ac2 1be6 2fbb f4a0 433c a5aa 913c
00000020: 269a 5d41 c12f b4bd 7515 313b c54e a542
00000030: c85d 6a42 4afb c53c 94ac ae3b a375 53bd
00000040: 049d 183d 888a 04ba 36d1 b2bc f5a3 85c2
00000050: 2673 b73f 8d1d 2642 44e3 efbc b2c6 adbd
00000060: 6e76 f0bc a9cd 8a41 67db 79c1 e7ce 9b41
00000070: ed51 c53c 349c a7bd b931 9541 dee2 98bd
00000080: d575 32bd ece6 8fbc 7210 983c e572 053d
00000090: 1815 19bd 6178 32bd 27d4 8f42 90b2 1abd
000000a0: 59a8 47bd 2fa6 83bc 4968 ba3c ea52 19bb
000000b0: 8215 5dbd a1c5 00c0 8177 6bbb 1580 38bd
000000c0: acaf 8ebd af4d 0bc1 8da9 973b f1c7 2abb
000000d0: 944f babc 0d9e 78bd b3e7 4ebd 43ce 4842
000000e0: 6f0a 0bbd faa7 84ba 77cb 83bd 02b1 5cbd
000000f0: a318 c1bc f161 febb ddfb 9b42 6e7a acbd
00000100: ba40 32bd 5e10 6d3d 4008 2e3d d83a e7bc
00000110: 344e 2dbd 92c9 41bd e9db 8b38 6c59 47bd
00000120: 7bd2 2e3e 26d8 98c1 9ee8 e7c0 0cc9 da3c
00000130: 128b 0cbd 3e92 1542 df53 823c d47f 8c3c
00000140: 7cf2 85c0 afae 08c2 9310 8b41 f083 3b3d
00000150: 10c1 1b3d e302 133b b95c aebd f526 5a41
00000160: 2540 81bd 23b4 66c1 a19f dac2 d60d 633c
00000170: 5778 8842 cd2b 84b8 47f8 f9bc 02b2 6fbd
00000180: 003d 58bd c307 48bc fb8b 74bc 7261 1fc2
00000190: b9e4 49bd 5b59 30bd 16ad 733b 486c 12bc
000001a0: 0621 8d42 9cf9 023d 6b57 9fbd cd16 9e42
000001b0: 6dfd 9ec1 e051 b6c2 a2a8 5dbb 58d3 adc0
000001c0: 77c3 4441 5411 bfbd 0bca ccc1 077d 8e3f
000001d0: 2d92 48bd 4de7 73bd fe77 22bb 0cc9 c3bd
000001e0: 6c92 2fbd becc 6342 f537 acc1 50ca 94c1
000001f0: 34df a83f f23c dd3a c95d fbbc 3dc7 5d3f
00000200: eb84 6f42 158a 533c 744e 623f 7c5f c33f
00000210: c39c 40c2 c058 05c2 2908 91bf 8d96 ab41
00000220: a029 a73b 6e2d 0d3d a265 04bd 72a9 78c2
00000230: cd67 5040 77d1 69c2 3038 8041 844a 9442
00000240: 42c0 b5bc 6b63 9bc1 b59a b33b 0af6 a8bd
00000250: bf73 2e42 3544 4a41 5670 9dc1 9353 523d
00000260: c4e3 5b42 c3a5 30c1 46db 09c1 05a7 a2c2
00000270: 14e0 5b41 3df3 6fbd c935 bf3f 6e8d 9a42
00000280: 057e 0e40 8677 b0bd 98f5 fb3c 2db2 61bd
00000290: 2425 bdbd c1e8 56bd 787b 233d b2a1 54bd
000002a0: 1586 83bd d6e4 743e 5996 2b40 b6cf 453d
000002b0: f93f 98bd 1f2b 3b42 c4d1 9442 3621 a83c
000002c0: 4153 16bd 5419 15bd 0509 4b3d 0c35 eebc
000002d0: 2412 ec3c bdcf 9742 bd0f 91bf 79fb aa3d
000002e0: 1ad2 ebbc 9884 403d 9ed6 9d42 a116 c7bb
000002f0: 2c4c 8742 10cc ad3b e830 4a3d b5c1 56c2
00000300: af7d 503c 19d7 27bd d55a 273d a39a 9c42
00000310: 5888 bebc 405c 2fbb 3a83 ddbc 8406 1a3d
00000320: b4af 6cbd 1a72 9242 8bee 563f 0116 8a3f
00000330: cb6c 0cc2 be55 a9bd 4222 84bc ae2d 83bc
00000340: b41f 32bc 60e7 5c41 97e4 83bd 0b0d 91c1
00000350: 08f6 b4bc 2554 a1bd 504e 9fc2 61c2 443c
00000360: b364 5942 d4d7 2cc2 3e10 78bd 3d66 813b
00000370: e2be 3f3c dec3 3dbd 7073 45bc 147c f1bc
00000380: 3881 8742 2fc1 b53b d317 af41 2bff ad42
00000390: 802e 03ba 9062 dec0 03c0 99c2 5664 30bc
000003a0: ed62 5042 af97 adbc e746 80bd 0997 a8bd
000003b0: 8724 c6bc de92 01bd 75a8 0742 a5e3 febc
000003c0: 8363 8e42 25e1 3e3d 5e88 77c1 f194 0cbc
000003d0: bb09 d53c 8c03 b3bd a08f 9c3c 8ec0 733a
000003e0: 4011 f5bc ba7d afbd 1428 653d a348 8c3f
000003f0: 55cb 8ac2 9e51 d9bd eb4d 1bbd 0091 3942
-0.055599175 -0.023494838 -0.055558965 0.0049224417 -34.55038 -0.0026840034 0.01194023 0.017781565
13.850134 -0.08798171 0.0027020846 82.65385 58.591583 0.024167676 0.0053306315 -0.05162586
0.037259117 -0.0005056043 -0.021828275 -66.82023 1.4332016 41.52886 -0.029283173 -0.08485164
-0.029353347 17.35042 -15.616065 19.476027 0.024086917 -0.0818409 18.649279 -0.074651465
-0.043569405 -0.017566167 0.01856253 0.032580275 -0.037373632 -0.043571834 71.91436 -0.037767947
-0.048744533 -0.016070453 0.022754805 -0.0023395368 -0.05397559 -2.0120623 -0.0035929384 -0.045044024
-0.069671005 -8.706466 0.0046283663 -0.0026059116 -0.022743024 -0.060697604 -0.050513934 50.201427
-0.033945497 -0.0010120862 -0.06435292 -0.053879745 -0.023571318 -0.0077631404 77.99192 -0.08421789
-0.04351876 0.057876937 0.042488337 -0.028226301 -0.04231091 -0.047311373 6.668998e-05 -0.048669264
0.1707248 -19.105541 -7.2471457 0.026707195 -0.034312315 37.392815 0.015909133 0.017150797
-4.18585 -34.17059 17.383093 0.045780122 0.038025916 0.002243214 -0.08513779 13.634511
-0.06311063 -14.418979 -109.311775 0.013858279 68.23504 -6.302409e-05 -0.030513896 -0.05851937
-0.05279255 -0.012208882 -0.014925952 -39.84516 -0.049290393 -0.043053966 0.0037182025 -0.008936949
70.5645 0.031976327 -0.077803455 79.04453 -19.873743 -91.15991 -0.0033822437 -5.432049
12.297721 -0.09329477 -25.598654 1.1131905 -0.04896753 -0.059546757 -0.002479076 -0.09559831
-0.04286425 56.949944 -21.527323 -18.598785 1.3193116 0.0016879125 -0.030684369 0.8663214
59.879803 0.012911339 0.8840096 1.5263515 -48.153088 -33.33667 -1.1330615 21.448511
0.0051013976 0.034467153 -0.032323487 -62.165474 3.2563355 -58.454556 16.027435 74.14554
-0.022186402 -19.423544 0.005481089 -0.08250053 43.613033 12.641652 -19.679852 0.051349234
54.972427 -11.040469 -8.616034 -81.32621 13.742207 -0.05858158 1.4938289 77.27623
2.2264416 -0.08616547 0.030756757 -0.055101562 -0.092356 -0.052468065 0.03991267 -0.051912017
-0.064220585 0.23915419 2.6810515 0.04829379 -0.07434077 46.79211 74.4097 0.020523649
-0.03670049 -0.036401108 0.04956915 -0.02907803 0.028817244 75.90574 -1.1332928 0.08348746
-0.028786708 0.04700145 78.919174 -0.0060756956 67.64877 0.005303867 0.049363047 -53.689167
0.012725278 -0.040976617 0.04085811 78.302025 -0.023258373 -0.0026757866 -0.027040113 0.03760387
-0.05778475 73.222855 0.8395774 1.0787965 -35.106243 -0.08268307 -0.016129617 -0.016012993
-0.010871816 13.806488 -0.064400844 -18.131369 -0.022089973 -0.078773774 -79.652954 0.012009234
54.34834 -43.21077 -0.060562365 0.0039489553 0.011703225 -0.04632937 -0.012051448 -0.02947811
67.75238 0.005546711 21.886633 86.998375 -0.00050041825 -6.9495316 -76.87502 -0.010766109
52.096607 -0.021190492 -0.062635235 -0.08231933 -0.02418734 -0.031634204 33.91451 -0.031114409
71.19436 0.046601433 -15.470793 -0.008580432 0.026005616 -0.08740911 0.019111454 0.0009298407
-0.029915452 -0.08568902 0.055946425 1.0959667 -69.39713 -0.1061127 -0.037916105 46.3916

main.4.weight f4 [256, 256]
00000000: c267 92bc ed0c 163c 6f27 11bc e191 05bd
00000010: 648b 78be 0faf c23c d4cb 323d 9026 873d
00000020: 30ed a33e 0f20 a5bd 967e f83c 2d57 9d3f
00000030: ac2f be3e 1efe 62bd 41e1 833b 91cf a5bd
00000040: c0ed ef3b dd5e 4ebc 880d 4bbd 4172 4bc0
00000050: c50b f03d 9573 1340 72a7 9f3d 30df 92bd
00000060: edb2 c1bc 4c70 8b3e 4fc6 8b3e 89be fc3e
00000070: 55ca 55bd 69e9 26bb 5aff ef3f 1750 edbc
00000080: 86ac a7bc fb0d 26bd 72eb 413a 55ce c2bc
00000090: b52f 9fbc 7d4d c53c 3af1 3f3f f11f d53c
000000a0: 82de 96bc 163c 12bd 42b1 513c a1c6 003c
000000b0: 5c6c 1fbd 0b86 a03e 116d 9abd 8bc8 fb3c
000000c0: 1539 233d f48f 5b3e 33af 863d 9bc7 833c
000000d0: 9f42 6a3d c412 383c d875 1ebd d65b 8d3f
000000e0: 21b7 eb3c 4bb9 d53c 4837 abbc aaeb aa3c
000000f0: 3c0a 1dbd c260 9f3c 1b49 2b3f 8a97 a4bc
00000100: 3377 083d 8e19 93bc bae1 57bd 8641 5abc
00000110: 248f 16bd 3854 6fbc ff25 fc3c 5ce8 2f3c
00000120: c0b5 3bbd 1c3b 3c3e 87a5 de3e e99e 80bd
00000130: 0b67 b9bd 96e8 743e 9d3c 843d d0ad e03c
00000140: 5f80 de3e 7cab d13e adde 713f a877 733c
00000150: 60ec 923b 529a e9bc 72ec cd3c 2129 113f
00000160: b020 fd3b 552e b03e 9a1c c63e eb31 27bd
00000170: 6767 e13e 6d32 b03c c03c 98bd 6db6 c9bc
00000180: d8c6 3d3d 0078 cbbc 46c6 083d d7c0 95bd
00000190: 6e08 e1ba fd1b 923d 0af3 b23d a739 85bb
000001a0: 01cf f93e 325f 10bd 93b4 5f3d a68e 853f
000001b0: 104f 2d3e 3d6d cdbe dc91 cabc 802d b13e
000001c0: e75c f03e c0c2 babb cd47 eb3f 9c8f 1c3d
000001d0: e193 3a3d f3bd 023c 0cd8 a7bd a300 a9bd
000001e0: afad 25bd a8b8 073e 3bea a13e 5ec0 f9bf
000001f0: f0a6 d8bb 8187 aa3d 9188 09bd f22c 9a3d
00000200: dc99 c93e 6bda 83bc 4dd7 d0bc 5f74 83bd
00000210: 9061 993d 3853 64be ee84 04be d35e 513e
00000220: ba8e 17bd 197f a6bd ef38 9e3c a4f7 abbf
00000230: ba8a f4bb b85d 033c b679 00bf 84aa 8c3f
00000240: 9aaa de3c b85e 21be 146e b63d ebcc 213c
00000250: b3af 453e 191c 923e 3ef8 9e3f 0791 38bd
00000260: 7f18 e73f 9816 833f 2cc8 dc3e 431f 9a3e
00000270: 3d15 9f3e c4e5 023d 018a e83e f688 133f
00000280: 43a1 553c d7f6 a9bd 6920 45bd d5d9 e43c
00000290: f712 8cbc 0565 7bbb fc43 b83c bcf2 543c
000002a0: 1cc7 a73c 372a 263d 509d 4ebd ba52 3bbd
000002b0: 7671 8e3d 5b78 0a3f d08c 383f 0af6 51bd
000002c0: 09c8 c4bc 7448 bcbc ef7b 91bd 280e e33c
000002d0: 5e33 683d ce7a 053f 932b d73f aec2 2dbd
000002e0: da6c 273d fba5 28bc f60d 9b3f f146 743d
000002f0: 16a2 9e3f 484a 0d3c 0822 ffbc 4a5c 88c0
00000300: bb41 bc3c fe06 02bd 83be 273d 0896 4d3f
00000310: d74e 173d 8001 88ba 10b6 11bc 0d61 21bd
00000320: be21 bfbc 91b9 143f 0988 10bc 1f78 d13c
00000330: c256 bf3e 9ea0 4cbc a654 96ba b32d 14bc
00000340: d2a9 0e3d 8415 133f 35a0 bf3d 8624 e53e
00000350: 8ca4 9fbc 8f35 6b3d bc94 35be 9951 e63c
00000360: c47b ef3f 5b57 4d3e 9f17 b7bd 8e20 84bd
00000370: aadf 663d 5e0e 4a3d 9635 32bd 300a c6bc
00000380: a9e5 173f 1e01 9fbd 9b9c 6c3e 4338 563f
00000390: 26b7 723d cae0 d73e 4552 113e 9baf afbc
000003a0: 55ec c73e 68bf c1bc 401e 613d 4727 46bc
000003b0: 5cd3 303c 9a00 f9bb f894 943e 6a00 85bd
000003c0: e441 633f 6523 533d b7b5 bfbf e3b5 ce3c
000003d0: 31d7 7fbd 0907 9abc 4019 dd3a ec01 2e3d
000003e0: 4724 b53b efca 1dbd d7b9 3dbd 2710 b93c
000003f0: 790c 883d a48c 97bc 8227 5fbd 15ed f73f
-0.017871741 0.009158355 -0.008859499 -0.032609824 -0.24271923 0.023765115 0.043651417 0.06599152
0.32016897 -0.08062755 0.030333798 1.2292229 0.37145746 -0.055418126 0.004024655 -0.08096231
0.007322043 -0.012595859 -0.04957345 -3.1788485 0.11720995 2.3039296 0.077956095 -0.07171476
-0.023644889 0.27234113 0.27299735 0.49364117 -0.052194912 -0.0025468713 1.8749802 -0.028968854
-0.020468008 -0.040540677 0.000739745 -0.023780027 -0.019431928 0.0240848 0.7497746 0.026016207
-0.018416647 -0.035701834 0.012798609 0.007859857 -0.0389217 0.31352267 -0.07540334 0.030735275
0.03984936 0.21441633 0.06576385 0.01608639 0.05719244 0.011234943 -0.038686603 1.1043651
0.028773846 0.026089331 -0.020900384 0.020864327 -0.03833984 0.019455317 0.66908425 -0.02009179
0.033316802 -0.017956521 -0.052705504 -0.013321286 -0.036757603 -0.014607482 0.030779837 0.010736551
-0.045827627 0.18381923 0.43485662 -0.0628031 -0.09052857 0.2391685 0.064568736 0.02742663
0.43457314 0.40951145 0.944804 0.014860071 0.0044837445 -0.028515968 0.02513716 0.5670338
0.007724844 0.3441035 0.38693696 -0.04081909 0.44024202 0.02150842 -0.07433462 -0.02462312
0.04633221 -0.024837494 0.033392213 -0.07312172 -0.001716865 0.071342446 0.08737762 -0.0040657106
0.48790744 -0.035247035 0.05461557 1.0434158 0.16924691 -0.40122405 -0.024727754 0.34605026
0.4694588 -0.0056994855 1.8381287 0.038222894 0.045551185 0.007979858 -0.081955045 -0.082520746
-0.04044884 0.13254035 0.31624016 -1.9511831 -0.0066116974 0.083266266 -0.033577505 0.07528104
0.39375198 -0.01609536 -0.025493288 -0.064186804 0.07489312 -0.2229737 -0.12941334 0.20446329
-0.03700135 -0.08129711 0.019314257 -1.3434949 -0.0074628266 0.00801795 -0.50185716 1.0989537
0.027180959 -0.15758789 0.089077145 0.009875516 0.19305305 0.28537062 1.2419508 -0.045060184
1.8054351 1.024127 0.4312147 0.30101976 0.3107089 0.031957403 0.4541779 0.5763086
0.013038936 -0.08299034 -0.04812661 0.027935902 -0.017098887 -0.0038359773 0.022493355 0.0129973255
0.020480685 0.040567603 -0.050442994 -0.04573319 0.06955235 0.540899 0.7208986 -0.05126003
-0.024021165 -0.022983767 -0.071037166 0.027716711 0.056689613 0.5214051 1.6810173 -0.04242199
0.040875293 -0.010293479 1.2113636 0.059637967 1.2393215 0.008623667 -0.031144157 -4.2612658
0.022980561 -0.03174495 0.04095317 0.80307055 0.036940422 -0.0010376424 -0.008893505 -0.039399195
-0.02333152 0.5809565 -0.008821496 0.025569974 0.37370878 -0.012489466 -0.0011469319 -0.009044099
0.034829922 0.57454705 0.09356729 0.44754428 -0.019487642 0.057424124 -0.17732519 0.02811508
1.8709645 0.20052855 -0.08940052 -0.06451522 0.056365646 0.049330108 -0.043508135 -0.02417478
0.5933481 -0.07763885 0.23106615 0.836796 0.059256695 0.42163688 0.1419154 -0.02144604
0.39047495 -0.02365084 0.05496049 -0.012094325 0.0107925795 -0.0075989487 0.29019904 -0.064942196
0.88772416 0.051547427 -1.497733 0.025233215 -0.062461082 -0.018802183 0.0016868487 0.0424823
0.0055280062 -0.03852361 -0.04631981 0.02259071 0.06643004 -0.01849968 -0.054481037 1.9369227

main.4.bias f4 [256]
00000000: 5570 6242 3740 7642 e552 6a42 d969 6842
00000010: 7b39 2e3d a69e 6a42 caaa d8c2 ef75 3dc0
00000020: 7512 173d b1c9 5d42 fc32 22c1 7b99 7042
00000030: 7974 8542 efe8 f5c1 d123 bd3e f001 38c1
00000040: f576 1e3c 0891 d942 ce30 d9bc 5911 72bc
00000050: 4af1 dc41 f20d 20bd d71f a2c2 2b15 6e42
00000060: 5f8a 4d42 5497 f8c1 a80e 8042 f3a6 d942
00000070: a759 c9bd 03ed 7e42 0c4f b8bd 5a7b 1240
00000080: 4439 5e42 d1ef 9a42 d9b1 db40 1202 8242
00000090: fa26 54bc de15 9942 86c2 8c42 6e46 e6c2
000000a0: 6fd4 7842 0c1a ae42 285c 24bd b917 d5bd
000000b0: 897c d042 2bf6 3f3d 6584 bcbd 0ad3 3fbd
000000c0: e334 85bc f446 a73c 9965 8f3b 0918 a8bd
000000d0: 1b17 e73c 31ad 85bd 99ad 1aba b8f7 8a42
000000e0: 6330 a142 fd43 8542 5d36 5cbd 1481 4b42
000000f0: a152 a2bd cc76 a342 2560 98bd feda c3bc
00000100: c12b 7d42 10dc 673c 87eb adc2 d8a7 d4bc
00000110: d11f 7b42 dc04 ddbd cae7 77bc 5752 8042
00000120: ad02 e7bc e28f 9942 0655 7142 898b 8a42
00000130: 7b30 4bc2 28f6 7842 78a7 0ac0 3b13 7342
00000140: cbcd a142 a74c 89bd 25de cc3e 3cf3 7642
00000150: cb61 7742 11eb 16bd 82e7 dfbc 1a3a 183d
00000160: d368 77bd e1b6 28c1 915f 8dbc 1ab3 62bd
00000170: 6be6 09bf 8372 8cbd f490 18bd 820c 2dbd
00000180: 1215 7742 6645 6d42 7af7 0ac1 915c 8bbd
00000190: b4ff d8bc 4689 fdbc c938 6b42 cdad 3dbd
000001a0: 0f24 3fbd 2ade f4bc 3124 6342 4dc2 e5c1
000001b0: ed58 b13a 9ee1 3fbd addd 5042 8657 6042
000001c0: bdec 6342 a858 0e3c db58 6a42 97b1 8742
000001d0: 979d 7842 584f 03bd 9058 e6bc 966e 5f42
000001e0: 8bf7 1c40 149f 94bb 40c2 8042 6a97 3541
000001f0: bc29 39bd 13d6 9842 bacf 86bc 5533 563d
00000200: 5735 16bd 5f35 9042 e95e 22bb 0536 87c2
00000210: 7a5d 8642 c8c1 6342 1716 9eb8 31a8 9542
00000220: 8507 4440 792d a2bd 800a 83bc 0082 9242
00000230: 64f9 6542 9dcc 11bd 7f2a 13bd 9633 8242
00000240: 609b 7e42 8283 c4bd e741 5242 0394 bf41
00000250: c859 07bd 7a3d abbd a09c 13c2 50e3 e5bc
00000260: 9afa 9c3d 6b74 5242 f05b 59bd 6d0f 713c
00000270: 46fe 7cbd 12e5 33bd 9cd4 8c42 c93c 89bc
00000280: 956b d0bd da3d 9cbd 7e3f 7fbd 98fa 7342
00000290: 96a9 00bd 4374 fcbc 292c e6bd c5d9 5942
000002a0: 864c 46bd ac5d f7bc cf8e 7942 d45c c6bb
000002b0: 3147 a5c2 417c 8942 212c 5d42 1884 69bd
000002c0: 6404 8ebd d8fa 00be f812 8b42 a8ea 363d
000002d0: 4269 5dbd 100e 3abc 0205 e0c2 e9a3 6942
000002e0: fbc5 12bd 9221 8342 ac22 06bf 0a58 f8bc
000002f0: e82a 6fbd fe82 08bd ef69 9fbd 3cda 6842
00000300: 9e67 bbbd 3a56 7342 d37b 6342 8731 6942
00000310: a30f 35bd 475e 16c2 1799 6641 1ec4 51bc
00000320: 1ad6 8d42 d880 b63f 4744 76bd 1ef3 6442
00000330: 9a6c 873a 6e0e 9bbd 4eec 8a42 9c5e 3b42
00000340: 6577 d8c1 f690 88bd 7c91 803b c62f adbd
00000350: 68c5 92bd 3085 7142 1d1e 5e3c bdec 2d3d
00000360: 859c 4cbd e2da d7bd 1713 4f3d 51cf a242
00000370: fb7a be3c 5d6e 39bc 5fcb ab3e 9428 8ac2
00000380: 91ff 3fc0 cd4d 8f42 0b0d a6bd 4069 cfbd
00000390: 4556 0b42 869c 4ebd 0f0e 14c2 e21b 8c42
000003a0: 8b1c 7942 add1 5742 b213 1c3d e823 8042
000003b0: 02fb 74bd a828 8bbd 0e50 9242 bb95 af3d
000003c0: 6461 6742 2325 cfbc 5be1 7442 8310 0dbd
000003d0: 850e 333d 0755 69bd b71c 9e42 96da 2cbe
000003e0: cba0 dd41 494b 213b fdbf dc38 f0df 6a42
000003f0: 3e1d 8b3c 3e72 b4bd 22a4 95bd 975d f5c1
56.6097 61.56271 58.58095 58.103367 0.042535286 58.65493 -108.33357 -2.960323
0.036882836 55.446964 -10.137447 60.149883 66.727486 -30.738737 0.36941388 -11.500473
0.009671916 108.783264 -0.02651253 -0.014774644 27.617817 -0.0390758 -81.06219 59.52067
51.385128 -31.07389 64.028625 108.82607 -0.09831553 63.731457 -0.08999452 2.2887788
55.555923 77.46839 6.86546 65.00404 -0.012948746 76.54271 70.37993 -115.13756
62.207455 87.05087 -0.04012695 -0.10404915 104.24323 0.046865623 -0.0920494 -0.046832122
-0.01626057 0.020419575 0.004376125 -0.08207709 0.02820926 -0.06527174 -0.0005900502 69.483826
80.594505 66.63279 -0.053762782 50.876053 -0.079259165 81.732025 -0.07440213 -0.023908135
63.29273 0.014151588 -86.960014 -0.02595894 62.78107 -0.107919425 -0.015130946 64.16082
-0.028199518 76.78102 60.33303 69.27253 -50.797344 62.240387 -2.1664715 60.76878
80.90194 -0.067040734 0.40013233 61.737534 61.8455 -0.03684527 -0.027332071 0.037164785
-0.060402703 -10.544648 -0.017257484 -0.055346586 -0.53867215 -0.06857779 -0.037247613 -0.042248257
61.770576 59.317772 -8.685419 -0.06804765 -0.026489116 -0.030949246 58.805454 -0.046308327
-0.046665248 -0.029891092 56.785343 -28.719873 0.001353053 -0.046846025 52.21648 56.085472
56.98119 0.0086881295 58.586773 67.846855 62.153896 -0.03205809 -0.028118402 55.857994
2.4526088 -0.004535565 64.379395 11.349466 -0.045205817 76.41811 -0.016456474 0.052295048
-0.036671963 72.10424 -0.002477581 -67.60551 67.18257 56.93924 -7.538142e-05 74.8285
3.062959 -0.079188295 -0.015996218 73.25391 57.493546 -0.035595525 -0.0359292 65.10075
63.651733 -0.095953956 52.564358 23.947271 -0.033044606 -0.08361335 -36.902954 -0.028062493
0.07664986 52.61369 -0.053066194 0.01471315 -0.06176593 -0.04391963 70.41525 -0.016752617
-0.1017677 -0.07628985 -0.06231641 60.99472 -0.03141173 -0.030817157 -0.11238892 54.462666
-0.048412822 -0.030196033 62.38946 -0.0060535464 -82.639046 68.74268 55.293095 -0.05701074
-0.06934431 -0.1259569 69.53705 0.04465738 -0.05405546 -0.011355892 -112.00978 58.41007
-0.03583334 65.56557 -0.52396655 -0.030315418 -0.058390528 -0.03332805 -0.07783877 58.21312
-0.09150623 60.834206 56.870922 58.298367 -0.044204365 -37.592068 14.412375 -0.012803106
70.91817 1.425807 -0.060123708 57.23742 0.0010332048 -0.075711116 69.46153 46.842392
-27.058298 -0.06668274 0.003923593 -0.08456378 -0.071665585 60.380066 0.013556984 0.0424621
-0.049953956 -0.105397955 0.050555315 81.404915 0.023252001 -0.011317817 0.33553597 -69.079254
-2.9999735 71.651955 -0.081079565 -0.10127497 34.834248 -0.05044224 -37.01373 70.05446
62.277874 53.95476 0.03810472 64.07013 -0.059809692 -0.06794864 73.15636 0.08573481
57.845108 -0.025286263 61.220074 -0.034439575 0.04371502 -0.056965854 79.05608 -0.16880259
27.703512 0.0024611524 0.00010526178 58.71869 0.016981717 -0.088108525 -0.073066965 -30.670698

main.6.weight f4 [4, 256]
00000000: f351 053f 402c 593f 081a 823f 492f 0c3f
00000010: 5644 eebc 7de8 f2bc 7b28 0bc0 7908 61c0
00000020: 19c5 8abb 8ca6 dd3e bc5c efbe 1c0a 8b3f
00000030: 1882 823f 3bb2 e3c0 111b 993e 973f ffbe
00000040: dcb8 2d3d 683f 0842 61d7 c9bc cff7 d23c
00000050: a755 cc40 ef4e 983b cdbc 16c1 2f7a 2d3f
00000060: 6a30 843e cd63 803f b237 343f 9421 b441
00000070: 955c ecbc cd1f 173f 0d07 4a3c 3a0d b9bd
00000080: 1cf6 813e 3234 8c40 c546 ee3e 1203 8f3f
00000090: f7b0 3e3b 777d 2e41 a999 f23f fe9b a7c0
000000a0: 4aeb 653f 9835 4340 ef1d 80bd 32cc acbc
000000b0: 36b4 8841 707a e2bc 88cd fbbc 4e9c 613d
000000c0: 58af 833d db42 fa3a 3d68 163d bdf5 41bd
000000d0: b3f0 80bb c1bb 743c adcc d5bc 6d69 3c40
000000e0: 12ee 7541 eb88 973f 6a6c 8a3c b3e6 5740
000000f0: 9e51 31bb c3b9 5441 9be8 debb e624 f93a
00000100: 5092 863f 1831 dabc 44f9 0ec1 45cc 8bbd
00000110: 13fa 863f e416 d53b c4b1 7abc eb6c 4c3e
00000120: 670c 63bc a56f d540 219d aa3e 11dd 1140
00000130: 987f 05c2 1ce6 5a3f b4e5 253e f926 313f
00000140: c4ec c541 cfc7 16bd 83dd c63f 809f e73e
00000150: 64b8 493f 4687 883d dc8d 7dbc b014 cc3c
00000160: 2310 a03c aa2c e440 5ea5 523d c148 373d
00000170: 347f 4ac0 d858 dbbc 65b9 cdbb c35c 26bd
00000180: 274f a63e 9d05 213f 29f6 3fc0 9537 2dbd
00000190: 3cb8 8a3c 8f25 3fbd 362c 243f dd67 213c
000001a0: b83d b2bc 8ea0 943c 60be 0a3f c19f 5840
000001b0: 8b45 1ebd 8fac 69bc e29e 6e40 0e98 fb3e
000001c0: e6ea 013f 20b6 ec3b ebda 123f 5ada 873f
000001d0: 2f6a fd3f b9dc 0dbb e0f3 bf3b a66b db3e
000001e0: 3d4a 5440 4430 253d 67a6 333f 18c3 62bf
000001f0: 390e cc3b f985 7240 899a 5ebc f6ec d73b
00000200: 90ea 16bd 7a75 be40 8d8c 6ebc ad6a 0ec1
00000210: edf8 f33f 5961 193f 16c2 49be 7f52 6540
00000220: 6c33 e53e c214 a2b9 23d1 1f3d 6b68 a440
00000230: e5ab 0b3f a976 143c 3907 0ebd 7c63 a33f
00000240: 9ec2 723f 93d4 f93c 6f9c 913e 2be4 3c40
00000250: 4c91 20bd b402 a43c ccc3 38c0 9912 27bd
00000260: ae2e 3fbd 4fc7 4f3e 069c 20bd 866e aabc
00000270: 0f79 db3c ccbf d0bc ffa8 2c40 e919 49bd
00000280: f415 80bc 2aa8 cf3c 031f b23b e4ee 7241
00000290: 88a8 9c3b abb4 d43c 65c6 5abd b714 aa3e
000002a0: a094 473d 5615 4a3b dcd4 a33e b251 56bc
000002b0: 059b 06c1 15d6 d33f a8da fc3e e258 2c3d
000002c0: f8db 5fbd d8f2 2bbb ae75 1b40 dfd0 34bd
000002d0: 49ea 973c c6db 1dbd 6092 90c0 8256 303f
000002e0: 883d 37bd 7e1c ba3f debd a7bd 51e9 6bbd
000002f0: d3d4 013c 33bc 393c ca75 333c e69c 143f
00000300: 4ec2 26bc 9eec 2f3f 25c1 ef3e d5f0 033f
00000310: e524 48bc f834 10c1 6ec6 ec3f bf23 293d
00000320: bd47 6640 e433 9abf 8c18 073d c992 123f
00000330: c058 3cbc e3d3 0f3d 7150 e53f db28 f23f
00000340: 82ff c6c0 46be aabd a64c 34bd 10d7 2b3d
00000350: 9f8b a73c 6927 403e 9ff7 6b3d 7f54 a73c
00000360: 0ef3 f2bc 9f51 53bd e73d 123d 8179 8141
00000370: 249a 443d c6e7 08bb 1f15 a0bf 669f 8cc0
00000380: bcec 7bbf ee60 0340 72ea f0bc d2d5 73bb
00000390: 7c85 38be 3d7d 00bd 992e 31bf 89aa f13f
000003a0: 9042 4c3f 51b8 823e 998e 0b3d f4a1 803f
000003b0: 4721 26c0 4de9 1cbc 7ff1 3e40 3fe4 8bc0
000003c0: a1fd 0b3f c2cf 533d 7391 5b3f 530f 9cbb
000003d0: 4db4 8a3c 6d7a 3fbd cea7 0441 392f 91bd
000003e0: ce9e a440 f15e 04bd a071 9dbc c314 023f
000003f0: 721b 4fbd dcfc 62bb c056 4dbc 9de2 07c0
0.5207817 0.84833145 1.0164194 0.5475965 -0.02908532 -0.029651875 -2.1743457 -3.5161421
-0.0042349217 0.43291128 -0.46750438 1.086246 1.0195951 -7.1155066 0.29903463 -0.49853203
0.042412624 34.06192 -0.024638833 0.02575293 6.3854556 0.0046480815 -9.421094 0.6776456
0.25818187 1.0030457 0.70397484 22.516396 -0.02885274 0.590329 0.012330783 -0.09035726
0.2538308 4.3813715 0.46538368 1.1172812 0.0029097178 10.905631 1.8953143 -5.237792
0.8981215 3.050146 -0.062557094 -0.021093462 17.087994 -0.027646273 -0.030737653 0.055080704
0.064299285 0.0019093411 0.036720503 -0.047353495 -0.0039349436 0.014937342 -0.026098574 2.9439347
15.370623 1.1838659 0.016897399 3.3734558 -0.0027056704 13.295352 -0.006802631 0.0019008189
1.0513401 -0.026634738 -8.935856 -0.06826071 1.0545067 0.006502973 -0.015301172 0.19963424
-0.013857937 6.6698785 0.33323005 2.2791178 -33.374603 0.8550737 0.16200906 0.6920009
24.740608 -0.036811646 1.553635 0.45238876 0.7879698 0.06666426 -0.015475716 0.024912208
0.019538945 7.130452 0.051427238 0.044747118 -3.1640139 -0.026775762 -0.0062782043 -0.04061581
0.32482263 0.6289919 -2.9993994 -0.042289335 0.016933553 -0.046666678 0.6412996 0.009851423
-0.021757945 0.018142965 0.5419674 3.3847506 -0.03864054 -0.014262333 3.7284474 0.49139446
0.5074905 0.0072238594 0.5736529 1.0613511 1.979803 -0.0021646454 0.0058579296 0.42855567
3.3170311 0.040329233 0.70175785 -0.8857894 0.0062272814 3.789427 -0.013586649 0.0065895272
-0.03684479 5.9518404 -0.014559877 -8.901044 1.9060341 0.59914166 -0.19702944 3.5831602
0.44765794 -0.00030914514 0.039017808 5.1377463 0.54559165 0.009061494 -0.034674857 1.2764735
0.9482821 0.030496871 0.28439662 2.9514263 -0.039201066 0.02002082 -2.8869505 -0.04078922
-0.046675377 0.20290874 -0.039211296 -0.020804655 0.026791124 -0.02548208 2.6978147 -0.049096975
-0.015635468 0.025348742 0.005435826 15.183323 0.0047808327 0.025965055 -0.05341186 0.3321893
0.048725724 0.003083547 0.31998336 -0.013081001 -8.412847 1.6549708 0.4938557 0.042076953
-0.054653138 -0.0026237275 2.4290576 -0.044144507 0.018544333 -0.03853967 -4.517868 0.68882
-0.044736415 1.4539945 -0.08190511 -0.057595555 0.007924276 0.011336374 0.010953376 0.5805191
-0.010178162 0.68720424 0.46827045 0.51539356 -0.012215828 -9.012932 1.8498056 0.041293856
3.5981286 -1.2047086 0.032982394 0.57255226 -0.011495769 0.03511418 1.7915174 1.8918718
-6.21869 -0.08337073 -0.04401841 0.041953146 0.020452319 0.18765034 0.057609197 0.020426033
-0.029656913 -0.05159151 0.035703566 16.184328 0.047998562 -0.00208901 -1.2506446 -4.394458
-0.98408103 2.052791 -0.029408667 -0.0037206304 -0.1801967 -0.031369437 -0.6921173 1.8880168
0.79789066 0.25531247 0.03407154 1.0049424 -2.595781 -0.009577108 2.9834898 -4.371612
0.5468388 0.051711805 0.8576881 -0.004762569 0.016931677 -0.046747614 8.290968 -0.07089085
5.1443853 -0.032317106 -0.01921922 0.5081293 -0.050563283 -0.003463558 -0.01253289 -2.1232064

main.6.bias f4 [4]
00000000: 4ba5 b642 0474 a442 ecb8 1a42 04b0 2142
91.32284 82.22659 38.680588 40.42189
