src/episode_400.pth (torch, 540912 bytes, 8 tensors)

main.0.weight f4 [256, 6]
0.019370312 4.2399983 -0.89478076 -8.923852 -0.75425273 -10.126971 -0.61165243 2.1163414
-74.14941 -27.55615 0.76669705 2.8979852 -0.015520146 1.3588709 -6.0689125 8.5423
-0.8490194 5.3012037 -0.1905866 0.10406178 -0.18809494 -0.047876447 -0.16581345 0.27082008
-0.32225904 -0.18820669 -0.11527902 -0.24546847 0.03853175 -0.40321833 0.0016300741 -0.68934613
-0.67639524 -6.7478156 0.15335712 6.6129365 0.01850757 3.7529917 -1.5984881 -9.643714
0.29976195 7.49293 -0.015266519 1.4431175 -8.8308115 15.016761 -0.12228994 8.370642
0.0050162105 -2.0369189 -0.9271058 -5.219132 0.49027908 6.467167 -0.0029911618 -0.004854557
0.9840301 -21.383242 0.007405534 -25.951366 0.019691136 -0.61409354 -1.8517472 -2.1279988
0.60050976 6.895968 -0.019007703 -1.2579323 -7.9808054 1.7395847 0.07256949 5.1051874
0.030429853 0.198993 -15.213985 -21.647953 -0.091435544 6.1608357 0.0018397844 1.1245023
-1.3167033 25.793211 -0.23809485 9.924138 0.01501287 0.48257172 -12.385591 -15.120152
-0.24990065 -29.27069 0.14851396 -2.070925 1.6855255 10.566129 -1.0076231 -3.75051
0.06783594 0.65456367 6.388584 -23.137436 -0.27861878 -8.052965 -0.053885996 -0.29634172
0.009576142 -0.2788669 -0.3463565 -0.22480708 -1.4045552 0.5806043 0.5591654 -0.28430513
0.7726578 2.3596568 -0.2681268 -0.13588783 0.06383824 -0.35922638 -0.17590319 -0.24440543
0.07311717 -2.2378273 -2.9992332 -33.54369 -1.9908723 7.3958955 -0.53138494 -0.18379633
-0.8226434 5.537198 0.7788421 -16.80321 -0.34570342 0.2825222 -0.1123274 -0.1564922
-0.33887488 -0.4058644 -0.022609048 -0.63158035 7.3728266 25.69175 0.261168 6.5219965
-0.16477984 0.07772816 -101.006744 -20.521322 0.60821736 1.8076596 -0.0001293552 -1.0734066
-1.0696449 15.727816 0.44587508 6.262644 0.026646283 -0.68605304 4.9406953 42.82708
0.15138146 -13.155009 -0.0008115475 2.0857487 -5.789774 -19.38359 -0.59990096 7.872409
0.018305046 -2.5399528 -0.5869542 -0.6020626 0.6804076 -17.83177 -0.23314491 -0.41153526
-3.888605 1.0247445 0.42175946 -34.138874 0.0073172012 1.4812597 -3.351414 -12.151437
0.39193955 8.249713 0.01941877 -1.0808432 -30.431915 4.6637044 0.14899908 -0.24653062
0.023052922 1.8647221 -6.6515846 -8.28242 -0.42643696 -6.1435766 0.0067275483 1.6898426
3.2920725 2.1365514 0.2867621 -15.445661 -0.052071083 -0.27790093 -0.2815341 -0.3974608
-0.16483945 0.10610135 0.0021565128 0.93204105 -1.7887646 29.69529 -0.25031984 9.998625
0.0051704654 -2.65328 -2.674496 -36.092728 0.46029037 9.164173 0.016963812 -25.255136
-2.971608 -45.976612 -20.203451 13.98414 -0.32050407 -1.1533569 11.063794 -73.60287
0.7222759 11.884863 0.12449143 -0.93246686 -1.4564786 -18.761795 0.17330575 -6.677772
0.0035688994 -1.3751627 -3.0102313 41.529636 0.26903108 7.233918 -0.26675585 0.13542038
-0.12132993 0.2520293 -0.13096964 -0.29947758 -0.011920226 -56.29629 24.505457 -94.99989
00000000: 7dae 9e3c 11ae 8740 5a10 65bf 19c8 0ec1
00000010: b516 41bf 1308 22c1 4195 1cbf 2372 0740
00000020: 7f4c 94c2 ff72 dcc1 4246 443f 9778 3940
00000030: 3648 7ebc 7bef ad3f 8834 c2c0 43ad 0841
00000040: 5659 59bf 76a3 a940 2229 43be 581e d53d
00000050: f69b 40be 181a 44bd 00cb 29be eea8 8a3e
00000060: 23ff a4be 41b9 40be 6817 ecbd 165c 7bbe
00000070: 78d3 1d3d a272 cebe 36a8 d53a fd78 30bf
00000080: 3d28 2dbf 1bee d7c0 a609 1d3e 2d9d d340
00000090: 309d 973c 0431 7040 429b ccbf a74c 1ac1
000000a0: 667a 993e 15c6 ef40 6c20 7abc 13b8 b83f
000000b0: 014b 0dc1 a744 7041 2673 fabd 26ee 0541
000000c0: 065f a43b e15c 02c0 ce56 6dbf 2103 a7c0
000000d0: dc05 fb3e 08f3 ce40 5e07 44bb fa12 9fbb
000000e0: 66e9 7b3f e110 abc1 1faa f23b 669c cfc1
000000f0: 4e4f a13c 3c35 1dbf 0d06 edbf 2231 08c0
00000100: 02bb 193f c5ab dc40 0bb6 9bbc ed03 a1bf
00000110: c262 ffc0 b6aa de3f 509f 943d b25d a340
00000120: 0748 f93c d2c4 4b3e 7c6c 73c1 022f adc1
00000130: 8f42 bbbd 9125 c540 ec24 f13a b1ef 8f3f
00000140: bc89 a8bf 7f58 ce41 23cf 73be 45c9 1e41
00000150: 8af8 753c a413 f73e 612b 46c1 25ec 71c1
00000160: f5e5 7fbe 602a eac1 0b14 183e 098a 04c0
00000170: 4dbf d73f dd0e 2941 cbf9 80bf 5b08 70c0
00000180: 92ed 8a3d 7c91 273f 486f cc40 7819 b9c1
00000190: 1fa7 8ebe f2d8 00c1 90b7 5cbd 1aba 97be
000001a0: 40e5 1c3c a4c7 8ebe a455 b1be d433 66be
000001b0: 77c8 b3bf 7ca2 143f 7725 0f3f 7190 91be
000001c0: e7cc 453f 9e04 1740 ea47 89be 2e26 0bbe
000001d0: a0bd 823d 85ec b7be f71f 34be 6b45 7abe
000001e0: 74be 953d 9038 0fc0 70f3 3fc0 bd2c 06c2
000001f0: e7d4 febf 2dab ec40 d808 08bf 1b35 3cbe
00000200: c298 52bf ba30 b140 3262 473f f96c 86c1
00000210: 0a00 b1be c0a6 903e e80b e6bd 7e3f 20be
00000220: 0281 adbe 75cd cfbe 9c36 b9bc 40af 21bf
00000230: 32ee eb40 b488 cd41 d0b7 853e 32b4 d040
00000240: 0cbc 28be f12f 9f3d 7403 cac2 ab2b a4c1
00000250: 22b4 1b3f 6461 e73f 86a3 07b9 6365 89bf
00000260: 20ea 88bf 22a5 7b41 bd49 e43e 9467 c840
00000270: 4e49 da3c 2ca1 2fbf 2d1a 9e40 ee4e 2b42
00000280: be03 1b3e eb7a 52c1 08be 54ba e87c 0540
00000290: d445 b9c0 9811 9bc1 1c93 19bf c6ea fb40
000002a0: 77f4 953c 968e 22c0 a142 16bf c620 1abf
000002b0: 312f 2e3f 77a7 8ec1 8abd 6ebe c0b4 d2be
000002c0: e8de 78c0 d42a 833f dbf0 d73e 358e 08c2
000002d0: 22c5 ef3b eb99 bd3f 917d 56c0 496c 42c1
000002e0: 4dac c83e d3fe 0341 1d14 9f3c 1259 8abf
000002f0: 9074 f3c1 113d 9540 3793 183e 8672 7cbe
00000300: 7bd9 bc3c 37af ee3f c8d9 d4c0 cb84 04c1
00000310: f255 dabe 2e98 c4c0 c472 dc3b c34c d83f
00000320: 51b1 5240 42bd 0840 7bd2 923e 6d21 77c1
00000330: 7d48 55bd 0849 8ebe 3d25 90be fb7f cbbe
00000340: accb 28be aa4b d93d 4854 0d3b 3e9a 6e3f
00000350: 3df6 e4bf f48f ed41 ec29 80be 5efa 1f41
00000360: 026d a93b 57cf 29c0 f12a 2bc0 f45e 10c2
00000370: 2eab eb3e 74a0 1241 b1f7 8a3c 850a cac1
00000380: d32e 3ec0 0de8 37c2 aba0 a1c1 0abf 5f41
00000390: 1c19 a4be 33a1 93bf 4d05 3141 ab34 93c2
000003a0: 13e7 383f 6628 3e41 5df5 fe3d 26b6 6ebf
000003b0: e46d babf 2818 96c1 1077 313e 4fb0 d5c0
000003c0: 32e4 693b 5505 b0bf a1a7 40c0 591e 2642
000003d0: 71be 893e 427c e740 3994 88be a4ab 0a3e
000003e0: d47b f8bd fc09 813e e81c 06be 2055 99be
000003f0: 0d4d 43bc 672f 61c2 2d0b c441 f2ff bdc2

main.0.bias f4 [256]
-38.862053 -60.59223 243.97174 -0.13127103 -0.14556035 202.27068 174.46352 -188.3439
188.20985 42.94977 192.2374 239.31819 -209.20932 -171.39685 74.34691 -202.24678
132.05435 0.15719533 0.88352513 0.08310822 207.70792 -0.023789784 -0.29900542 173.80002
-83.13387 185.66206 -147.3361 188.47807 128.50117 -0.9622808 194.8837 -41.980762
-185.7978 152.0452 0.019954922 -175.80212 178.94771 -73.3438 -123.19632 107.667564
-126.02289 0.17144918 107.53715 -116.11378 -152.11516 134.84158 -0.34714377 0.0073742345
-65.67178 118.32008 -177.14108 -5.8845744 -20.499039 -82.74754 -0.19292086 -131.8172
0.09984183 -0.86897033 88.02644 -0.24484017 -105.43931 193.61751 -0.65918386 195.40952
-211.10512 -118.30517 -0.36742833 161.35774 2.1992998 -15.651491 -107.35369 98.40285
0.06324008 -18.257462 -168.01987 193.83893 -31.741394 -137.9141 210.48416 -0.29747707
196.44241 29.940752 196.35959 -0.33021006 -194.6006 -103.19538 -153.11142 -119.96817
-156.26338 195.97624 35.504078 -116.1523 -23.828264 -171.89513 0.26335567 146.62193
-14.130133 -65.64433 180.66882 122.17936 -0.39275235 -29.575624 21.29083 0.10486263
-0.0068756854 0.14224428 -0.2885187 -177.58144 188.71735 -81.44088 0.15492378 -106.14559
-107.56502 -0.3587329 -0.01385054 -154.00566 187.49759 5.096084 0.2643711 -142.46748
0.2452085 57.329063 0.21865183 -4.948459 -0.0009510517 132.4798 211.8885 3.5807734
-0.35975018 -0.016880855 116.01016 -144.35017 102.4706 -0.10499364 -9.874293 -137.20718
-107.5897 118.320305 40.793213 -7.528562 184.1099 130.52464 -155.67647 162.62086
-4.8727746 -0.043861747 239.58101 -10.564374 0.06303844 -58.675934 -80.805084 0.00096437335
36.404278 0.13894713 6.411367 -149.87794 0.28537834 0.39016122 17.073164 -46.857132
0.050559938 150.19716 193.95013 201.60664 0.027031325 -124.8091 188.14296 -0.19762447
0.1925559 185.83627 0.5920501 199.82735 43.594803 187.48584 -0.3672831 -106.277466
10.294707 174.34174 -162.57993 -0.27712548 0.08110213 183.18575 0.26243192 -108.88843
0.028633952 0.24425936 -0.3740032 -97.21588 -171.22037 -133.71468 -7.43607 -0.27882135
195.8974 -56.575726 -0.18948954 188.78026 -34.258236 -0.11164895 179.14879 0.07910094
0.0956285 189.45685 -151.58267 32.68294 209.83612 197.05603 -0.15461576 137.70297
0.29710913 -9.5147915 141.74443 73.93697 -41.880165 -166.05272 -98.04386 132.46613
-0.17237064 -139.89015 -61.994007 106.07208 0.3564604 -150.26387 203.81105 -166.3729
236.49388 -144.03134 -0.40453902 -0.07346934 -90.15758 192.2226 -73.67044 0.2885816
211.28775 0.22661084 0.16936743 -0.25320917 -0.3450498 0.016923398 0.8396912 0.02298674
-0.035113394 -180.14255 -175.61928 134.92192 -88.65318 -34.436356 -0.39241526 -1.6226922
0.029625833 -5.2590446 199.4723 -139.94507 -154.80388 -166.21509 -41.03457 -160.70988
00000000: be72 1bc2 725e 72c2 c4f8 7343 ea6b 06be
00000010: c60d 15be 4b45 4a43 a976 2e43 0a58 3cc3
00000020: b935 3c43 91cc 2b42 c63c 4043 7551 6f43
00000030: 9635 51c3 9865 2bc3 9eb1 9442 2d3f 4ac3
00000040: ea0d 0443 d0f7 203e b42e 623f a434 aa3d
00000050: 3ab5 4f43 cbe2 c2bc 3d17 99be cecc 2d43
00000060: 8b44 a6c2 7da9 3943 0b56 13c3 637a 3c43
00000070: 4d80 0043 0958 76bf 3ae2 4243 4dec 27c2
00000080: 3dcc 39c3 920b 1843 8178 a33c 58cd 2fc3
00000090: 9df2 3243 07b0 92c2 8464 f6c2 cb55 d742
000000a0: b80b fcc2 6090 2f3e 0513 d742 413a e8c2
000000b0: 7b1d 18c3 72d7 0643 d4bc b1be 90a3 f13b
000000c0: f457 83c2 e2a3 ec42 1e24 31c3 6f4e bcc0
000000d0: 08fe a3c1 be7e a5c2 0c8d 45be 34d1 03c3
000000e0: e079 cc3d d774 5ebf 8a0d b042 62b7 7abe
000000f0: ede0 d2c2 159e 4143 46c0 28bf d668 4343
00000100: e91a 53c3 3f9c ecc2 911f bcbe 955b 2143
00000110: 54c1 0c40 826c 7ac1 17b5 d6c2 42ce c442
00000120: 0484 813d 480f 92c1 1605 28c3 c4d6 4143
00000130: 60ee fdc1 02ea 09c3 f27b 5243 ea4e 98be
00000140: 4271 4443 a986 ef41 0e5c 4443 4b11 a9be
00000150: c199 42c3 0964 cec2 861c 19c3 b4ef efc2
00000160: 6d43 1cc3 ebf9 4343 2d04 0e42 fa4d e8c2
00000170: 49a0 bec1 27e5 2bc3 8ed6 863e 379f 1243
00000180: 0615 62c1 e649 83c2 38ab 3443 d55b f442
00000190: d616 c9be e19a ecc1 9f53 aa41 38c2 d63d
000001a0: 6e4d e1bb 7ca8 113e b9b8 93be d994 31c3
000001b0: a4b7 3c43 bbe1 a2c2 57a4 1e3e 8b4a d4c2
000001c0: 4a21 d7c2 d7ab b7be 60ed 62bc 7301 1ac3
000001d0: 627f 3b43 1f13 a340 a65b 873e ad77 0ec3
000001e0: f017 7b3e f650 6542 44e6 5f3e c759 9ec0
000001f0: 0050 79ba d47a 0443 75e3 5343 642b 6540
00000200: 2d31 b8be b849 8abc 3405 e842 a559 10c3
00000210: f2f0 cc42 e806 d7bd 1bfd 1dc1 0a35 09c3
00000220: ed2d d7c2 ffa3 ec42 402c 2342 fbe9 f0c0
00000230: 221c 3843 4f86 0243 2dad 1bc3 f19e 2243
00000240: c5ed 9bc0 60a8 33bd bd94 6f43 ad07 29c1
00000250: 4c1a 813d 28b4 6ac2 349c a1c2 00ce 7c3a
00000260: fb9d 1142 2848 0e3e eb29 cd40 c1e0 15c3
00000270: 1c1d 923e 36c3 c73e d795 8841 b46d 3bc2
00000280: f017 4f3d 7932 1643 3cf3 4143 4d9b 4943
00000290: cc70 dd3c 429e f9c2 9924 3c43 125e 4abe
000002a0: 602d 453e 16d6 3943 9890 173f cdd3 4743
000002b0: 1461 2e42 607c 3b43 880c bcbe 108e d4c2
000002c0: 1fb7 2441 7c57 2e43 7694 22c3 64e3 8dbe
000002d0: e018 a63d 8d2f 3743 7a5d 863e e0c6 d9c2
000002e0: c091 ea3c 201f 7a3e 597d bfbe 886e c2c2
000002f0: 6a38 2bc3 f5b6 05c3 49f4 edc0 acc1 8ebe
00000300: bce5 4343 8b4d 62c2 8c09 42be bfc7 3c43
00000310: 6f08 09c2 34a8 e4bd 1726 3343 acff a13d
00000320: e0d8 c33d f474 3d43 2a95 17c3 55bb 0242
00000330: 0cd6 5143 580e 4543 9853 1ebe f6b3 0943
00000340: b01e 983e 963c 18c1 93be 0d43 bbdf 9342
00000350: 4a85 27c2 7f0d 26c3 7516 c4c2 5477 0443
00000360: ee81 30be e1e3 0bc3 ddf9 77c2 e824 d442
00000370: fa81 b63e 8d43 16c3 a1cf 4b43 765f 26c3
00000380: 6f7e 6c43 0608 10c3 bd1f cfbe 1877 96bd
00000390: ae50 b4c2 fc38 4043 4457 93c2 f8c0 933e
000003a0: aa49 5343 ac0c 683e a86e 2d3e a2a4 81be
000003b0: 5eaa b0be f0a2 8a3c 01f6 563f b04e bc3c
000003c0: 10d3 0fbd 7e24 34c3 899e 2fc3 03ec 0643
000003d0: 6e4e b1c2 d4be 09c2 a7ea c8be 61b4 cfbf
000003e0: e0b1 f23c 184a a8c0 e978 4743 f0f1 0bc3
000003f0: cbcd 1ac3 1037 26c3 6623 24c2 bbb5 20c3

main.2.weight f4 [256, 256]
-0.063302316 0.048186623 -0.011517279 -0.030899398 -0.021438554 -0.05480063 0.041952122 -0.020350935
-0.035139874 -0.05422657 0.029684508 -0.015395615 -0.012571581 -0.023087753 -0.036175657 0.011118144
0.04208018 -0.03622376 0.0029945448 -0.04753208 -0.029306069 0.047861982 0.0006553158 0.053393252
-0.017864741 -0.040897865 -0.04414431 0.055394664 -0.054865077 0.025646713 0.008715371 0.0124387
0.028598197 -0.023180403 0.038672723 -0.056307167 -0.021990083 0.038697947 0.011287043 -0.008323282
-0.020601172 -0.03816341 0.031044913 -0.008775705 -0.0085701365 0.007989679 0.04612177 -0.03188646
-0.02152484 0.04235194 0.03529828 -0.037721183 -0.06933507 0.0046759513 0.032868378 0.0081891
0.044332147 -0.05666796 0.024353083 -0.038854957 0.027651098 0.03964854 0.013789261 0.043910354
-0.048068266 -0.06307984 -0.060094073 0.039239466 0.014895228 -0.045766674 0.023374174 0.04995563
-0.061630227 0.045338817 0.0028504808 -0.0015864626 0.04871135 0.056599386 0.019580588 0.04938343
0.026001528 0.0034666047 -0.061728515 0.0056684157 -0.05090723 0.019241638 0.0048388815 -0.005509658
-0.04873839 -0.037887327 0.039120406 0.02396666 0.025943538 -0.025340164 -0.010762267 -0.023294022
0.036007285 -0.02698049 0.03936655 0.03584887 -0.05715975 -0.0070150816 -0.019854847 -0.034551397
0.026982345 -0.007593438 0.05471926 -0.045824945 0.022128511 -0.059857544 -0.039392103 -0.0018816376
0.042884827 0.03291995 -0.05131784 0.00014860385 -0.043596428 -0.00536003 -0.05982916 -0.024731752
0.042866655 -0.06414079 -0.059588917 0.004626638 0.008567773 -0.018252436 0.054575756 -0.045883644
-0.037942514 -0.05351679 -0.011632659 -0.021955814 0.03867168 -0.0035093129 0.0129677225 -0.033158936
0.043935195 0.0451784 -0.05597306 -0.023564586 -0.053031087 0.019731665 -0.062255446 -0.036317654
0.0546624 -0.05968245 0.03936897 -0.0015663374 0.04997717 -0.038073882 0.034376618 0.0075408593
-0.0016917068 0.042658262 -0.06543115 -0.056421783 0.060360216 -0.037531033 -0.052304838 -0.009831135
-0.020006403 -0.015317531 -0.041874096 0.015806342 -0.06105218 -0.0018255032 0.02954132 0.012008503
0.008304365 0.0022985286 -0.026423698 -0.018668052 -0.03351473 -0.048226006 -0.039096482 0.055023823
-0.010459781 0.015887992 0.036574375 -0.0048823655 -0.033623382 -0.049062565 -0.023025207 0.022308528
-0.05263491 -0.0076310486 0.023774162 0.044121116 0.012386732 0.0063549094 0.03621631 0.028880492
0.014319369 -0.02652805 -0.050118677 -0.020381039 -0.017994538 0.004589826 -0.013721296 0.025268033
0.04153438 -0.032145716 -0.06608513 -0.038780067 -0.036556076 0.028633341 -0.040315226 -0.0058785677
-0.0132461935 -0.04499657 0.021489881 -0.03204021 -0.010175967 -0.050410204 -0.014253935 0.0021342034
-0.0025433004 -0.030224817 0.011693808 -0.0221991 -0.03464993 -0.046089537 -0.019971691 -0.06564434
0.051876247 -0.03674305 -0.025901139 0.005777441 0.009799165 -0.01270321 0.03611186 -0.036434352
0.015836017 -0.00014095753 -0.050841942 -0.02420593 0.008801731 0.011940114 0.03742466 0.041812062
-0.034088925 -0.03333306 -0.01998822 -0.051329806 -0.023967378 -0.051144555 0.023771383 0.03712131
0.0049485266 -0.052648 -0.054028194 -0.030336697 0.011382654 -0.005212402 0.004648137 0.052318264
00000000: a5a4 81bd 565f 453d f8b2 3cbc bc20 fdbc
00000010: e89f afbc a076 60bd fdd5 2b3d 01b7 a6bc
00000020: d4ee 0fbd ae1c 5ebd ed2c f33c e43d 7cbc
00000030: 08f9 4dbc 8722 bdbc ed2c 14bd e028 363c
00000040: 445c 2c3d 5e5f 14bd 2040 443b 00b1 42bd
00000050: 4813 f0bc ed0a 443d 80c9 2b3a e2b2 5a3d
00000060: 1459 92bc 8584 27bd aad0 34bd 84e5 623d
00000070: 34ba 60bd 0e19 d23c eaca 0e3c b0cb 4b3c
00000080: c446 ea3c d4e4 bdbc 4a67 1e3d 58a2 66bd
00000090: 8c24 b4bc bd81 1e3d 4aed 383c 605e 08bc
000000a0: cac3 a8bc 3c51 1cbd e751 fe3c f9c7 0fbc
000000b0: c269 0cbc 25e7 023c 2eea 3c3d 609b 02bd
000000c0: dc54 b0bc 3a79 2d3d ee94 103d 8781 1abd
000000d0: 8cff 8dbd b938 993b fea0 063d 932b 063c
000000e0: a095 353d aa1c 68bd 1e80 c73c 6026 1fbd
000000f0: 8e84 e23c 8266 223d 5aec 613c 58db 333d
00000100: 3be3 44bd 0130 81bd 3425 76bd 90b9 203d
00000110: 1d0b 743c d675 3bbd 327b bf3c 469e 4c3d
00000120: fa6f 7cbd 32b5 393d 22cf 3a3b daf0 cfba
00000130: 8d85 473d c2d4 673d 7867 a03c 4846 4a3d
00000140: 2801 d53c fa2f 633b 0ad7 7cbd 1ebe b93b
00000150: 1984 50bd a4a0 9d3c 7b8f 9e3b 5c8a b4bb
00000160: e8a1 47bd be2f 1bbd b83c 203d bb55 c43c
00000170: 8b87 d43c 2d96 cfbc 3854 30bc 1bd3 bebc
00000180: 607c 133d 3006 ddbc d23e 213d 44d6 123d
00000190: 5820 6abd c5de e5bb a2a6 a2bc c485 0dbd
000001a0: 140a dd3c 60d2 f8bb 4e21 603d f0b2 3bbd
000001b0: da46 b53c 2f2d 75bd 9d59 21bd 48a1 f6ba
000001c0: 00a8 2f3d 12d7 063d a832 52bd 8bd2 1b39
000001d0: 2b92 32bd 31a3 afbb 6c0f 75bd 3e9a cabc
000001e0: f294 2f3d 3f5c 83bd 8213 74bd 0d9b 973b
000001f0: d85f 0c3c 2286 95bc d48a 5f3d 7df0 3bbd
00000200: 9c69 1bbd 6c34 5bbd e896 3ebc aedc b3bc
00000210: 3266 1e3d 80fc 65bb 9276 543c aad1 07bd
00000220: 64f5 333d fc0c 393d 0244 65bd 850a c1bc
00000230: 2037 59bd 4da4 a13c 91ff 7ebd d2c1 14bd
00000240: aee5 5f3d 9675 74bd 5b41 213d 904d cdba
00000250: dcb4 4c3d 5cf3 1bbd 7fce 0c3d 5019 f73b
00000260: 43bc ddba 6eba 2e3d c400 86bd 871a 67bd
00000270: 463c 773d 24ba 19bd 993d 56bd c512 21bc
00000280: 78e4 a3bc 62f6 7abc 2c84 2bbd 4d7c 813c
00000290: da11 7abd b945 efba a300 f23c 50bf 443c
000002a0: 080f 083c e9a2 163b 8376 d8bc beed 98bc
000002b0: be46 09bd a288 45bd a223 20bd a960 613d
000002c0: 805f 2bbc 8927 823c 03cf 153d 40fc 9fbb
000002d0: acb8 09bd d4f5 48bd 5c9f bcbc 60c0 b63c
000002e0: b497 57bd e00d fabb 08c2 c23c 58b8 343d
000002f0: b8f1 4a3c d83c d03b 8e57 143d c896 ec3c
00000300: c99b 6a3c 5a51 d9bc 3e49 4dbd 23f6 a6bc
00000310: 4869 93bc 4066 963b 49cf 60bc e8fe ce3c
00000320: f41f 2a3d 3aab 03bd a457 87bd d9d7 1ebd
00000330: d3bb 15bd 7890 ea3c 9421 25bd 00a1 c0bb
00000340: 9006 59bc 534e 38bd 8c0b b03c 983c 03bd
00000350: 19b9 26bc ee7a 4ebd 5689 69bc fedd 0b3b
00000360: 80ad 26bb 099a f7bc 6397 3f3c e3da b5bc
00000370: 16ed 0dbd 62c8 3cbd ac9b a3bc 8a70 86bd
00000380: 307c 543d e17f 16bd a02e d4bc b050 bd3b
00000390: ad8c 203c 2021 50bc 08ea 133d 303c 15bd
000003a0: 89ba 813c 00ce 13b9 a43f 50bd 844b c6bc
000003b0: 2335 103c 78a0 433c 9a4a 193d 2043 2b3d
000003c0: d4a0 0bbd 3f88 08bd 56be a3bc 343f 52bd
000003d0: 3c57 c4bc f47c 51bd 34bc c23c 840c 183d
000003e0: 4027 a23b 6ea5 57bd ab4c 5dbd aa84 f8bc
000003f0: 507e 3a3c cccc aabb 664f 983b ad4b 563d

main.2.bias f4 [256]
-0.055599175 -0.023494838 -0.055558965 0.0049224417 -123.708275 -0.0026840034 0.01194023 0.017781565
126.808815 -0.08798171 0.0027020846 182.13893 173.24852 -0.017264957 0.0053306315 -0.05162586
0.037259117 -0.0005056043 -0.021828275 -138.8714 1.4014373 101.13957 -0.061043132 -0.08485164
-0.029353347 110.445045 -25.481539 35.376583 0.024086917 -0.0818409 116.17708 -0.074651465
-0.07533389 -0.017566167 0.01856253 0.032580275 -0.037373632 -0.042609245 180.87666 -0.037767947
-0.07801493 -0.016070453 -0.009002539 -0.03409617 -0.05397559 82.87777 -0.0035929384 -0.045044024
-0.069671005 -50.315075 0.0046283663 -0.0026059116 -0.022743024 -0.060697604 -0.050513934 151.00664
-0.033945497 -0.0010120862 -0.06435292 -0.053879745 -0.08344774 -0.0077631404 169.15706 -0.08421789
-0.04351876 0.057876937 0.042488337 -0.059985757 -0.04231091 -0.047311373 6.668998e-05 -0.048669264
0.1707248 -118.225395 -22.656252 0.026707195 -0.034312315 162.81642 -0.015850328 0.017150797
-0.74686766 -64.18229 28.21123 0.045780122 0.004141252 0.002243214 -0.08513779 6.213823
-0.09356455 -112.11201 -122.20119 0.013858279 156.93704 -6.302409e-05 -0.030513896 -0.086582094
-0.05279255 0.087113105 -0.04179039 -181.55481 -0.049290393 -0.043053966 0.0037182025 -0.008936949
176.2487 0.031976327 -0.077803455 193.5253 -27.604008 -196.75171 -0.0033822437 -11.884314
42.778843 -0.09329477 -114.306366 1.1131905 -0.04896753 -0.059546757 -0.002479076 -0.09559831
-0.07462726 110.32164 -149.12708 -5.0407 1.3193116 0.0016879125 -0.062448736 0.83460015
133.28688 0.012911339 0.8522455 1.4945909 -151.98538 -135.01468 -6.565358 43.837082
0.0051013976 0.034467153 -0.032323487 -169.46594 -1.9228258 -196.19923 23.217794 185.8908
-0.022186402 -125.23798 0.005481089 -0.08250053 144.62164 56.50592 -107.28092 0.019589745
175.5241 37.341717 -103.175316 -173.83736 12.689268 -0.05858158 16.023872 195.27011
2.2264416 -0.08616547 0.030756757 -0.055101562 -0.092356 -0.08423194 0.03991267 -0.051912017
-0.09227918 0.23915419 2.6492891 0.04829379 -0.07434077 89.16983 179.61726 0.020523649
-0.03670049 -0.06813914 0.04956915 -0.02907803 0.028817244 181.25688 38.03087 0.08348746
-0.028786708 0.015244012 185.7012 -0.0060756956 170.47519 -0.021849751 0.017638711 -154.7306
0.012725278 -0.040976617 0.04085811 196.32771 -0.023258373 -0.0026757866 -0.027040113 0.03760387
-0.05778475 180.64328 0.8395774 1.0635697 -66.952675 -0.08268307 -0.016129617 -0.016012993
-0.010871816 76.2851 -0.064400844 -58.631447 -0.05384794 -0.078773774 -175.43016 0.012009234
162.27249 -86.46612 -0.060562365 0.0039489553 0.011703225 -0.04632937 -0.012051448 -0.061241712
190.33627 0.005546711 -20.48288 204.31001 -0.029439326 -17.133047 -177.84476 -0.010766109
126.73979 -0.021190492 -0.062635235 -0.08231933 -0.02418734 -0.031634204 179.02043 -0.031114409
199.1314 0.046601433 -127.582565 -0.008580432 -0.005752634 -0.08740911 -0.0126505755 0.0009298407
-0.029915452 -0.08568902 0.055946425 1.0959667 -143.82317 -0.1061127 -0.037916105 130.71301
00000000: f6bb 63bd 3f78 c0bc cc91 63bd 6f4c a13b
00000010: a36a f7c2 1be6 2fbb f4a0 433c a5aa 913c
00000020: 1d9e fd42 c12f b4bd 7515 313b 9123 3643
00000030: 9f3f 2d43 3d6f 8dbc 94ac ae3b a375 53bd
00000040: 049d 183d 888a 04ba 36d1 b2bc 14df 0ac3
00000050: 4c62 b33f 7647 ca42 5d08 7abd b2c6 adbd
00000060: 6e76 f0bc dde3 dc42 31da cbc1 9f81 0d42
00000070: ed51 c53c 349c a7bd aa5a e842 dee2 98bd
00000080: a848 9abd ece6 8fbc 7210 983c e572 053d
00000090: 1815 19bd 0887 2ebd 6de0 3443 90b2 1abd
000000a0: 4bc6 9fbd 2fa6 83bc 637f 13bc 6da8 0bbd
000000b0: 8215 5dbd 6bc1 a542 8177 6bbb 1580 38bd
000000c0: acaf 8ebd a342 49c2 8da9 973b f1c7 2abb
000000d0: 944f babc 0d9e 78bd b3e7 4ebd b301 1743
000000e0: 6f0a 0bbd faa7 84ba 77cb 83bd 02b1 5cbd
000000f0: a6e6 aabd f161 febb 3528 2943 6e7a acbd
00000100: ba40 32bd 5e10 6d3d 4008 2e3d a0b3 75bd
00000110: 344e 2dbd 92c9 41bd e9db 8b38 6c59 47bd
00000120: 7bd2 2e3e 6773 ecc2 0140 b5c1 0cc9 da3c
00000130: 128b 0cbd 01d1 2243 8cd8 81bc d47f 8c3c
00000140: b832 3fbf 555d 80c2 99b0 e141 f083 3b3d
00000150: 57b3 873b e302 133b b95c aebd a3d7 c640
00000160: c59e bfbd 5939 e0c2 0267 f4c2 d60d 633c
00000170: e2ef 1c43 cd2b 84b8 47f8 f9bc f451 b1bd
00000180: 003d 58bd 5b68 b23d 662c 2bbd 088e 35c3
00000190: b9e4 49bd 5b59 30bd 16ad 733b 486c 12bc
000001a0: ab3f 3043 9cf9 023d 6b57 9fbd 7a86 4143
000001b0: 02d5 dcc1 70c0 44c3 a2a8 5dbb 2626 3ec1
000001c0: 891d 2b42 5411 bfbd dc9c e4c2 077d 8e3f
000001d0: 2d92 48bd 4de7 73bd fe77 22bb 0cc9 c3bd
000001e0: 2dd6 98bd aea4 dc42 8820 15c3 6a4d a1c0
000001f0: 34df a83f f23c dd3a 3fca 7fbd 5ba8 553f
00000200: 7149 0543 158a 533c c32c 5a3f c14e bf3f
00000210: 42fc 17c3 c203 07c3 6a17 d2c0 2c59 2f42
00000220: a029 a73b 6e2d 0d3d a265 04bd 4877 29c3
00000230: 281f f6bf 0133 44c3 0bbe b941 0be4 3943
00000240: 42c0 b5bc d979 fac2 b59a b33b 0af6 a8bd
00000250: 249f 1043 1006 6242 d58f d6c2 ac7a a03c
00000260: 2b86 2f43 eb5d 1542 c359 cec2 5dd6 2dc3
00000270: 3e07 4b41 3df3 6fbd e430 8041 2645 4343
00000280: 057e 0e40 8677 b0bd 98f5 fb3c 2db2 61bd
00000290: 2425 bdbd cc81 acbd 787b 233d b2a1 54bd
000002a0: defc bcbd d6e4 743e f48d 2940 b6cf 453d
000002b0: f93f 98bd f456 b242 059e 3343 3621 a83c
000002c0: 4153 16bd 898c 8bbd 0509 4b3d 0c35 eebc
000002d0: 2412 ec3c c341 3543 9c1f 1842 79fb aa3d
000002e0: 1ad2 ebbc 05c2 793c 82b3 3943 a116 c7bb
000002f0: a679 2a43 40fe b2bc 0f7f 903c 09bb 1ac3
00000300: af7d 503c 19d7 27bd d55a 273d e553 4443
00000310: 5888 bebc 405c 2fbb 3a83 ddbc 8406 1a3d
00000320: b4af 6cbd aea4 3443 8bee 563f 0d23 883f
00000330: c5e7 85c2 be55 a9bd 4222 84bc ae2d 83bc
00000340: b41f 32bc f991 9842 97e4 83bd 9a86 6ac2
00000350: a88f 5cbd 2554 a1bd 1f6e 2fc3 61c2 443c
00000360: c245 2243 a7ee acc2 3e10 78bd 3d66 813b
00000370: e2be 3f3c dec3 3dbd 7073 45bc 97d8 7abd
00000380: 1656 3e43 2fc1 b53b f0dc a3c1 5d4f 4c43
00000390: be2a f1bc 7b10 89c1 42d8 31c3 5664 30bc
000003a0: c67a fd42 af97 adbc e746 80bd 0997 a8bd
000003b0: 8724 c6bc de92 01bd 3b05 3343 a5e3 febc
000003c0: a321 4743 25e1 3e3d 462a ffc2 f194 0cbc
000003d0: 9780 bcbb 8c03 b3bd 5c44 4fbc 8ec0 733a
000003e0: 4011 f5bc ba7d afbd 1428 653d a348 8c3f
000003f0: bbd2 0fc3 9e51 d9bd eb4d 1bbd 88b6 0243

main.4.weight f4 [256, 256]
-0.017871741 0.009158355 -0.008859499 -0.032609824 0.10938426 0.023765115 0.043651417 0.06599152
0.2492995 -0.08062755 0.030333798 1.2660956 0.77714014 -0.09449507 0.004024655 -0.08096231
0.007322043 -0.012595859 -0.04957345 5.5899153 0.085444674 1.2428828 0.1097215 -0.07171476
-0.023644889 0.24942595 -0.083312385 -0.3135793 -0.052194912 -0.0025468713 1.5584888 -0.028968854
-0.052233268 -0.040540677 0.000739745 -0.023780027 -0.019431928 -0.014564463 0.5403504 0.026016207
0.016502162 -0.035701834 -0.018966956 0.039625272 -0.0389217 0.6914267 -0.07540334 0.030735275
0.03984936 0.4143582 0.06576385 0.01608639 0.05719244 0.011234943 -0.038686603 0.7032966
0.028773846 0.026089331 -0.020900384 0.020864327 -0.023806795 0.019455317 0.39370236 -0.02009179
0.033316802 -0.017956521 -0.052705504 -0.045086868 -0.036757603 -0.014607482 0.030779837 0.010736551
-0.045827627 1.0142454 0.58042604 -0.0628031 -0.09052857 -0.043952174 0.096334346 0.02742663
0.14413154 0.34323665 -0.20626937 0.014860071 0.01720138 -0.028515968 0.02513716 0.7429857
-0.008275399 0.44316113 0.5475558 -0.04081909 0.2613159 0.02150842 -0.07433462 0.003978178
0.04633221 -0.042311307 0.013112679 0.29934046 -0.001716865 0.071342446 0.08737762 -0.0040657106
0.82421756 -0.035247035 0.05461557 0.71715987 0.26565284 0.7397788 -0.024727754 0.7263072
0.64106303 -0.0056994855 1.0102507 0.038222894 0.045551185 0.007979858 -0.081955045 -0.082520746
-0.008683123 0.24517813 0.6915512 0.7264872 -0.0066116974 0.083266266 -0.065342285 0.10704677
0.19717696 -0.01609536 -0.057258375 -0.032422524 0.71453583 -0.9170756 -0.5849039 0.20989847
-0.03700135 -0.08129711 0.019314257 -1.084158 -0.10840119 -0.6444794 -0.8956726 0.8252106
0.027180959 0.11006325 0.089077145 0.009875516 -0.12140229 -0.020399742 1.8712138 -0.07682533
-1.0166707 1.2443235 1.0892011 0.32279137 0.59140545 0.031957403 0.1584991 0.5068046
0.013038936 -0.08299034 -0.04812661 0.027935902 -0.017098887 -0.035600934 0.022493355 0.0129973255
-0.008106151 0.040567603 -0.08200575 -0.04573319 0.06955235 0.28974426 0.634128 -0.05126003
-0.024021165 0.008781904 -0.071037166 0.027716711 0.056689613 0.8502473 1.6326995 -0.04242199
0.040875293 -0.04205317 0.90678793 0.059637967 1.1186398 -0.020664316 0.00062062766 -1.0249583
0.022980561 -0.03174495 0.04095317 0.30677038 0.036940422 -0.0010376424 -0.008893505 -0.039399195
-0.02333152 0.41696858 -0.008821496 0.055601276 0.68458724 -0.012489466 -0.0011469319 -0.009044099
0.034829922 0.3482724 0.09356729 0.65681726 0.012276713 0.057424124 -0.67962277 0.02811508
0.37153792 0.020340735 -0.08940052 -0.06451522 0.056365646 0.049330108 -0.043508135 -0.055938695
0.20117189 -0.07763885 0.0580272 0.44930357 0.030726133 0.17080858 0.1804032 -0.02144604
0.4197228 -0.02365084 0.05496049 -0.012094325 0.0107925795 -0.0075989487 -0.38310048 -0.064942196
0.77462775 0.051547427 -1.2591227 0.025233215 -0.09422308 -0.018802183 -0.030078541 0.0424823
0.0055280062 -0.03852361 -0.04631981 0.02259071 0.010120572 -0.01849968 -0.054481037 0.34612316
00000000: c267 92bc ed0c 163c 6f27 11bc e191 05bd
00000010: db04 e03d 0faf c23c d4cb 323d 9026 873d
00000020: 5e48 7f3e 0f20 a5bd 967e f83c 6c0f a23f
00000030: a8f2 463f a286 c1bd 41e1 833b 91cf a5bd
00000040: c0ed ef3b dd5e 4ebc 880d 4bbd 96e0 b240
00000050: 9efd ae3d c916 9f3f aab5 e03d 30df 92bd
00000060: edb2 c1bc 8469 7f3e af9f aabd 778d a0be
00000070: 55ca 55bd 69e9 26bb 907c c73f 1750 edbc
00000080: 8df2 55bd fb0d 26bd 72eb 413a 55ce c2bc
00000090: b52f 9fbc c99f 6ebc 6754 0a3f f11f d53c
000000a0: 8b2f 873c 163c 12bd 9760 9bbc 1c4e 223d
000000b0: 5c6c 1fbd 5701 313f 116d 9abd 8bc8 fb3c
000000c0: 1539 233d c226 d43e 33af 863d 9bc7 833c
000000d0: 9f42 6a3d c412 383c d875 1ebd 3f0b 343f
000000e0: 21b7 eb3c 4bb9 d53c 4837 abbc aaeb aa3c
000000f0: 7806 c3bc c260 9f3c 5b93 c93e 8a97 a4bc
00000100: 3377 083d 8e19 93bc bae1 57bd 02ad 38bd
00000110: 248f 16bd 3854 6fbc ff25 fc3c 5ce8 2f3c
00000120: c0b5 3bbd cbd2 813f cd96 143f e99e 80bd
00000130: 0b67 b9bd 3207 34bd f14a c53d d0ad e03c
00000140: 3897 133e b7bc af3e 4738 53be a877 733c
00000150: e9e9 8c3c 529a e9bc 72ec cd3c 5034 3e3f
00000160: 8a95 07bc 04e6 e23e 9e2c 0c3f eb31 27bd
00000170: 33cb 853e 6d32 b03c c03c 98bd 605b 823b
00000180: d8c6 3d3d 9f4e 2dbd 90d6 563c 2743 993e
00000190: 6e08 e1ba fd1b 923d 0af3 b23d a739 85bb
000001a0: ecff 523f 325f 10bd 93b4 5f3d ca97 373f
000001b0: a603 883e 2562 3d3f dc91 cabc 45ef 393f
000001c0: b51c 243f c0c2 babb e54f 813f 9c8f 1c3d
000001d0: e193 3a3d f3bd 023c 0cd8 a7bd a300 a9bd
000001e0: a843 0ebc fa0f 7b3e 8009 313f 11fb 393f
000001f0: f0a6 d8bb 8187 aa3d 2dd2 85bd 563b db3d
00000200: c2e8 493e 6bda 83bc c287 6abd 7bcd 04bd
00000210: d2eb 363f 77c5 6abf 43bc 15bf a0ef 563e
00000220: ba8e 17bd 197f a6bd ef38 9e3c b0c5 8abf
00000230: 7101 debd 9afc 24bf cd4a 65bf 0041 533f
00000240: 9aaa de3c d768 e13d 146e b63d ebcc 213c
00000250: c4a1 f8bd 5c1d a7bc ef83 ef3f 9956 9dbd
00000260: 4422 82bf fe45 9f3f f16a 8b3f e944 a53e
00000270: 5966 173f c4e5 023d 974d 223e f2bd 013f
00000280: 43a1 553c d7f6 a9bd 6920 45bd d5d9 e43c
00000290: f712 8cbc 49d2 11bd fc43 b83c bcf2 543c
000002a0: a9cf 04bc 372a 263d a1f2 a7bd ba52 3bbd
000002b0: 7671 8e3d 5c59 943e 3656 223f 0af6 51bd
000002c0: 09c8 c4bc fae1 0f3c ef7b 91bd 280e e33c
000002d0: 5e33 683d cfa9 593f 4cfc d03f aec2 2dbd
000002e0: da6c 273d f23f 2cbd 4123 683f f146 743d
000002f0: 972f 8f3f 3648 a9bc 9eb1 223a d531 83bf
00000300: bb41 bc3c fe06 02bd 83be 273d 0211 9d3e
00000310: d74e 173d 8001 88ba 10b6 11bc 0d61 21bd
00000320: be21 bfbc e87c d53e 0988 10bc 2abe 633d
00000330: 1c41 2f3f 9ea0 4cbc a654 96ba b32d 14bc
00000340: d2a9 0e3d c350 b23e 35a0 bf3d 2d25 283f
00000350: 4424 493c 8f35 6b3d c2fb 2dbf 9951 e63c
00000360: 383a be3e 9da1 a63c 9f17 b7bd 8e20 84bd
00000370: aadf 663d 5e0e 4a3d 9635 32bd f91f 65bd
00000380: 0100 4e3e 1e01 9fbd eead 6d3d 1e0b e63e
00000390: 5fb5 fb3c 72e8 2e3e 9ebb 383e 9baf afbc
000003a0: e8e5 d63e 68bf c1bc 401e 613d 4727 46bc
000003b0: 5cd3 303c 9a00 f9bb bf25 c4be 6a00 85bd
000003c0: 014e 463f 6523 533d ef2a a1bf e3b5 ce3c
000003d0: 08f8 c0bd 0907 9abc 4667 f6bc ec01 2e3d
000003e0: 4724 b53b efca 1dbd d7b9 3dbd 2710 b93c
000003f0: c1d0 253c a48c 97bc 8227 5fbd 0e37 b13e

main.4.bias f4 [256]
156.36853 165.14856 123.039055 159.87636 0.042535286 109.60617 -174.13559 -8.910877
0.036882836 154.03165 -96.775185 172.5081 174.09529 -173.21999 0.24701917 -22.305315
0.009671916 225.34149 -0.02651253 -0.014774644 82.2747 -0.0390758 -193.00887 161.30627
144.52658 -100.3733 170.12006 243.10367 -0.09831553 168.15216 -0.08999452 36.159363
146.09349 172.78137 81.827156 148.00853 -0.012948746 185.95369 157.15985 -253.90863
169.58171 207.0121 -0.04012695 -0.10404915 203.54263 0.015576456 -0.0920494 -0.046832122
-0.01626057 0.020419575 0.004376125 -0.08207709 0.02820926 -0.09247247 -0.0005900502 163.73602
193.45557 161.55801 -0.053762782 139.71112 -0.11093078 188.38678 -0.07440213 -0.023908135
172.16481 0.014151588 -198.13377 -0.02595894 170.30626 -0.13942006 -0.038254347 160.49265
-0.028199518 186.76749 152.65448 164.89467 -142.51492 166.1427 -5.394133 163.53456
187.10567 -0.067040734 0.32261434 167.86679 158.47311 -0.03684527 -0.027332071 0.025042305
-0.060402703 -43.549988 -0.017257484 -0.055346586 -12.132106 -0.06857779 -0.06866488 -0.042248257
164.69879 163.71945 -65.69514 -0.06804765 -0.026489116 -0.030949246 161.18338 -0.046308327
-0.078028336 -0.029891092 157.92155 -123.38344 0.001353053 -0.077592134 148.95926 154.99313
156.45918 0.0086881295 160.2113 153.17842 152.94539 -0.03205809 -0.06456814 146.70654
-2.074439 -0.062112894 168.96568 108.05116 -0.07665399 192.11256 -0.016456474 0.033639207
-0.036671963 158.11168 -0.002477581 -185.88521 161.66887 157.40625 -7.538142e-05 173.52109
-66.337654 -0.079188295 -0.015996218 164.30286 156.22626 -0.035595525 -0.0359292 174.75436
172.92705 -0.095953956 146.24606 29.28557 -0.06116946 -0.08361335 -134.19612 -0.03478326
0.07664986 143.27309 -0.12660687 0.01471315 -0.093141146 -0.04391963 173.87024 -0.116306715
-0.1017677 -0.07628985 -0.06231641 142.80386 -0.061574213 -0.030817157 -0.11238892 155.41382
-0.048412822 -0.035533685 153.24968 -0.0060535464 -182.19327 163.98 152.84215 -0.05701074
-0.06934431 -0.1259569 163.86171 0.04465738 -0.05405546 -0.042783596 -263.53894 161.90898
-0.06725636 168.74733 -0.52396655 -0.030315418 -0.058390528 -0.03332805 -0.07783877 156.36565
-0.09150623 161.34155 156.44356 158.18477 -0.044204365 -149.99846 77.55781 -0.012803106
172.53143 4.7507124 -0.060123708 157.22482 -0.02947828 -0.075711116 160.61902 59.79844
-125.203125 -0.06668274 0.003923593 -0.1160027 -0.071665585 155.89824 0.013556984 0.03215726
-0.07904056 -0.105397955 0.018095177 188.22293 -0.0030442525 -0.042952307 0.39185154 -152.94666
-9.953692 173.55319 -0.081079565 -0.10127497 144.2278 -0.05044224 -107.00514 157.90523
169.7847 145.06946 0.03810472 158.604 -0.059809692 -0.06794864 176.96419 0.7775089
162.50403 -0.025286263 164.78642 -0.034439575 0.012134739 -0.08856176 181.265 -0.16880259
91.48376 0.0024611524 0.00010526178 156.56314 0.016981717 -0.088108525 -0.073066965 -118.188065
00000000: 585e 1c43 0826 2543 ff13 f642 59e0 1f43
00000010: 7b39 2e3d 5c36 db42 b622 2ec3 f492 0ec1
00000020: 7512 173d 1a08 1a43 e58c c1c2 1382 2c43
00000030: 6518 2e43 5138 2dc3 98f2 7c3e 4971 b2c1
00000040: f576 1e3c 6c57 6143 ce30 d9bc 5911 72bc
00000050: a58c a442 f20d 20bd 4502 41c3 684e 2143
00000060: ce86 1043 21bf c8c2 bc1e 2a43 8a1a 7343
00000070: a759 c9bd f426 2843 0c4f b8bd 30a3 1042
00000080: ef17 1243 08c8 2c43 81a7 a342 2f02 1443
00000090: fa26 54bc 25f4 3943 ec28 1d43 9ce8 7dc3
000000a0: eb94 2943 1903 4f43 285c 24bd b917 d5bd
000000b0: ea8a 4b43 6434 7f3c 6584 bcbd 0ad3 3fbd
000000c0: e334 85bc f446 a73c 9965 8f3b 0918 a8bd
000000d0: 1b17 e73c 3562 bdbd 99ad 1aba 6cbc 2343
000000e0: a074 4143 da8e 2143 5d36 5cbd 0cb6 0b43
000000f0: ad2f e3bd 0463 3c43 2560 98bd feda c3bc
00000100: 312a 2c43 10dc 673c 3f22 46c3 d8a7 d4bc
00000110: 674e 2a43 22c4 0ebe 97b0 1cbd 1e7e 2043
00000120: ad02 e7bc 7ac4 3a43 8ca7 1843 09e5 2443
00000130: d283 0ec3 8824 2643 bd9c acc0 d988 2343
00000140: 0d1b 3b43 a74c 89bd b52d a53e e6dd 2743
00000150: 1e79 1e43 11eb 16bd 82e7 dfbc 8525 cd3c
00000160: d368 77bd 3033 2ec2 915f 8dbc 1ab3 62bd
00000170: 1b1d 42c1 8372 8cbd 2ca0 8cbd 820c 2dbd
00000180: e4b2 2443 2eb8 2343 e963 83c2 915c 8bbd
00000190: b4ff d8bc 4689 fdbc f22e 2143 cdad 3dbd
000001a0: 52cd 9fbd 2ade f4bc ebeb 1d43 52c4 f6c2
000001b0: ed58 b13a a0e8 9ebd 92f5 1443 3efe 1a43
000001c0: 8d75 1c43 a858 0e3c 1836 2043 ad2d 1943
000001d0: 05f2 1843 584f 03bd 4d3c 84bd e0b4 1243
000001e0: 9cc3 04c0 176a 7ebd 37f7 2843 321a d842
000001f0: c4fc 9cbd d11c 4043 bacf 86bc 44c9 093d
00000200: 5735 16bd 971c 1e43 e95e 22bb 9de2 39c3
00000210: 3bab 2143 0068 1d43 1716 9eb8 6685 2d43
00000220: e1ac 84c2 792d a2bd 800a 83bc 884d 2443
00000230: ec39 1c43 9dcc 11bd 7f2a 13bd 1ec1 2e43
00000240: 53ed 2c43 8283 c4bd fe3e 1243 d948 ea41
00000250: d48c 7abd 7a3d abbd 3532 06c3 e478 0ebd
00000260: 9afa 9c3d e945 0f43 3ba5 01be 6d0f 713c
00000270: c9c0 bebd 12e5 33bd c8de 2d43 3732 eebd
00000280: 956b d0bd da3d 9cbd 7e3f 7fbd cacd 0e43
00000290: 3e35 7cbd 4374 fcbc 292c e6bd f069 1b43
000002a0: 864c 46bd c58b 11bd eb3f 1943 d45c c6bb
000002b0: 7a31 36c3 e1fa 2343 97d7 1843 1884 69bd
000002c0: 6404 8ebd d8fa 00be 99dc 2343 a8ea 363d
000002d0: 4269 5dbd da3d 2fbd fcc4 83c3 b3e8 2143
000002e0: b4bd 89bd 51bf 2843 ac22 06bf 0a58 f8bc
000002f0: e82a 6fbd fe82 08bd ef69 9fbd 9b5d 1c43
00000300: 9e67 bbbd 7057 2143 8d71 1c43 4d2f 1e43
00000310: a30f 35bd 9bff 15c3 991d 9b42 1ec4 51bc
00000320: 0c88 2c43 d605 9840 4744 76bd 8e39 1d43
00000330: 6f7c f1bc 6e0e 9bbd 789e 2043 9a31 6f42
00000340: 0068 fac2 f690 88bd 7c91 803b d392 edbd
00000350: 68c5 92bd f3e5 1b43 1d1e 5e3c 55b7 033d
00000360: 04e0 a1bd e2da d7bd 563c 943c 1239 3c43
00000370: 1582 47bb c2ee 2fbd c4a0 c83e 58f2 18c3
00000380: 5342 1fc1 9e8d 2d43 0b0d a6bd 4069 cfbd
00000390: 513a 1043 869c 4ebd a202 d6c2 bde7 1d43
000003a0: e2c8 2943 c811 1143 b213 1c3d a09a 1e43
000003b0: 02fb 74bd a828 8bbd d5f6 3043 d30a 473f
000003c0: 0881 2243 2325 cfbc 53c9 2443 8310 0dbd
000003d0: c9d0 463c de5f b5bd d743 3543 96da 2cbe
000003e0: aff7 b642 494b 213b fdbf dc38 2a90 1c43
000003f0: 3e1d 8b3c 3e72 b4bd 22a4 95bd 4a60 ecc2

main.6.weight f4 [4, 256]
0.6163898 0.9723878 -6.9499364 0.86519945 -0.02908532 -5.7801876 -2.6751513 1.6214615
-0.0042349217 0.45120606 2.8555725 -1.6976773 -0.3422407 -19.109558 3.7974737 -0.9410965
0.042412624 42.467506 -0.024638833 0.02575293 9.39689 0.0046480815 -5.196823 0.83212155
-0.052503202 3.7002301 0.4424895 50.605114 -0.02885274 -0.29486552 0.012330783 -3.387242
-0.4289 8.610066 0.29208723 -6.4291143 0.0029097178 10.014523 1.2833585 -6.410053
1.2661847 6.6361103 -0.062557094 -0.021093462 1.9499127 -0.027646273 -0.030737653 0.055080704
0.064299285 0.0019093411 0.036720503 -0.047353495 -0.0039349436 -0.013596181 -0.026098574 4.4154844
16.5426 3.0629478 0.016897399 1.3195273 -0.0027056704 22.278091 -0.006802631 0.0019008189
-0.057832025 -0.026634738 -4.188008 -0.06826071 0.87915003 0.006502973 0.009346415 -0.3311471
-0.013857937 8.234432 -1.6749312 -2.1977925 -26.10338 0.24347554 -4.0593195 1.0682123
27.512478 -0.036811646 4.8477836 0.2920735 1.4702455 0.06666426 -0.015475716 0.05671143
0.019538945 5.403616 0.051427238 0.044747118 -7.142477 -0.026775762 -0.0062782043 -0.04061581
0.32206735 1.0191921 -8.259841 -0.042289335 0.016933553 -0.046666678 0.73468715 0.009851423
-0.021757945 0.018142965 0.587453 4.980813 -0.03864054 -0.014262333 1.8273443 0.6627484
0.3418765 0.0072238594 -0.63905925 -0.7703575 0.4372103 -0.0021646454 0.030453013 3.6251738
14.647596 0.0840519 -0.6021423 -2.159925 0.0062272814 4.6009154 -0.013586649 0.04230539
-0.03684479 -13.3694105 -0.014559877 -17.488081 0.14244592 0.707864 -0.19702944 1.9850498
-3.961235 -0.00030914514 0.039017808 5.787089 0.52002984 0.009061494 -0.034674857 1.1126757
1.4637524 0.030496871 -0.41970667 11.52249 -0.0074352385 0.02002082 -8.299128 -0.038307924
-0.046675377 -0.75011814 0.0038873153 -0.020804655 0.026791124 -0.02548208 7.406117 -0.017994849
-0.015635468 0.025348742 0.005435826 0.14605623 -0.026984977 0.025965055 -0.05341186 0.90641475
0.048725724 0.058771167 -0.4336481 -0.013081001 -4.2536583 2.7732713 0.35854393 0.042076953
-0.054653138 -0.0026237275 -0.89924216 -0.044144507 0.018544333 -0.03853967 -6.14219 0.93369174
-0.044736415 0.5658539 -0.08190511 -0.057595555 0.007924276 0.011336374 0.010953376 0.5138117
-0.010178162 0.9027576 -0.016204096 0.07046513 -0.012215828 -20.062807 8.181477 0.041293856
14.411069 0.3845254 0.032982394 0.69755137 -0.011495769 0.03511418 -4.572273 -0.53362626
-13.535511 -0.08337073 -0.04401841 0.041953146 0.020452319 0.100961655 0.057609197 0.042325508
-0.058728375 -0.05159151 0.025777481 9.203178 0.016232746 -0.00208901 -0.85562027 -19.57776
7.2415977 -5.340348 -0.029408667 -0.0037206304 0.84222424 -0.031369437 -2.544565 0.0021274404
1.2287644 -2.3520956 0.03407154 -2.2436843 -2.595781 -0.009577108 0.7884686 -4.2598696
0.9459449 0.051711805 0.68163204 -0.004762569 0.016931677 -0.046747614 4.744801 -0.07089085
-4.640922 -0.032317106 -0.01921922 0.37322903 -0.050563283 -0.003463558 -0.01253289 -1.8748987
00000000: b9cb 1d3f 68ee 783f e165 dec0 b67d 5d3f
00000010: 5644 eebc 4cf7 b8c0 ae35 2bc0 0d8c cf3f
00000020: 19c5 8abb 7b04 e73e b3c1 3640 7d4d d9bf
00000030: 2c3a afbe 60e0 98c1 cf09 7340 b3eb 70bf
00000040: dcb8 2d3d bade 2942 61d7 c9bc cff7 d23c
00000050: a959 1641 ef4e 983b 604c a6c0 eb05 553f
00000060: 990d 57bd 92d0 6c40 fc8d e23e a36b 4a42
00000070: 955c ecbc 9df8 96be 0d07 4a3c 93c8 58c0
00000080: c898 dbbe d5c2 0941 758c 953e 4ebb cdc0
00000090: f7b0 3e3b 7c3b 2041 1745 a43f 271f cdc0
000000a0: 5712 a23f 045b d440 ef1d 80bd 32cc acbc
000000b0: bd96 f93f 707a e2bc 88cd fbbc 4e9c 613d
000000c0: 58af 833d db42 fa3a 3d68 163d bdf5 41bd
000000d0: b3f0 80bb 84c2 5ebc adcc d5bc a64b 8d40
000000e0: 3f57 8441 5607 4440 6a6c 8a3c 45e6 a83f
000000f0: 9e51 31bb 8839 b241 9be8 debb e624 f93a
00000100: 46e1 6cbd 1831 dabc 2904 86c0 45cc 8bbd
00000110: fa0f 613f e416 d53b b521 193c 1d8c a9be
00000120: 670c 63bc 3cc0 0341 2564 d6bf a2a8 0cc0
00000130: b9d3 d0c1 a751 793e f2e5 81c0 2ebb 883f
00000140: 8e19 dc41 cfc7 16bd 0b21 9b40 a88a 953e
00000150: 0131 bc3f 4687 883d dc8d 7dbc 3f4a 683d
00000160: 2310 a03c 6cea ac40 5ea5 523d c148 373d
00000170: 2c8f e4c0 d858 dbbc 65b9 cdbb c35c 26bd
00000180: 03e6 a43e e374 823f 4f28 04c1 9537 2dbd
00000190: 3cb8 8a3c 8f25 3fbd 7514 3c3f dd67 213c
000001a0: b83d b2bc 8ea0 943c 5263 163f d262 9f40
000001b0: 8b45 1ebd 8fac 69bc 6be6 e93f e1a9 293f
000001c0: 700a af3e 20b6 ec3b 6399 23bf 2636 45bf
000001d0: 07da df3e b9dc 0dbb 9978 f93c d902 6840
000001e0: 8e5c 6a41 6723 ac3d ff25 1abf 363c 0ac0
000001f0: 390e cc3b b33a 9340 899a 5ebc 6b48 2d3d
00000200: 90ea 16bd 1be9 55c1 8d8c 6ebc 97e7 8bc1
00000210: 58dd 113e 9336 353f 16c2 49be 1d16 fe3f
00000220: e084 7dc0 c214 a2b9 23d1 1f3d d52f b940
00000230: ad20 053f a976 143c 3907 0ebd 286c 8e3f
00000240: 3d5c bb3f 93d4 f93c cbe3 d6be 1e5c 3841
00000250: 4da3 f3bb b402 a43c 3ac9 04c1 c5e8 1cbd
00000260: ae2e 3fbd be07 40bf 54c2 7e3b 866e aabc
00000270: 0f79 db3c ccbf d0bc e9fe ec40 ef69 93bc
00000280: f415 80bc 2aa8 cf3c 031f b23b c48f 153e
00000290: 990f ddbc abb4 d43c 65c6 5abd cc0a 683f
000002a0: a094 473d 09ba 703d 2007 debe b251 56bc
000002b0: f81d 88c0 477d 3140 1293 b73e e258 2c3d
000002c0: f8db 5fbd d8f2 2bbb bc34 66bf dfd0 34bd
000002d0: 49ea 973c c6db 1dbd d28c c4c0 6c06 6f3f
000002e0: 883d 37bd cddb 103f debd a7bd 51e9 6bbd
000002f0: d3d4 013c 33bc 393c ca75 333c 2a89 033f
00000300: 4ec2 26bc 1f1b 673f 74be 84bc 0650 903d
00000310: e524 48bc a180 a0c1 54e7 0241 bf23 293d
00000320: bd93 6641 83e0 c43e 8c18 073d ba92 323f
00000330: c058 3cbc e3d3 0f3d 0f50 92c0 bb9b 08bf
00000340: 7491 58c1 46be aabd a64c 34bd 10d7 2b3d
00000350: 9f8b a73c fcc4 ce3d 9ff7 6b3d 835d 2d3d
00000360: 2a8d 70bd 9f51 53bd 4c2b d33c 3840 1341
00000370: 89fa 843c c6e7 08bb ee09 5bbf 419f 9cc1
00000380: 2bbb e740 21e4 aac0 72ea f0bc d2d5 73bb
00000390: 029c 573f 3d7d 00bd 27da 22c0 876c 0b3b
000003a0: 2748 9d3f bc88 16c0 998e 0b3d 8698 0fc0
000003b0: 4721 26c0 4de9 1cbc 14d9 493f da50 88c0
000003c0: 7229 723f c2cf 533d 707f 2e3f 530f 9cbb
000003d0: 4db4 8a3c 6d7a 3fbd 69d5 9740 392f 91bd
000003e0: 6f82 94c0 f15e 04bd a071 9dbc e017 bf3e
000003f0: 721b 4fbd dcfc 62bb c056 4dbc aefc efbf

main.6.bias f4 [4]
218.26302 214.04822 141.58008 116.98509
00000000: 5543 5a43 580c 5643 8094 0d43 5ef8 e942
