src/episode_0.pth (torch, 540888 bytes, 8 tensors)

main.0.weight f4 [256, 6]
000000 77 ec b8 3c e4 b3 8d 40 61 80 c4 bf d8 18 38 c1
       0.022573693 4.4282093 -1.5351678 -11.506065
000010 6e 48 47 bf 20 9b 47 c1 b3 65 0c bf f5 a6 8a 3f
       -0.77844894 -12.475372 -0.5484268 1.0832201
000020 90 cc a1 c2 72 f9 51 c2 a3 07 bb 3e d8 3f 6a 40
       -80.899536 -52.4936 0.36529264 3.6601467
000030 37 d7 29 bc 80 d0 4f 40 eb f4 08 c1 6d 03 30 41
       -0.010366253 3.2471008 -8.559794 11.000836
000040 72 b1 ac bf 27 dd 9b 40 22 29 43 be 58 1e d5 3d
       -1.3491652 4.870746 -0.1905866 0.10406178
000050 f6 9b 40 be 18 1a 44 bd 00 cb 29 be ee a8 8a 3e
       -0.18809494 -0.047876447 -0.16581345 0.27082008
000060 23 ff a4 be 41 b9 40 be 68 17 ec bd 16 5c 7b be
       -0.32225904 -0.18820669 -0.11527902 -0.24546847
000070 78 d3 1d 3d a2 72 ce be 9e f3 21 3b 93 af 38 bf
       0.03853175 -0.40321833 0.0024711858 -0.72142905
000080 45 f9 71 bf 12 8a d6 c0 c9 71 1a 3e 2f d2 cc 40
       -0.9452098 -6.7043543 0.15082468 6.400657
000090 56 8c 9e 3c b1 cb 89 40 7c cb de bf 2b f9 1b c1
       0.019354027 4.3061147 -1.7405849 -9.748332
0000a0 6d 66 9b 3e 1b 0d eb 40 3a 0f 7a bc 58 b9 d8 3f
       0.30351582 7.34535 -0.015262419 1.6931562
0000b0 30 4f 0b c1 67 13 74 41 18 5a e2 bc a3 aa 03 41
       -8.706833 15.254737 -0.02763085 8.229159
0000c0 5c e7 c8 3b cd 96 0b c0 ee 49 c9 bf df b4 ce c0
       0.006131096 -2.1810791 -1.5725687 -6.459579
0000d0 c8 f0 07 3f 87 28 c8 40 5e 07 44 bb fa 12 9f bb
       0.5310178 6.254947 -0.0029911618 -0.004854557
0000e0 66 e9 7b 3f e1 10 ab c1 1f aa f2 3b 66 9c cf c1
       0.9840301 -21.383242 0.007405534 -25.951366
0000f0 68 e8 c5 3c 96 f8 14 bf d2 50 fd bf e1 7b d0 bf
       0.024158671 -0.5819181 -1.9790289 -1.6287805
000100 c4 4e 14 3f e3 7b d8 40 93 48 df bc c8 9a 77 bf
       0.57932687 6.765123 -0.027256286 -0.9672055
000110 98 8a 5a c1 28 76 81 40 44 64 cd 3c 1d f5 90 40
       -13.658836 4.0456734 0.025072224 4.529921
000120 5e 11 05 3d 29 16 6c 3e 0d ed 6f c1 82 07 bb c1
       0.032487266 0.23055328 -14.995374 -23.378666
000130 a6 53 bf bd 9b 53 c3 40 30 d6 28 3b 8c 37 9c 3f
       -0.093421265 6.1039557 0.0025762431 1.2204452
000140 24 45 a5 bf fa dd db 41 50 34 b6 be ed c9 1b 41
       -1.2911725 27.483387 -0.35586786 9.736798
000150 26 8d d1 3c 84 97 0a 40 db 35 80 c1 5d da 9e c1
       0.02558 2.1654978 -16.026297 -19.856623
000160 a9 f0 4d bf c9 a6 fd c1 33 67 1e 3e bf 1c 01 c0
       -0.80445343 -31.706438 0.15469055 -2.0173795
000170 7e a9 1d 40 a8 a4 37 41 d1 e4 7b bf c8 bc 86 c0
       2.46347 11.477699 -0.9839602 -4.2105446
000180 3f 8d 90 3d 24 25 63 3f fd 93 cb 40 e1 b7 c1 c1
       0.070581906 0.8872855 6.361815 -24.214785
000190 39 64 b3 be e8 29 05 c1 90 b7 5c bd 1a ba 97 be
       -0.350374 -8.322731 -0.053885996 -0.29634172
0001a0 40 e5 1c 3c a4 c7 8e be a4 55 b1 be d4 33 66 be
       0.009576142 -0.2788669 -0.3463565 -0.22480708
0001b0 cb aa 75 bf fd d8 2e 3f 09 ad 6b c0 84 61 95 c0
       -0.95963734 0.6829985 -3.6824362 -4.668154
0001c0 3b fb 03 3f a3 2b 10 40 ea 47 89 be 2e 26 0b be
       0.5155522 2.2526634 -0.2681268 -0.13588783
0001d0 a0 bd 82 3d 85 ec b7 be f7 1f 34 be 6b 45 7a be
       0.06383824 -0.35922638 -0.17590319 -0.24440543
0001e0 8c 32 b0 3d 42 29 19 c0 8f 94 36 c0 3b a6 0c c2
       0.08603391 -2.3931432 -2.8528173 -35.162334
0001f0 65 b1 1e c0 bd 97 e8 40 85 cf 31 bf 0e 8f 99 bd
       -2.4795773 7.2685227 -0.69457275 -0.07497989
000200 24 50 28 c0 f2 73 73 40 0b 9e 80 3f 1f a6 6b c1
       -2.6298914 3.8039517 1.0048231 -14.728057
000210 0a 00 b1 be c0 a6 90 3e e8 0b e6 bd 7e 3f 20 be
       -0.34570342 0.2825222 -0.1123274 -0.1564922
000220 02 81 ad be 75 cd cf be 15 eb ba bc ce 7d 62 bf
       -0.33887488 -0.4058644 -0.022817174 -0.8847321
000230 be 16 18 41 65 dd f8 41 41 ce 9d 3d a3 6f c3 40
       9.505552 31.108103 0.077053554 6.1073775
000240 e7 60 66 be 57 da f9 3d a9 c5 c2 c2 49 06 1c c1
       -0.22497903 0.12199848 -97.386055 -9.751534
000250 9c ca 41 3f c4 a8 13 40 4e 86 87 ba 79 05 98 bf
       0.7569978 2.3071756 -0.0010339709 -1.187667
000260 18 03 86 bf 4a ad 8d 41 2f a4 a9 3e ed fb bc 40
       -1.0469694 17.709614 0.33133075 5.9057527
000270 be 0b e8 3c 9b a6 2e bf d1 82 9e 40 82 cc 30 42
       0.028325912 -0.6822297 4.953469 44.199715
000280 3d f7 10 3e c9 9d 5d c1 88 f7 03 b9 27 20 01 40
       0.14156814 -13.851022 -0.00012585346 2.0175874
000290 4a 59 db c0 1f 5e aa c1 27 11 14 bf d1 63 f9 40
       -6.8546495 -21.295958 -0.5783867 7.7934346
0002a0 7a 5b b4 3c 4d 06 2e c0 f2 f7 ef bc cb df c1 3f
       0.022016276 -2.7191346 -0.029293034 1.5146421
0002b0 2f 84 38 3f 2b 86 ac c1 b7 2f 78 be 2c 0e fc be
       0.72076696 -21.565512 -0.24236952 -0.49229562
0002c0 08 1e 85 3f ea c8 13 bf 19 b2 e0 3e a1 98 12 c2
       1.039979 -0.57728446 0.43885878 -36.64905
0002d0 87 55 fd 3b 3a cd ea 3f 20 8a 57 c0 2a 7c 49 c1
       0.007731143 1.834388 -3.3678055 -12.5928135
0002e0 2b 2f e7 3e f3 c2 00 41 1b 41 a5 3c 8e 1c c7 bf
       0.45153174 8.047595 0.020172646 -1.5555589
0002f0 fd 6a 04 c2 05 14 50 41 28 6a 80 3e 1e 89 80 be
       -33.10448 13.004888 0.2508099 -0.25104612
000300 32 88 bf 3c 60 85 07 40 52 47 d7 c0 f1 1c 17 c1
       0.023380373 2.1175156 -6.727456 -9.444566
000310 6d f4 e3 be 8a 1c cd c0 2f 1c e1 3b f4 b1 ce 3f
       -0.4452242 -6.409734 0.006869815 1.6148057
000320 57 c0 88 40 40 7f 81 40 fe d7 ac 3e 11 6c 8e c1
       4.273479 4.0467834 0.3375854 -17.802767
000330 7d 48 55 bd 08 49 8e be 3d 25 90 be fb 7f cb be
       -0.052071083 -0.27790093 -0.2815341 -0.3974608
000340 ac cb 28 be aa 4b d9 3d bd dc 2c 3b da 9c 6c 3f
       -0.16483945 0.10610135 0.0026376687 0.92426836
000350 3e ae ea bf d3 2c f7 41 ac 6c 80 be 93 e7 1d 41
       -1.8334424 30.896887 -0.2508291 9.869037
000360 08 cd 96 3b ce 86 39 c0 02 d5 27 c0 3d b0 1d c2
       0.0046020783 -2.8988528 -2.622376 -39.422108
000370 8c 71 ed 3e 05 2d 10 41 83 f1 b0 3c a5 4b db c1
       0.46375692 9.010991 0.021599537 -27.411936
000380 f1 3f 24 c1 99 6b 45 c2 75 00 a2 c1 8a 2e 61 41
       -10.265611 -49.355076 -20.250223 14.073862
000390 5b 7c a4 be 01 40 a0 bf e9 25 30 41 44 e1 84 c2
       -0.32126126 -1.2519532 11.009255 -66.43997
0003a0 63 7b 37 3f 93 b6 3c 41 a2 c7 f7 3d 86 96 5b bf
       0.7167265 11.794574 0.12098624 -0.85776556
0003b0 1a c7 19 c0 16 59 85 c1 fb 89 33 3e e0 14 e4 c0
       -2.4027772 -16.668499 0.17533104 -7.127548
0003c0 63 7b c6 3b a2 56 ae bf df c7 3a c0 8f e0 36 42
       0.0060571893 -1.3620188 -2.9184492 45.719296
0003d0 e8 1e 84 3e 1b 7b e4 40 39 94 88 be a4 ab 0a 3e
       0.2580483 7.1400275 -0.26675585 0.13542038
0003e0 d4 7b f8 bd fc 09 81 3e e8 1c 06 be 20 55 99 be
       -0.12132993 0.2520293 -0.13096964 -0.29947758
0003f0 0c 34 15 3c a7 b8 a7 c2 12 f9 78 41 9d 67 f8 c2
       0.009106647 -83.86065 15.560808 -124.20237

main.0.bias f4 [256]
000000 b3 2a 31 c2 49 6b 65 c2 b2 00 8e 43 ea 6b 06 be
       -44.2917 -57.35477 284.00543 -0.13127103
000010 c6 0d 15 be 5e 07 6b 43 f3 57 49 43 f1 35 66 c3
       -0.14556035 235.02878 201.34355 -230.21071
000020 22 fb 5b 43 91 cc 2b 42 ff ac 5c 43 5f 84 8b 43
       219.98099 42.94977 220.67577 279.03415
000030 61 48 74 c3 74 2d 4b c3 e0 24 b4 42 17 97 67 c3
       -244.28273 -203.17755 90.07202 -231.5902
000040 e3 a3 1e 43 d0 f7 20 3e 3e 33 c9 3e a4 34 aa 3d
       158.64018 0.15719533 0.39296907 0.08310822
000050 b1 a5 6c 43 b7 35 0c bf 3d 17 99 be 00 95 4f 43
       236.64723 -0.5476946 -0.29900542 207.58203
000060 9a f8 ce c2 a3 02 58 43 78 bd 29 c3 48 2c 54 43
       -103.48555 216.0103 -169.74011 212.17297
000070 5d 7b 1b 43 20 9d 3c bf a9 fa 5f 43 db b8 82 c2
       155.48189 -0.73677254 223.97914 -65.361046
000080 f1 bb 59 c3 ce b0 33 43 81 78 a3 3c 31 57 4e c3
       -217.73415 179.69064 0.019954922 -206.34059
000090 d5 be 4a 43 8f c2 a2 c2 cd 6c 23 c3 05 75 05 43
       202.74544 -81.38 -163.425 133.4571
0000a0 ef 09 17 c3 60 90 2f 3e 3b c1 00 43 08 a9 0b c3
       -151.0388 0.17144918 128.7548 -139.66028
0000b0 c4 e1 37 c3 1b bc 25 43 d4 bc b1 be 90 a3 f1 3b
       -183.8819 165.73479 -0.34714377 0.0073742345
0000c0 f1 28 b3 c2 56 ce 08 43 a1 61 48 c3 a6 6b 57 c1
       -89.57996 136.806 -200.38136 -13.463781
0000d0 7d ee bf c1 cd 94 c0 c2 0c 8d 45 be 9c dc 0f c3
       -23.99145 -96.29063 -0.19292086 -143.86176
0000e0 e0 79 cc 3d 14 d3 8b bf a3 67 ca 42 62 b7 7a be
       0.09984183 -1.0923791 101.202415 -0.24484017
0000f0 10 aa e2 c2 c4 be 5e 43 c0 ba 0d bf 55 82 65 43
       -113.33215 222.74518 -0.5536308 229.50911
000100 e6 a5 81 c3 3a 5b 0b c3 91 1f bc be 31 73 3a 43
       -259.29608 -139.35635 -0.36742833 186.44997
000110 a3 d8 8c bf f8 b9 79 c1 ee 78 e7 c2 5d 94 07 43
       -1.1003612 -15.607903 -115.73619 135.57954
000120 04 84 81 3d c8 7a 2f c1 e6 8c 43 c3 fc 46 61 43
       0.06324008 -10.967476 -195.55038 225.27728
000130 89 2e 12 c2 ad 29 26 c3 ff 45 7e 43 ea 4e 98 be
       -36.545444 -166.1628 254.27342 -0.29747707
000140 2f b1 65 43 71 19 01 42 66 77 62 43 4b 11 a9 be
       229.69212 32.274845 226.4664 -0.33021006
000150 33 e0 65 c3 d5 0a f9 c2 86 ba 2e c3 f6 b1 0b c3
       -229.87578 -124.52116 -174.7286 -139.69516
000160 bd 05 3c c3 c4 69 68 43 7b 40 0a 42 47 fb 02 c3
       -188.02242 232.41315 34.56297 -130.98155
000170 0a dc d8 c1 68 00 45 c3 8e d6 86 3e be ea 2e 43
       -27.10744 -197.00159 0.26335567 174.91696
000180 76 39 64 c1 7f 90 8c c2 5e 54 4f 43 e5 e6 17 43
       -14.264029 -70.28222 207.32956 151.90193
000190 d6 16 c9 be 26 4d 0d c2 5b 95 0d 41 38 c2 d6 3d
       -0.39275235 -35.32534 8.848964 0.10486263
0001a0 6e 4d e1 bb 7c a8 11 3e b9 b8 93 be f8 85 59 c3
       -0.0068756854 0.14224428 -0.2885187 -217.52332
0001b0 a6 55 59 43 b7 b5 b1 c2 4c a7 6e bc c3 28 05 c3
       217.33456 -88.85491 -0.014566254 -133.15923
0001c0 9d b5 02 c3 d7 ab b7 be 60 ed 62 bc 82 89 38 c3
       -130.70943 -0.3587329 -0.01385054 -184.53714
0001d0 24 70 5d 43 03 6b d3 40 4f a1 95 bd 22 9c 19 c3
       221.43805 6.606813 -0.07306158 -153.6099
0001e0 f0 17 7b 3e fe 99 61 42 44 e6 5f 3e b0 98 1f c0
       0.2452085 56.400383 0.21865183 -2.4936943
0001f0 00 50 79 ba 75 6f 22 43 fa aa 72 43 00 43 48 40
       -0.0009510517 162.43538 242.66788 3.1290894
000200 2d 31 b8 be b8 49 8a bc 08 ff 02 43 f4 bd 2d c3
       -0.35975018 -0.016880855 130.99622 -173.742
000210 c7 1d fe 42 e8 06 d7 bd 32 ef 63 c1 9f 17 24 c3
       127.05816 -0.10499364 -14.245897 -164.09227
000220 ec 0e 02 c3 31 ff 0a 43 a8 bd 66 42 e4 eb 48 40
       -130.05829 138.99684 57.68521 3.1393976
000230 04 98 55 43 b5 67 16 43 9b 36 2e c3 92 f7 37 43
       213.59381 150.4051 -174.2133 183.96707
000240 18 c6 aa c0 60 a8 33 bd 7b 50 89 43 78 2c 41 c1
       -5.3366814 -0.043861747 274.62875 -12.073357
000250 4c 1a 81 3d 9d 14 80 c2 1e d4 bc c2 00 ce 7c 3a
       0.06303844 -64.04026 -94.41429 0.00096437335
000260 6d 50 01 42 28 48 0e 3e 12 08 19 41 a7 4b 30 c3
       32.32854 0.13894713 9.56447 -176.29552
000270 1c 1d 92 3e 36 c3 c7 3e 02 28 db 40 f8 7f 6a c2
       0.28537834 0.39016122 6.848634 -58.62497
000280 f0 17 4f 3d ff d6 33 43 85 98 62 43 ea ba 6a 43
       0.050559938 179.83983 226.59578 234.73013
000290 7a 64 75 3c 44 a9 13 c3 e8 b9 58 43 12 5e 4a be
       0.014977569 -147.6612 216.7262 -0.19762447
0002a0 60 2d 45 3e 2b 26 56 43 d5 4f 1d 3f 75 21 68 43
       0.1925559 214.1491 0.6144994 232.13069
0002b0 2a 65 79 42 62 63 57 43 7c 3c 52 bf 32 db 06 c3
       62.348793 215.38821 -0.8212354 -134.85623
0002c0 44 eb e0 41 04 58 4a 43 c2 86 40 c3 64 e3 8d be
       28.114876 202.34381 -192.5264 -0.27712548
0002d0 e0 18 a6 3d f2 3a 52 43 7a 5d 86 3e 92 83 02 c3
       0.08110213 210.23026 0.26243192 -130.51395
0002e0 c0 91 ea 3c 20 1f 7a 3e 59 7d bf be ad 43 e8 c2
       0.028633952 0.24425936 -0.3740032 -116.13218
0002f0 66 bf 49 c3 b1 a0 1b c3 dc ea 87 c1 ac c1 8e be
       -201.74765 -155.6277 -16.989677 -0.27882135
000300 2a 58 62 43 f2 80 bd c2 8c 09 42 be 16 32 59 43
       226.34439 -94.75185 -0.18948954 217.19565
000310 78 cc 3d c2 34 a8 e4 bd f0 53 4e 43 ac ff a1 3d
       -47.449677 -0.11164895 206.32788 0.07910094
000320 e0 d8 c3 3d ac 26 59 43 3e 88 36 c3 b3 41 00 42
       0.0956285 217.15106 -182.5322 32.06416
000330 7f 32 73 43 1b c6 62 43 98 53 1e be bc fe 1b 43
       243.19725 226.77385 -0.15461576 155.99506
000340 b0 1e 98 3e 19 36 1e c1 97 45 27 43 06 d5 ac 42
       0.29710913 -9.888207 167.27184 86.41606
000350 78 f3 3d c2 b0 f5 45 c3 47 50 dc c2 36 fd 24 43
       -47.487762 -197.95972 -110.15679 164.9891
000360 ee 81 30 be d9 11 1a c3 0a 03 5f c2 9d 6c 02 43
       -0.17237064 -154.06972 -55.752968 130.42427
000370 fa 81 b6 3e 32 1f 2e c3 e3 b2 6d 43 91 02 42 c3
       0.3564604 -174.12186 237.69878 -194.01003
000380 4d 72 86 43 65 4e 26 c3 bd 1f cf be 18 77 96 bd
       268.89297 -166.30623 -0.40453902 -0.07346934
000390 d1 80 ca c2 f7 67 5e 43 ef ca bb c2 f8 c0 93 3e
       -101.251595 222.40611 -93.896355 0.2885816
0003a0 88 c6 81 43 ac 0c 68 3e a8 6e 2d 3e a2 a4 81 be
       259.55103 0.22661084 0.16936743 -0.25320917
0003b0 f6 33 0c 3e f0 a2 8a 3c 01 f6 56 3f b0 4e bc 3c
       0.13691697 0.016923398 0.8396912 0.02298674
0003c0 10 d3 0f bd a4 94 53 c3 58 58 4a c3 d5 7c 28 43
       -0.035113394 -211.58063 -202.3451 168.48763
0003d0 8d 31 d7 c2 1d 71 7e c2 a7 ea c8 be c3 62 1e c0
       -107.59678 -63.610462 -0.39241526 -2.474778
0003e0 e0 b1 f2 3c 73 c0 b5 c0 ef ab 66 43 a7 47 29 c3
       0.029625833 -5.6797423 230.67162 -169.27989
0003f0 7f d1 37 c3 c0 08 43 c3 76 7b 3e c2 0c de 3e c3
       -183.81834 -195.03418 -47.620567 -190.86737

main.2.weight f4 [256, 256]
000000 a5 a4 81 bd 56 5f 45 3d f8 b2 3c bc bc 20 fd bc
       -0.063302316 0.048186623 -0.011517279 -0.030899398
000010 e8 9f af bc a0 76 60 bd fd d5 2b 3d 01 b7 a6 bc
       -0.021438554 -0.05480063 0.041952122 -0.020350935
000020 d4 ee 0f bd ae 1c 5e bd ed 2c f3 3c e4 3d 7c bc
       -0.035139874 -0.05422657 0.029684508 -0.015395615
000030 08 f9 4d bc 87 22 bd bc ed 2c 14 bd e0 28 36 3c
       -0.012571581 -0.023087753 -0.036175657 0.011118144
000040 44 5c 2c 3d 5e 5f 14 bd 20 40 44 3b 00 b1 42 bd
       0.04208018 -0.03622376 0.0029945448 -0.04753208
000050 48 13 f0 bc ed 0a 44 3d 80 c9 2b 3a e2 b2 5a 3d
       -0.029306069 0.047861982 0.0006553158 0.053393252
000060 14 59 92 bc 85 84 27 bd aa d0 34 bd 84 e5 62 3d
       -0.017864741 -0.040897865 -0.04414431 0.055394664
000070 34 ba 60 bd 0e 19 d2 3c ea ca 0e 3c b0 cb 4b 3c
       -0.054865077 0.025646713 0.008715371 0.0124387
000080 c4 46 ea 3c d4 e4 bd bc 4a 67 1e 3d 58 a2 66 bd
       0.028598197 -0.023180403 0.038672723 -0.056307167
000090 8c 24 b4 bc bd 81 1e 3d 4a ed 38 3c 60 5e 08 bc
       -0.021990083 0.038697947 0.011287043 -0.008323282
0000a0 ca c3 a8 bc 3c 51 1c bd e7 51 fe 3c f9 c7 0f bc
       -0.020601172 -0.03816341 0.031044913 -0.008775705
0000b0 c2 69 0c bc 25 e7 02 3c 2e ea 3c 3d 60 9b 02 bd
       -0.0085701365 0.007989679 0.04612177 -0.03188646
0000c0 dc 54 b0 bc 3a 79 2d 3d ee 94 10 3d 87 81 1a bd
       -0.02152484 0.04235194 0.03529828 -0.037721183
0000d0 8c ff 8d bd b9 38 99 3b fe a0 06 3d 93 2b 06 3c
       -0.06933507 0.0046759513 0.032868378 0.0081891
0000e0 a0 95 35 3d aa 1c 68 bd 1e 80 c7 3c 60 26 1f bd
       0.044332147 -0.05666796 0.024353083 -0.038854957
0000f0 8e 84 e2 3c 82 66 22 3d 5a ec 61 3c 58 db 33 3d
       0.027651098 0.03964854 0.013789261 0.043910354
000100 3b e3 44 bd 01 30 81 bd 34 25 76 bd 90 b9 20 3d
       -0.048068266 -0.06307984 -0.060094073 0.039239466
000110 1d 0b 74 3c d6 75 3b bd 32 7b bf 3c 46 9e 4c 3d
       0.014895228 -0.045766674 0.023374174 0.04995563
000120 fa 6f 7c bd 32 b5 39 3d 22 cf 3a 3b da f0 cf ba
       -0.061630227 0.045338817 0.0028504808 -0.0015864626
000130 8d 85 47 3d c2 d4 67 3d 78 67 a0 3c 48 46 4a 3d
       0.04871135 0.056599386 0.019580588 0.04938343
000140 28 01 d5 3c fa 2f 63 3b 0a d7 7c bd 1e be b9 3b
       0.026001528 0.0034666047 -0.061728515 0.0056684157
000150 19 84 50 bd a4 a0 9d 3c 7b 8f 9e 3b 5c 8a b4 bb
       -0.05090723 0.019241638 0.0048388815 -0.005509658
000160 e8 a1 47 bd be 2f 1b bd b8 3c 20 3d bb 55 c4 3c
       -0.04873839 -0.037887327 0.039120406 0.02396666
000170 8b 87 d4 3c 2d 96 cf bc 38 54 30 bc 1b d3 be bc
       0.025943538 -0.025340164 -0.010762267 -0.023294022
000180 60 7c 13 3d 30 06 dd bc d2 3e 21 3d 44 d6 12 3d
       0.036007285 -0.02698049 0.03936655 0.03584887
000190 58 20 6a bd c5 de e5 bb a2 a6 a2 bc c4 85 0d bd
       -0.05715975 -0.0070150816 -0.019854847 -0.034551397
0001a0 14 0a dd 3c 60 d2 f8 bb 4e 21 60 3d f0 b2 3b bd
       0.026982345 -0.007593438 0.05471926 -0.045824945
0001b0 da 46 b5 3c 2f 2d 75 bd 9d 59 21 bd 48 a1 f6 ba
       0.022128511 -0.059857544 -0.039392103 -0.0018816376
0001c0 00 a8 2f 3d 12 d7 06 3d a8 32 52 bd 8b d2 1b 39
       0.042884827 0.03291995 -0.05131784 0.00014860385
0001d0 2b 92 32 bd 31 a3 af bb 6c 0f 75 bd 3e 9a ca bc
       -0.043596428 -0.00536003 -0.05982916 -0.024731752
0001e0 f2 94 2f 3d 3f 5c 83 bd 82 13 74 bd 0d 9b 97 3b
       0.042866655 -0.06414079 -0.059588917 0.004626638
0001f0 d8 5f 0c 3c 22 86 95 bc d4 8a 5f 3d 7d f0 3b bd
       0.008567773 -0.018252436 0.054575756 -0.045883644
000200 9c 69 1b bd 6c 34 5b bd e8 96 3e bc ae dc b3 bc
       -0.037942514 -0.05351679 -0.011632659 -0.021955814
000210 32 66 1e 3d 80 fc 65 bb 92 76 54 3c aa d1 07 bd
       0.03867168 -0.0035093129 0.0129677225 -0.033158936
000220 64 f5 33 3d fc 0c 39 3d 02 44 65 bd 85 0a c1 bc
       0.043935195 0.0451784 -0.05597306 -0.023564586
000230 20 37 59 bd 4d a4 a1 3c 91 ff 7e bd d2 c1 14 bd
       -0.053031087 0.019731665 -0.062255446 -0.036317654
000240 ae e5 5f 3d 96 75 74 bd 5b 41 21 3d 90 4d cd ba
       0.0546624 -0.05968245 0.03936897 -0.0015663374
000250 dc b4 4c 3d 5c f3 1b bd 7f ce 0c 3d 50 19 f7 3b
       0.04997717 -0.038073882 0.034376618 0.0075408593
000260 43 bc dd ba 6e ba 2e 3d c4 00 86 bd 87 1a 67 bd
       -0.0016917068 0.042658262 -0.06543115 -0.056421783
000270 46 3c 77 3d 24 ba 19 bd 99 3d 56 bd c5 12 21 bc
       0.060360216 -0.037531033 -0.052304838 -0.009831135
000280 78 e4 a3 bc 62 f6 7a bc 2c 84 2b bd 4d 7c 81 3c
       -0.020006403 -0.015317531 -0.041874096 0.015806342
000290 da 11 7a bd b9 45 ef ba a3 00 f2 3c 50 bf 44 3c
       -0.06105218 -0.0018255032 0.02954132 0.012008503
0002a0 08 0f 08 3c e9 a2 16 3b 83 76 d8 bc be ed 98 bc
       0.008304365 0.0022985286 -0.026423698 -0.018668052
0002b0 be 46 09 bd a2 88 45 bd a2 23 20 bd a9 60 61 3d
       -0.03351473 -0.048226006 -0.039096482 0.055023823
0002c0 80 5f 2b bc 89 27 82 3c 03 cf 15 3d 40 fc 9f bb
       -0.010459781 0.015887992 0.036574375 -0.0048823655
0002d0 ac b8 09 bd d4 f5 48 bd 5c 9f bc bc 60 c0 b6 3c
       -0.033623382 -0.049062565 -0.023025207 0.022308528
0002e0 b4 97 57 bd e0 0d fa bb 08 c2 c2 3c 58 b8 34 3d
       -0.05263491 -0.0076310486 0.023774162 0.044121116
0002f0 b8 f1 4a 3c d8 3c d0 3b 8e 57 14 3d c8 96 ec 3c
       0.012386732 0.0063549094 0.03621631 0.028880492
000300 c9 9b 6a 3c 5a 51 d9 bc 3e 49 4d bd 23 f6 a6 bc
       0.014319369 -0.02652805 -0.050118677 -0.020381039
000310 48 69 93 bc 40 66 96 3b 49 cf 60 bc e8 fe ce 3c
       -0.017994538 0.004589826 -0.013721296 0.025268033
000320 f4 1f 2a 3d 3a ab 03 bd a4 57 87 bd d9 d7 1e bd
       0.04153438 -0.032145716 -0.06608513 -0.038780067
000330 d3 bb 15 bd 78 90 ea 3c 94 21 25 bd 00 a1 c0 bb
       -0.036556076 0.028633341 -0.040315226 -0.0058785677
000340 90 06 59 bc 53 4e 38 bd 8c 0b b0 3c 98 3c 03 bd
       -0.0132461935 -0.04499657 0.021489881 -0.03204021
000350 19 b9 26 bc ee 7a 4e bd 56 89 69 bc fe dd 0b 3b
       -0.010175967 -0.050410204 -0.014253935 0.0021342034
000360 80 ad 26 bb 09 9a f7 bc 63 97 3f 3c e3 da b5 bc
       -0.0025433004 -0.030224817 0.011693808 -0.0221991
000370 16 ed 0d bd 62 c8 3c bd ac 9b a3 bc 8a 70 86 bd
       -0.03464993 -0.046089537 -0.019971691 -0.06564434
000380 30 7c 54 3d e1 7f 16 bd a0 2e d4 bc b0 50 bd 3b
       0.051876247 -0.03674305 -0.025901139 0.005777441
000390 ad 8c 20 3c 20 21 50 bc 08 ea 13 3d 30 3c 15 bd
       0.009799165 -0.01270321 0.03611186 -0.036434352
0003a0 89 ba 81 3c 00 ce 13 b9 a4 3f 50 bd 84 4b c6 bc
       0.015836017 -0.00014095753 -0.050841942 -0.02420593
0003b0 23 35 10 3c 78 a0 43 3c 9a 4a 19 3d 20 43 2b 3d
       0.008801731 0.011940114 0.03742466 0.041812062
0003c0 d4 a0 0b bd 3f 88 08 bd 56 be a3 bc 34 3f 52 bd
       -0.034088925 -0.03333306 -0.01998822 -0.051329806
0003d0 3c 57 c4 bc f4 7c 51 bd 34 bc c2 3c 84 0c 18 3d
       -0.023967378 -0.051144555 0.023771383 0.03712131
0003e0 40 27 a2 3b 6e a5 57 bd ab 4c 5d bd aa 84 f8 bc
       0.0049485266 -0.052648 -0.054028194 -0.030336697
0003f0 50 7e 3a 3c cc cc aa bb 66 4f 98 3b ad 4b 56 3d
       0.011382654 -0.005212402 0.004648137 0.052318264

main.2.bias f4 [256]
000000 f6 bb 63 bd 3f 78 c0 bc cc 91 63 bd 6f 4c a1 3b
       -0.055599175 -0.023494838 -0.055558965 0.0049224417
000010 4c 1f 17 c3 1b e6 2f bb f4 a0 43 3c a5 aa 91 3c
       -151.12225 -0.0026840034 0.01194023 0.017781565
000020 e1 7e 1b 43 c1 2f b4 bd 75 15 31 3b 13 d6 4d 43
       155.49562 -0.08798171 0.0027020846 205.83623
000030 c5 19 4a 43 3d 6f 8d bc 94 ac ae 3b a3 75 53 bd
       202.10066 -0.017264957 0.0053306315 -0.05162586
000040 04 9d 18 3d 88 8a 04 ba 36 d1 b2 bc 62 82 20 c3
       0.037259117 -0.0005056043 -0.021828275 -160.50931
000050 4c 62 b3 3f e7 14 e0 42 5d 08 7a bd b2 c6 ad bd
       1.4014373 112.040825 -0.061043132 -0.08485164
000060 6e 76 f0 bc 55 59 e5 42 09 59 e8 c1 48 bb 2b 42
       -0.029353347 114.67448 -29.043474 42.93289
000070 ed 51 c5 3c 34 9c a7 bd 52 68 0a 43 de e2 98 bd
       0.024086917 -0.0818409 138.4075 -0.074651465
000080 a8 48 9a bd ec e6 8f bc 72 10 98 3c e5 72 05 3d
       -0.07533389 -0.017566167 0.01856253 0.032580275
000090 18 15 19 bd 08 87 2e bd 8d 78 51 43 90 b2 1a bd
       -0.037373632 -0.042609245 209.4709 -0.037767947
0000a0 4b c6 9f bd 2f a6 83 bc 63 7f 13 bc 6d a8 0b bd
       -0.07801493 -0.016070453 -0.009002539 -0.03409617
0000b0 82 15 5d bd 09 19 c1 42 81 77 6b bb 15 80 38 bd
       -0.05397559 96.5489 -0.0035929384 -0.045044024
0000c0 ac af 8e bd d8 b9 67 c2 8d a9 97 3b f1 c7 2a bb
       -0.069671005 -57.931488 0.0046283663 -0.0026059116
0000d0 94 4f ba bc 0d 9e 78 bd b3 e7 4e bd 45 d8 2d 43
       -0.022743024 -0.060697604 -0.050513934 173.8448
0000e0 6f 0a 0b bd fa a7 84 ba 77 cb 83 bd 02 b1 5c bd
       -0.033945497 -0.0010120862 -0.06435292 -0.053879745
0000f0 a6 e6 aa bd f1 61 fe bb e4 db 3d 43 6e 7a ac bd
       -0.08344774 -0.0077631404 189.85895 -0.08421789
000100 ba 40 32 bd 5e 10 6d 3d 40 08 2e 3d a0 b3 75 bd
       -0.04351876 0.057876937 0.042488337 -0.059985757
000110 34 4e 2d bd 92 c9 41 bd e9 db 8b 38 6c 59 47 bd
       -0.04231091 -0.047311373 6.668998e-05 -0.048669264
000120 7b d2 2e 3e 30 9a 16 c3 5e e9 d3 c1 0c c9 da 3c
       0.1707248 -150.6023 -26.488949 0.026707195
000130 12 8b 0c bd 66 51 3e 43 8c d8 81 bc d4 7f 8c 3c
       -0.034312315 190.31796 -0.015850328 0.017150797
000140 8e 38 23 c0 2e 06 8d c2 0a 42 c6 41 f0 83 3b 3d
       -2.5503268 -70.51207 24.782246 0.045780122
000150 57 b3 87 3b e3 02 13 3b b9 5c ae bd c6 30 49 41
       0.004141252 0.002243214 -0.08513779 12.574408
000160 c5 9e bf bd 2f e5 fb c2 44 a6 cf c2 d6 0d 63 3c
       -0.09356455 -125.947624 -103.82474 0.013858279
000170 38 cc 32 43 cd 2b 84 b8 47 f8 f9 bc f4 51 b1 bd
       178.79773 -6.302409e-05 -0.030513896 -0.086582094
000180 00 3d 58 bd 5b 68 b2 3d 66 2c 2b bd fb f5 52 c3
       -0.05279255 0.087113105 -0.04179039 -210.96086
000190 b9 e4 49 bd 5b 59 30 bd 16 ad 73 3b 48 6c 12 bc
       -0.049290393 -0.043053966 0.0037182025 -0.008936949
0001a0 01 d0 49 43 9c f9 02 3d 6b 57 9f bd bb 35 5d 43
       201.81252 0.031976327 -0.077803455 221.20988
0001b0 a2 a3 f5 c1 50 4c 5f c3 a2 a8 5d bb b2 85 41 c1
       -30.704899 -223.2981 -0.0033822437 -12.09514
0001c0 6d a2 45 42 54 11 bf bd bb 74 d0 c2 07 7d 8e 3f
       49.40862 -0.09329477 -104.22799 1.1131905
0001d0 2d 92 48 bd 4d e7 73 bd fe 77 22 bb 0c c9 c3 bd
       -0.04896753 -0.059546757 -0.002479076 -0.09559831
0001e0 2d d6 98 bd 06 2b e5 42 ab 8d 29 c3 79 b8 80 41
       -0.07462726 114.58403 -169.55339 16.090075
0001f0 34 df a8 3f f2 3c dd 3a 3f ca 7f bd 5b a8 55 3f
       1.3193116 0.0016879125 -0.062448736 0.83460015
000200 04 17 1e 43 15 8a 53 3c c3 2c 5a 3f c1 4e bf 3f
       158.0899 0.012911339 0.8522455 1.4945909
000210 5f ba 36 c3 3c 38 1f c3 5b 93 e3 c0 71 18 47 42
       -182.72801 -159.21967 -7.1117377 49.77387
000220 a0 29 a7 3b 6e 2d 0d 3d a2 65 04 bd 66 45 44 c3
       0.0051013976 0.034467153 -0.032323487 -196.27109
000230 c9 d4 8f 40 ff e8 6a c3 91 1a ca 41 ff ff 57 43
       4.4947248 -234.91014 25.262972 215.99998
000240 42 c0 b5 bc b1 da 14 c3 b5 9a b3 3b 0a f6 a8 bd
       -0.022186402 -148.85426 0.005481089 -0.08250053
000250 1c a7 23 43 eb eb 88 42 5d 4c e9 c2 ac 7a a0 3c
       163.65277 68.46078 -116.64915 0.019589745
000260 ce 3c 4a 43 33 cc 3d 42 5f ef f9 c2 43 16 48 c3
       202.23752 47.449413 -124.96752 -200.08696
000270 cd 2c 2b 41 3d f3 6f bd 0b f8 99 41 a0 9e 61 43
       10.698438 -0.05858158 19.246115 225.61963
000280 05 7e 0e 40 86 77 b0 bd 98 f5 fb 3c 2d b2 61 bd
       2.2264416 -0.08616547 0.030756757 -0.055101562
000290 24 25 bd bd cc 81 ac bd 78 7b 23 3d b2 a1 54 bd
       -0.092356 -0.08423194 0.03991267 -0.051912017
0002a0 de fc bc bd d6 e4 74 3e f4 8d 29 40 b6 cf 45 3d
       -0.09227918 0.23915419 2.6492891 0.04829379
0002b0 f9 3f 98 bd 5b 60 8e 42 fb 26 4e 43 36 21 a8 3c
       -0.07434077 71.188194 206.15227 0.020523649
0002c0 41 53 16 bd 89 8c 8b bd 05 09 4b 3d 0c 35 ee bc
       -0.03670049 -0.06813914 0.04956915 -0.02907803
0002d0 24 12 ec 3c d6 01 4a 43 82 10 0f 42 79 fb aa 3d
       0.028817244 202.00717 35.76612 0.08348746
0002e0 1a d2 eb bc 05 c2 79 3c ae f1 52 43 a1 16 c7 bb
       -0.028786708 0.015244012 210.94406 -0.0060756956
0002f0 43 78 43 43 40 fe b2 bc 0f 7f 90 3c a9 b8 31 c3
       195.46977 -0.021849751 0.017638711 -177.72133
000300 af 7d 50 3c 19 d7 27 bd d5 5a 27 3d b4 99 5f 43
       0.012725278 -0.040976617 0.04085811 223.6004
000310 58 88 be bc 40 5c 2f bb 3a 83 dd bc 1b 64 19 3c
       -0.023258373 -0.0026757866 -0.027040113 0.009362246
000320 b4 af 6c bd 87 20 4c 43 8b ee 56 3f 0d 23 88 3f
       -0.05778475 204.12706 0.8395774 1.0635697
000330 0c 50 b6 c2 be 55 a9 bd 42 22 84 bc ae 2d 83 bc
       -91.15634 -0.08268307 -0.016129617 -0.016012993
000340 b4 1f 32 bc c4 16 aa 42 97 e4 83 bd 2b 4c 65 c2
       -0.010871816 85.044464 -0.064400844 -57.324383
000350 a8 8f 5c bd 25 54 a1 bd 9a 8d 44 c3 61 c2 44 3c
       -0.05384794 -0.078773774 -196.55313 0.012009234
000360 75 97 3c 43 36 4c be c2 3e 10 78 bd 3d 66 81 3b
       188.59163 -95.14885 -0.060562365 0.0039489553
000370 e2 be 3f 3c de c3 3d bd 70 73 45 bc 97 d8 7a bd
       0.011703225 -0.04632937 -0.012051448 -0.061241712
000380 d4 28 57 43 2f c1 b5 3b c3 f0 23 c2 96 18 69 43
       215.15948 0.005546711 -40.98512 233.09604
000390 be 2a f1 bc 4b 86 93 c1 69 38 4d c3 56 64 30 bc
       -0.029439326 -18.440573 -205.22035 -0.010766109
0003a0 92 3d 0c 43 af 97 ad bc e7 46 80 bd 09 97 a8 bd
       140.24051 -0.021190492 -0.062635235 -0.08231933
0003b0 87 24 c6 bc de 92 01 bd 3c 21 56 43 a5 e3 fe bc
       -0.02418734 -0.031634204 214.12982 -0.031114409
0003c0 4d 7b 6c 43 25 e1 3e 3d f3 c2 16 c3 f1 94 0c bc
       236.48164 0.046601433 -150.76152 -0.008580432
0003d0 97 80 bc bb 8c 03 b3 bd 5c 44 4f bc 8e c0 73 3a
       -0.005752634 -0.08740911 -0.0126505755 0.0009298407
0003e0 40 11 f5 bc ba 7d af bd 14 28 65 3d a3 48 8c 3f
       -0.029915452 -0.08568902 0.055946425 1.0959667
0003f0 66 64 20 c3 9e 51 d9 bd eb 4d 1b bd bf d8 15 43
       -160.39218 -0.1061127 -0.037916105 149.84666

main.4.weight f4 [256, 256]
000000 c2 67 92 bc ed 0c 16 3c 6f 27 11 bc e1 91 05 bd
       -0.017871741 0.009158355 -0.008859499 -0.032609824
000010 b9 c9 49 3e 0f af c2 3c d4 cb 32 3d 90 26 87 3d
       0.19705857 0.023765115 0.043651417 0.06599152
000020 25 6b dc 3e 0f 20 a5 bd 96 7e f8 3c 77 f8 8e 3f
       0.43050495 -0.08062755 0.030333798 1.1169575
000030 3d ad 70 3f a2 86 c1 bd 41 e1 83 3b 91 cf a5 bd
       0.9401434 -0.09449507 0.004024655 -0.08096231
000040 c0 ed ef 3b dd 5e 4e bc 88 0d 4b bd 49 df b0 40
       0.007322043 -0.012595859 -0.04957345 5.5272565
000050 9e fd ae 3d 45 66 86 3e aa b5 e0 3d 30 df 92 bd
       0.085444674 0.262499 0.1097215 -0.07171476
000060 ed b2 c1 bc fd c0 96 3e 4b b0 12 3e bb 3f d8 bd
       -0.023644889 0.29444113 0.14325063 -0.105590306
000070 55 ca 55 bd 69 e9 26 bb b6 0d af 3f 17 50 ed bc
       -0.052194912 -0.0025468713 1.3676059 -0.028968854
000080 8d f2 55 bd fb 0d 26 bd 72 eb 41 3a 55 ce c2 bc
       -0.052233268 -0.040540677 0.000739745 -0.023780027
000090 b5 2f 9f bc c9 9f 6e bc bb 23 d0 3e f1 1f d5 3c
       -0.019431928 -0.014564463 0.4065226 0.026016207
0000a0 8b 2f 87 3c 16 3c 12 bd 97 60 9b bc 1c 4e 22 3d
       0.016502162 -0.035701834 -0.018966956 0.039625272
0000b0 5c 6c 1f bd f0 89 3c 3f 11 6d 9a bd 8b c8 fb 3c
       -0.0389217 0.73647976 -0.07540334 0.030735275
0000c0 15 39 23 3d 2b d8 e6 3e 33 af 86 3d 9b c7 83 3c
       0.03984936 0.45086798 0.06576385 0.01608639
0000d0 9f 42 6a 3d c4 12 38 3c d8 75 1e bd 4d d2 35 3f
       0.05719244 0.011234943 -0.038686603 0.7102402
0000e0 21 b7 eb 3c 4b b9 d5 3c 48 37 ab bc aa eb aa 3c
       0.028773846 0.026089331 -0.020900384 0.020864327
0000f0 78 06 c3 bc c2 60 9f 3c ca 10 84 3e 8a 97 a4 bc
       -0.023806795 0.019455317 0.2579406 -0.02009179
000100 33 77 08 3d 8e 19 93 bc ba e1 57 bd 02 ad 38 bd
       0.033316802 -0.017956521 -0.052705504 -0.045086868
000110 24 8f 16 bd 38 54 6f bc ff 25 fc 3c 5c e8 2f 3c
       -0.036757603 -0.014607482 0.030779837 0.010736551
000120 c0 b5 3b bd 1c 2a 79 3f 3c 54 1b 3f e9 9e 80 bd
       -0.045827627 0.9732988 0.60675406 -0.0628031
000130 0b 67 b9 bd 99 c6 41 be f1 4a c5 3d d0 ad e0 3c
       -0.09052857 -0.18923415 0.096334346 0.02742663
000140 77 2f 3a 3e 85 6f cb 3e 06 31 7a be a8 77 73 3c
       0.18182169 0.3973352 -0.24432763 0.014860071
000150 e9 e9 8c 3c 52 9a e9 bc 72 ec cd 3c f6 9f 18 3f
       0.01720138 -0.028515968 0.02513716 0.5961908
000160 8a 95 07 bc ab 79 f1 3e 3a 80 11 3f eb 31 27 bd
       -0.008275399 0.47163138 0.56836283 -0.04081909
000170 28 36 e4 3e 6d 32 b0 3c c0 3c 98 bd 60 5b 82 3b
       0.44572568 0.02150842 -0.07433462 0.003978178
000180 d8 c6 3d 3d 9f 4e 2d bd 90 d6 56 3c d0 71 9d 3e
       0.04633221 -0.042311307 0.013112679 0.30750895
000190 6e 08 e1 ba fd 1b 92 3d 0a f3 b2 3d a7 39 85 bb
       -0.001716865 0.071342446 0.08737762 -0.0040657106
0001a0 c1 b7 81 3f 32 5f 10 bd 93 b4 5f 3d 02 63 f1 3e
       1.0134202 -0.035247035 0.05461557 0.4714585
0001b0 79 ea 9c 3e 64 d7 2b 3f dc 91 ca bc 96 a3 53 3f
       0.30647638 0.67125535 -0.024727754 0.8267149
0001c0 16 20 49 3f c0 c2 ba bb 28 82 7b 3f 9c 8f 1c 3d
       0.78564584 -0.0056994855 0.9824548 0.038222894
0001d0 e1 93 3a 3d f3 bd 02 3c 0c d8 a7 bd a3 00 a9 bd
       0.045551185 0.007979858 -0.081955045 -0.082520746
0001e0 a8 43 0e bc 69 3d 8d 3e 3d f8 f1 3e 09 20 8f 40
       -0.008683123 0.27585915 0.47259703 4.4726605
0001f0 f0 a6 d8 bb 81 87 aa 3d 2d d2 85 bd 56 3b db 3d
       -0.0066116974 0.083266266 -0.065342285 0.10704677
000200 14 db c4 3d 6b da 83 bc c2 87 6a bd 7b cd 04 bd
       0.09612098 -0.01609536 -0.057258375 -0.032422524
000210 21 d3 20 3f f9 d9 30 3e ff 78 f3 be c1 7f b5 3e
       0.6282216 0.1727065 -0.4755325 0.3544903
000220 ba 8e 17 bd 19 7f a6 bd ef 38 9e 3c 27 c3 7e bf
       -0.03700135 -0.08129711 0.019314257 -0.9951653
000230 48 e9 8d bd 98 b7 0f bf 3f b0 36 bf e0 ca 47 3f
       -0.069292605 -0.56139517 -0.7136268 0.7804394
000240 9a aa de 3c 5a df 29 3e 14 6e b6 3d eb cc 21 3c
       0.027180959 0.16589108 0.089077145 0.009875516
000250 8e c9 5d be 4f 57 5f be 25 29 f2 3f 99 56 9d bd
       -0.21658918 -0.2181065 1.8918806 -0.07682533
000260 0a 38 14 bf 38 98 9e 3f a8 c7 8e 3f 66 59 8d 3e
       -0.5789801 1.2390203 1.115468 0.27607268
000270 12 bc 2b 3f c4 e5 02 3d d4 2c 93 3e 05 8a 95 3e
       0.6708385 0.031957403 0.2874514 0.29206863
000280 43 a1 55 3c d7 f6 a9 bd 69 20 45 bd d5 d9 e4 3c
       0.013038936 -0.08299034 -0.04812661 0.027935902
000290 f7 12 8c bc 49 d2 11 bd fc 43 b8 3c bc f2 54 3c
       -0.017098887 -0.035600934 0.022493355 0.0129973255
0002a0 a9 cf 04 bc 37 2a 26 3d a1 f2 a7 bd ba 52 3b bd
       -0.008106151 0.040567603 -0.08200575 -0.04573319
0002b0 76 71 8e 3d bc 28 10 3e f3 c0 2b 3f 0a f6 51 bd
       0.06955235 0.14078039 0.6709129 -0.05126003
0002c0 09 c8 c4 bc fa e1 0f 3c ef 7b 91 bd 28 0e e3 3c
       -0.024021165 0.008781904 -0.071037166 0.027716711
0002d0 5e 33 68 3d 6a 76 23 3f d7 0f da 3f ae c2 2d bd
       0.056689613 0.6385256 1.7036084 -0.04242199
0002e0 da 6c 27 3d f2 3f 2c bd 94 ed 6d 3f f1 46 74 3d
       0.040875293 -0.04205317 0.9294064 0.059637967
0002f0 7e 87 90 3f 36 48 a9 bc 9e b1 22 3a 8d 61 35 bf
       1.1291349 -0.020664316 0.00062062766 -0.70851976
000300 bb 41 bc 3c fe 06 02 bd 83 be 27 3d 65 64 b1 bd
       0.022980561 -0.03174495 0.04095317 -0.08661727
000310 d7 4e 17 3d 80 01 88 ba 10 b6 11 bc 32 52 92 bb
       0.036940422 -0.0010376424 -0.008893505 -0.004465365
000320 be 21 bf bc 27 3b b2 3e 09 88 10 bc 2a be 63 3d
       -0.02333152 0.34810755 -0.008821496 0.055601276
000330 47 6c 4e 3f 9e a0 4c bc a6 54 96 ba b3 2d 14 bc
       0.8063397 -0.012489466 -0.0011469319 -0.009044099
000340 d2 a9 0e 3d bc eb a0 3e 35 a0 bf 3d fe e3 34 3f
       0.034829922 0.3142985 0.09356729 0.7066039
000350 44 24 49 3c 8f 35 6b 3d f4 df 0d bf 99 51 e6 3c
       0.012276713 0.057424124 -0.5541985 0.02811508
000360 77 81 10 3d 1e 0a 79 3d 9f 17 b7 bd 8e 20 84 bd
       0.035279717 0.060800664 -0.08940052 -0.06451522
000370 aa df 66 3d 5e 0e 4a 3d 96 35 32 bd f9 1f 65 bd
       0.056365646 0.049330108 -0.043508135 -0.055938695
000380 d7 f5 2d 3f 1e 01 9f bd d2 25 03 3e 0d a9 cc 3e
       0.67953247 -0.07763885 0.12807396 0.39972726
000390 5f b5 fb 3c 65 46 37 3e d9 a5 50 3e 9b af af bc
       0.030726133 0.17897947 0.20375766 -0.02144604
0003a0 30 69 0e 3f 68 bf c1 bc 40 1e 61 3d 47 27 46 bc
       0.55629253 -0.02365084 0.05496049 -0.012094325
0003b0 5c d3 30 3c 9a 00 f9 bb ba 64 13 bf 6a 00 85 bd
       0.0107925795 -0.0075989487 -0.5757557 -0.064942196
0003c0 c2 ed 68 3f 65 23 53 3d 07 b7 99 bf e3 b5 ce 3c
       0.9098779 0.051547427 -1.200898 0.025233215
0003d0 08 f8 c0 bd 09 07 9a bc 46 67 f6 bc ec 01 2e 3d
       -0.09422308 -0.018802183 -0.030078541 0.0424823
0003e0 47 24 b5 3b ef ca 1d bd d7 b9 3d bd 27 10 b9 3c
       0.0055280062 -0.03852361 -0.04631981 0.02259071
0003f0 8f 8b 48 bf a4 8c 97 bc 82 27 5f bd 14 75 61 3e
       -0.7833795 -0.01849968 -0.054481037 0.22017318

main.4.bias f4 [256]
000000 4d 4b 36 43 74 df 3d 43 68 c7 06 43 fb 2e 3a 43
       182.29414 189.87286 134.77893 186.18352
000010 7b 39 2e 3d 29 9d 9e 42 51 e7 31 c3 8a 08 18 c1
       0.042535286 79.30695 -177.90358 -9.502085
000020 75 12 17 3d da 9b 33 43 39 3c ec c2 6b 2e 3c 43
       0.036882836 179.6088 -118.11762 188.18132
000030 9a ba 46 43 cb 40 5c c3 93 a8 ac 3e dc 55 d4 c1
       198.72891 -220.2531 0.33722362 -26.541924
000040 f5 76 1e 3c c4 7d 7d 43 ce 30 d9 bc 59 11 72 bc
       0.009671916 253.49127 -0.02651253 -0.014774644
000050 64 ab cb 42 f2 0d 20 bd 78 82 5a c3 02 51 3b 43
       101.83475 -0.0390758 -218.50964 187.31644
000060 c0 03 29 43 8b 14 d4 c2 da eb 43 43 43 af 89 43
       169.01465 -106.04012 195.9213 275.36923
000070 a7 59 c9 bd 9f 70 40 43 0c 4f b8 bd 54 ae 1f 42
       -0.09831553 192.43993 -0.08999452 39.920242
000080 56 21 29 43 95 83 43 43 16 6a ce 42 29 af 1a 43
       169.13022 195.51399 103.2072 154.68422
000090 fa 26 54 bc 7f 00 54 43 1e fb 31 43 3e 04 80 c3
       -0.012948746 212.00194 177.98093 -256.03314
0000a0 da 3b 44 43 c3 d6 6a 43 28 5c 24 bd b9 17 d5 bd
       196.2338 234.83891 -0.04012695 -0.10404915
0000b0 d9 b7 5d 43 64 34 7f 3c 65 84 bc bd 0a d3 3f bd
       221.71815 0.015576456 -0.0920494 -0.046832122
0000c0 e3 34 85 bc f4 46 a7 3c 99 65 8f 3b 09 18 a8 bd
       -0.01626057 0.020419575 0.004376125 -0.08207709
0000d0 1b 17 e7 3c 35 62 bd bd 99 ad 1a ba fa 3c 3a 43
       0.02820926 -0.09247247 -0.0005900502 186.23819
0000e0 72 2f 5b 43 94 20 3a 43 5d 36 5c bd 5c ed 20 43
       219.18533 186.12726 -0.053762782 160.92719
0000f0 ad 2f e3 bd 3a bb 54 43 25 60 98 bd fe da c3 bc
       -0.11093078 212.73135 -0.07440213 -0.023908135
000100 05 3d 45 43 10 dc 67 3c 57 61 62 c3 d8 a7 d4 bc
       197.23836 0.014151588 -226.38023 -0.02595894
000110 6d e5 43 43 22 c4 0e be 97 b0 1c bd 65 06 38 43
       195.8962 -0.13942006 -0.038254347 184.02498
000120 ad 02 e7 bc 58 9d 53 43 83 a9 2b 43 87 a1 3a 43
       -0.028199518 211.61462 171.66216 186.63097
000130 c3 12 25 c3 3f 69 3f 43 15 97 cd c0 9c e1 3d 43
       -165.07329 191.41112 -6.4246926 189.88129
000140 1b 7c 4c 43 a7 4c 89 bd 9f d6 ee 3d 08 96 41 43
       204.48479 -0.067040734 0.116620295 193.58606
000150 97 d0 33 43 11 eb 16 bd 82 e7 df bc 85 25 cd 3c
       179.8148 -0.03684527 -0.027332071 0.025042305
000160 d3 68 77 bd 45 1f 55 c2 91 5f 8d bc 1a b3 62 bd
       -0.060402703 -53.280537 -0.017257484 -0.055346586
000170 7f a0 85 c1 83 72 8c bd 2c a0 8c bd 82 0c 2d bd
       -16.703367 -0.06857779 -0.06866488 -0.042248257
000180 fb 18 3e 43 77 3c 3e 43 51 e8 95 c2 91 5c 8b bd
       190.09758 190.23619 -74.95374 -0.06804765
000190 b4 ff d8 bc 46 89 fd bc fd 2a 3b 43 cd ad 3d bd
       -0.026489116 -0.030949246 187.16792 -0.046308327
0001a0 52 cd 9f bd 2a de f4 bc e6 db 37 43 44 f9 11 c3
       -0.078028336 -0.029891092 183.85898 -145.9737
0001b0 ed 58 b1 3a a0 e8 9e bd d4 a4 26 43 02 df 34 43
       0.001353053 -0.077592134 166.64386 180.87112
0001c0 44 c8 35 43 a8 58 0e 3c c2 1c 37 43 f5 c1 2f 43
       181.78229 0.0086881295 183.11234 175.75764
0001d0 36 0d 28 43 58 4f 03 bd 4d 3c 84 bd 4b bb 20 43
       168.0516 -0.03205809 -0.06456814 160.73161
0001e0 6a 36 82 c1 17 6a 7e bd 8d 92 40 43 2b 38 01 43
       -16.27657 -0.062112894 192.57246 129.2194
0001f0 c4 fc 9c bd 54 0b 5a 43 ba cf 86 bc 44 c9 09 3d
       -0.07665399 218.04425 -0.016456474 0.033639207
000200 57 35 16 bd 56 b5 2d 43 e9 5e 22 bb d9 aa 55 c3
       -0.036671963 173.70834 -0.002477581 -213.66737
000210 0f c9 2f 43 fa 39 37 43 17 16 9e b8 0c 64 43 43
       175.78539 183.22647 -7.538142e-05 195.39081
000220 fc b3 bf c2 79 2d a2 bd 80 0a 83 bc 89 95 3a 43
       -95.85153 -0.079188295 -0.015996218 186.58412
000230 89 99 35 43 9d cc 11 bd 7f 2a 13 bd 70 9d 48 43
       181.59975 -0.035595525 -0.0359292 200.61499
000240 7b cc 47 43 82 83 c4 bd 4c 82 28 43 d6 d2 40 41
       199.79875 -0.095953956 168.50897 12.051474
000250 d4 8c 7a bd 7a 3d ab bd d5 d3 17 c3 e4 78 0e bd
       -0.06116946 -0.08361335 -151.82747 -0.03478326
000260 9a fa 9c 3d 19 5c 24 43 3b a5 01 be 6d 0f 71 3c
       0.07664986 164.35976 -0.12660687 0.01471315
000270 c9 c0 be bd 12 e5 33 bd c8 10 45 43 37 32 ee bd
       -0.093141146 -0.04391963 197.06555 -0.116306715
000280 95 6b d0 bd da 3d 9c bd 7e 3f 7f bd b2 27 22 43
       -0.1017677 -0.07628985 -0.06231641 162.15506
000290 3e 35 7c bd 43 74 fc bc 29 2c e6 bd 19 41 35 43
       -0.061574213 -0.030817157 -0.11238892 181.25429
0002a0 4b de a3 bd c5 8b 11 bd b2 f9 2f 43 d4 5c c6 bb
       -0.080013834 -0.035533685 175.97537 -0.0060535464
0002b0 03 7a 4c c3 d3 42 3c 43 f4 14 32 43 18 84 69 bd
       -204.47661 188.26103 178.08185 -0.05701074
0002c0 64 04 8e bd d8 fa 00 be b9 9e 3a 43 a8 ea 36 3d
       -0.06934431 -0.1259569 186.62001 0.04465738
0002d0 42 69 5d bd da 3d 2f bd 47 77 90 c3 8c 87 3d 43
       -0.05405546 -0.042783596 -288.93185 189.52948
0002e0 b4 bd 89 bd 31 b5 41 43 ac 22 06 bf 0a 58 f8 bc
       -0.06725636 193.70778 -0.52396655 -0.030315418
0002f0 e8 2a 6f bd fe 82 08 bd ef 69 9f bd 37 3b 35 43
       -0.058390528 -0.03332805 -0.07783877 181.23131
000300 9e 67 bb bd b4 36 3b 43 a1 35 35 43 a0 58 36 43
       -0.09150623 187.21368 181.20949 182.34619
000310 a3 0f 35 bd df f5 35 c3 90 0f b1 42 d4 bb ee bc
       -0.044204365 -181.96043 88.530396 -0.029142298
000320 5c 65 46 43 80 b3 a7 40 47 44 76 bd 19 10 37 43
       198.39594 5.2406616 -0.060123708 183.06288
000330 6f 7c f1 bc 6e 0e 9b bd 5e 20 2f 43 c7 e2 76 42
       -0.02947828 -0.075711116 175.12643 61.721462
000340 12 27 13 c3 f6 90 88 bd 7c 91 80 3b d3 92 ed bd
       -147.15262 -0.06668274 0.003923593 -0.1160027
000350 68 c5 92 bd be ad 34 43 1d 1e 5e 3c 55 b7 03 3d
       -0.071665585 180.67868 0.013556984 0.03215726
000360 04 e0 a1 bd e2 da d7 bd 56 3c 94 3c 29 7b 54 43
       -0.07904056 -0.105397955 0.018095177 212.4811
000370 15 82 47 bb c2 ee 2f bd c4 a0 c8 3e e5 02 2a c3
       -0.0030442525 -0.042952307 0.39185154 -170.0113
000380 ee da 27 c1 60 8d 44 43 0b 0d a6 bd 40 69 cf bd
       -10.49095 196.55225 -0.081079565 -0.10127497
000390 33 a0 2f 43 86 9c 4e bd cc 7f ff c2 8a 18 33 43
       175.62578 -0.05044224 -127.7496 179.09586
0003a0 03 7d 44 43 5a 9f 1a 43 53 6b d7 3b 25 97 26 43
       196.48833 154.62247 0.0065740733 166.59041
0003b0 02 fb 74 bd c9 84 cb bd 1b 9d 47 43 91 45 9e 3f
       -0.059809692 -0.09937436 199.6137 1.236498
0003c0 90 12 3d 43 23 25 cf bc 2b 6d 3e 43 83 10 0d bd
       189.07251 -0.025286263 190.42644 -0.034439575
0003d0 c9 d0 46 3c de 5f b5 bd 3d c6 4c 43 96 da 2c be
       0.012134739 -0.08856176 204.77437 -0.16880259
0003e0 33 4f e0 42 49 4b 21 3b fd bf dc 38 8f a8 35 43
       112.154686 0.0024611524 0.00010526178 181.65843
0003f0 3e 1d 8b 3c 3e 72 b4 bd 22 a4 95 bd 1c 6e 09 c3
       0.016981717 -0.088108525 -0.073066965 -137.43011

main.6.weight f4 [4, 256]
000000 c9 c5 29 3f 96 c9 3a 3f 4c 40 15 c1 ab 32 6b 3f
       0.6631742 0.72963846 -9.3281975 0.9187419
000010 56 44 ee bc 67 dd e9 c0 2d da fc bf f1 ad f6 3f
       -0.02908532 -7.3082767 -1.9754082 1.9271833
000020 19 c5 8a bb d3 cd e4 3e 48 f4 51 40 ff a4 1c c0
       -0.0042349217 0.4468828 3.2805347 -2.4475706
000030 9c 80 c4 be 69 3e aa c1 d7 a7 81 40 f1 bc 67 be
       -0.3837937 -21.280474 4.0517383 -0.22630669
000040 dc b8 2d 3d b1 a1 20 42 61 d7 c9 bc cf f7 d2 3c
       0.042412624 40.1579 -0.024638833 0.02575293
000050 54 da 19 41 ef 4e 98 3b ef 39 9f c0 b8 83 4c 3f
       9.615803 0.0046480815 -4.975822 0.79888487
000060 d4 8e 03 3e 30 1a 78 40 5b ce 90 3e 7e f9 5c 42
       0.12847453 3.8765984 0.28282437 55.243645
000070 95 5c ec bc c0 ea 67 bf 0d 07 4a 3c e7 f2 32 c0
       -0.02885274 -0.90592575 0.012330783 -2.7960756
000080 95 02 bf be 10 8f 10 41 a5 98 34 3f 18 69 1f c0
       -0.37306657 9.034927 0.7054542 -2.4907894
000090 f7 b0 3e 3b 5e e1 1b 41 8c 37 4b 3f 0f 5b a3 c0
       0.0029097178 9.742521 0.7938163 -5.1048656
0000a0 fb c9 96 3f ac fd d8 40 ef 1d 80 bd 32 cc ac bc
       1.178039 6.780966 -0.062557094 -0.021093462
0000b0 0a 95 07 40 70 7a e2 bc 88 cd fb bc 4e 9c 61 3d
       2.1184716 -0.027646273 -0.030737653 0.055080704
0000c0 58 af 83 3d db 42 fa 3a 3d 68 16 3d bd f5 41 bd
       0.064299285 0.0019093411 0.036720503 -0.047353495
0000d0 b3 f0 80 bb 84 c2 5e bc ad cc d5 bc 28 42 0a 40
       -0.0039349436 -0.013596181 -0.026098574 2.1602879
0000e0 1f 0d b2 41 89 79 59 40 6a 6c 8a 3c 28 48 49 40
       22.256407 3.398043 0.016897399 3.145029
0000f0 9e 51 31 bb 50 fb ac 41 9b e8 de bb e6 24 f9 3a
       -0.0027056704 21.622711 -0.006802631 0.0019008189
000100 65 b6 f9 3e 18 31 da bc 70 27 f3 bf 45 cc 8b bd
       0.48771968 -0.026634738 -1.899641 -0.06826071
000110 7c 2b 23 3f e4 16 d5 3b b5 21 19 3c b9 7e ff bd
       0.63738227 0.006502973 0.009346415 -0.12475342
000120 67 0c 63 bc 20 72 b6 40 1b 5d 25 c0 cb 6c 4e c0
       -0.013857937 5.7014313 -2.5838077 -3.2253902
000130 8e ed a4 c1 ea 73 52 3e 7b b4 81 c0 e0 71 7d 3f
       -20.615993 0.2055203 -4.0532813 0.99001884
000140 42 72 db 41 cf c7 16 bd d2 96 6f 40 47 9c 97 3e
       27.43079 -0.036811646 3.7435803 0.29611418
000150 8c c9 cd 3f 46 87 88 3d dc 8d 7d bc 3f 4a 68 3d
       1.6077132 0.06666426 -0.015475716 0.05671143
000160 23 10 a0 3c 96 b2 51 bf 5e a5 52 3d c1 48 37 3d
       0.019538945 -0.81913126 0.051427238 0.044747118
000170 ee cc e0 c0 d8 58 db bc 65 b9 cd bb c3 5c 26 bd
       -7.025016 -0.026775762 -0.0062782043 -0.04061581
000180 38 0c cd 3e dc 81 89 3f a9 55 f1 bf 95 37 2d bd
       0.40048385 1.0742755 -1.8854266 -0.042289335
000190 3c b8 8a 3c 8f 25 3f bd 99 1a 33 3f dd 67 21 3c
       0.016933553 -0.046666678 0.6996246 0.009851423
0001a0 b8 3d b2 bc 8e a0 94 3c 1a 8b 20 3f 1f ed 91 40
       -0.021757945 0.018142965 0.6271225 4.5601954
0001b0 8b 45 1e bd 8f ac 69 bc e8 f7 1f 40 2d e0 36 3f
       -0.03864054 -0.014262333 2.499506 0.71435815
0001c0 3e be f3 3e 20 b6 ec 3b 15 01 aa bf d9 30 98 40
       0.4760608 0.0072238594 -1.328158 4.755963
0001d0 62 95 74 c0 b9 dc 0d bb 99 78 f9 3c 67 39 65 40
       -3.8216176 -0.0021646454 0.030453013 3.5816286
0001e0 0c 0c 49 41 67 23 ac 3d 9e dd 14 bf 62 43 e8 bf
       12.565441 0.0840519 -0.5815066 -1.8145564
0001f0 39 0e cc 3b 09 d9 27 40 89 9a 5e bc 6b 48 2d 3d
       0.0062272814 2.6226218 -0.013586649 0.04230539
000200 90 ea 16 bd 43 4e 2c c1 8d 8c 6e bc 23 ac 81 c1
       -0.03684479 -10.769107 -0.014559877 -16.209051
000210 19 1b 13 bf 3f e1 39 3f 16 c2 49 be b0 d0 b0 3f
       -0.5746322 0.72609323 -0.19702944 1.3813686
000220 b3 de c7 c0 c2 14 a2 b9 23 d1 1f 3d 86 8a 98 40
       -6.245935 -0.00030914514 0.039017808 4.7669096
000230 d3 b0 c8 3e a9 76 14 3c 39 07 0e bd e4 96 40 3f
       0.39197406 0.009061494 -0.034674857 0.7523024
000240 64 3d ba 3f 93 d4 f9 3c 18 73 97 bf e6 9d 3c 41
       1.4549985 0.030496871 -1.1831999 11.788549
000250 4d a3 f3 bb b4 02 a4 3c 10 43 16 c1 c5 e8 1c bd
       -0.0074352385 0.02002082 -9.391373 -0.038307924
000260 ae 2e 3f bd 77 e6 b7 bf 54 c2 7e 3b 86 6e aa bc
       -0.046675377 -1.4367207 0.0038873153 -0.020804655
000270 0f 79 db 3c cc bf d0 bc 47 40 d5 40 ef 69 93 bc
       0.026791124 -0.02548208 6.6640964 -0.017994849
000280 f4 15 80 bc 2a a8 cf 3c 03 1f b2 3b 38 fe 8a bd
       -0.015635468 0.025348742 0.005435826 -0.0678677
000290 99 0f dd bc ab b4 d4 3c 65 c6 5a bd 2c 84 a2 3f
       -0.026984977 0.025965055 -0.05341186 1.2696586
0002a0 80 ef 8a 3c 09 ba 70 3d fc 33 e5 be b2 51 56 bc
       0.016959906 0.058771167 -0.44766223 -0.013081001
0002b0 76 00 85 c0 0a a8 00 40 12 f8 c5 3e e2 58 2c 3d
       -4.1563063 2.0102563 0.38665825 0.042076953
0002c0 f8 db 5f bd d8 f2 2b bb 75 1f a3 be df d0 34 bd
       -0.054653138 -0.0026237275 -0.31859937 -0.044144507
0002d0 49 ea 97 3c c6 db 1d bd 2d ec 8a c0 58 f9 bb 3f
       0.018544333 -0.03853967 -4.34133 1.4685469
0002e0 88 3d 37 bd ed bb 16 3f de bd a7 bd 51 e9 6b bd
       -0.044736415 0.588805 -0.08190511 -0.057595555
0002f0 d3 d4 01 3c 33 bc 39 3c ca 75 33 3c d0 2e 6f 3e
       0.007924276 0.011336374 0.010953376 0.23357701
000300 4e c2 26 bc b7 07 44 3f 53 3e cb 3d e1 79 c6 be
       -0.010178162 0.7657427 0.09923997 -0.3876486
000310 e5 24 48 bc 0f 8f ad c1 81 62 c2 40 bf 23 29 3d
       -0.012215828 -21.694853 6.0745244 0.041293856
000320 d1 d4 6d 41 c0 4e 80 3f 8c 18 07 3d 95 6b 31 3f
       14.864457 1.0024033 0.032982394 0.6930478
000330 c0 58 3c bc e3 d3 0f 3d ea 1f b5 c0 6e 7d 0a c0
       -0.011495769 0.03511418 -5.6601458 -2.1639056
000340 5a 49 73 c1 46 be aa bd a6 4c 34 bd 10 d7 2b 3d
       -15.205408 -0.08337073 -0.04401841 0.041953146
000350 9f 8b a7 3c 1e 79 85 3e 9f f7 6b 3d 83 5d 2d 3d
       0.020452319 0.26068968 0.057609197 0.042325508
000360 2a 8d 70 bd 9f 51 53 bd 4c 2b d3 3c 00 96 10 41
       -0.058728375 -0.05159151 0.025777481 9.036621
000370 89 fa 84 3c c6 e7 08 bb ee 09 5b bf cb 63 ac c1
       0.016232746 -0.00208901 -0.85562027 -21.548727
000380 4c a9 ee 40 3e e3 78 c0 72 ea f0 bc d2 d5 73 bb
       7.458166 -3.8888698 -0.029408667 -0.0037206304
000390 4d d0 ae 40 3d 7d 00 bd 57 6e 84 c0 47 4f 38 bf
       5.4629273 -0.031369437 -4.138469 -0.7199597
0003a0 9e 41 a1 3f 70 e9 1b c0 60 1b 17 3b a7 38 81 c0
       1.259815 -2.436123 0.0023057088 -4.0381656
0003b0 47 21 26 c0 4d e9 1c bc c4 22 f4 3e 8c 0a 52 c0
       -2.595781 -0.009577108 0.47682774 -3.2818937
0003c0 ec 3d 85 3f c2 cf 53 3d 48 24 2d 3f 53 0f 9c bb
       1.0409522 0.051711805 0.67633486 -0.004762569
0003d0 4d b4 8a 3c 6d 7a 3f bd cb 2e 1b 40 39 2f 91 bd
       0.016931677 -0.046747614 2.424731 -0.07089085
0003e0 75 67 d1 c0 f1 5e 04 bd a0 71 9d bc 30 bd ab 3e
       -6.543879 -0.032317106 -0.01921922 0.33542776
0003f0 72 1b 4f bd dc fc 62 bb c0 56 4d bc 9b c9 39 c0
       -0.050563283 -0.003463558 -0.01253289 -2.90293

main.6.bias f4 [4]
000000 66 be 76 43 22 a0 6c 43 41 33 22 43 ed 67 0b 43
       246.74374 236.62552 162.20021 139.40596
