src/episode_300.pth (torch, 540912 bytes, 8 tensors)

main.0.weight f4 [256, 6]
00000000: 598e c63c 51e2 7440 4508 173f 8d8b 2cc1
00000010: e218 33bf 55aa 25c1 205c f6be 5bdd c93f
00000020: f2eb 8fc2 7fed d7c1 561e 343f 275f 0f40
00000030: 9574 a7bc a55c a2bc b0a2 1bbf e320 6c40
00000040: 384a 2cbe 85ef b340 2229 43be 581e d53d
00000050: f69b 40be 181a 44bd 00cb 29be eea8 8a3e
00000060: 23ff a4be 41b9 40be 6817 ecbd 165c 7bbe
00000070: 78d3 1d3d a272 cebe 0eec ed3b 496c 39bf
00000080: 4e59 2ebf 94f3 b6c0 dc34 183e 955f d940
00000090: a38e a43c 78ec 5440 b55a c3bf 07da 18c1
000000a0: 1abe 3d3e 1bb2 f440 bf0c 6bbc f003 b93f
000000b0: 6c01 1dc1 95ee 7241 ef1e 85be 0146 0841
000000c0: 559f 983c 952c febf 4d5b adbf 175c 92c0
000000d0: e374 df3e 40c5 d540 5e07 44bb fa12 9fbb
000000e0: 66e9 7b3f e110 abc1 1faa f23b 669c cfc1
000000f0: 3353 333c 21c0 16bf 4463 e1bf ad37 2dc0
00000100: 6831 093f 830f e140 08e8 deba 0d67 90bf
00000110: fa25 81c0 3e2c bfbe 867e db3d 73c4 b540
00000120: ade9 db3c 1349 423e 62fa 75c1 04ea 96c1
00000130: a1ff 9bbd f39f c540 0850 5b3b 138c 783f
00000140: 7d2a b8bf 648f b441 2dfd 4ebe 0121 2141
00000150: b439 5a3c d77c a63e e89a e0c0 c6f9 6ac1
00000160: 943d 19be 98cf bec1 c297 203e 1a4c d7bf
00000170: 0172 913e 081f 0841 4f58 aabf a2c2 80c0
00000180: 10d1 853d a64a bb3e 4009 bb40 a259 a1c1
00000190: 7c35 58be b5ad fec0 90b7 5cbd 1aba 97be
000001a0: 40e5 1c3c a4c7 8ebe a455 b1be d433 66be
000001b0: 0c3d acbf 74ed 993e 4741 1840 13c9 7e3f
000001c0: e854 323f 01af f5be ea47 89be 2e26 0bbe
000001d0: a0bd 823d 85ec b7be f71f 34be 6b45 7abe
000001e0: 7dad 923d a1e1 1ac0 8245 3dc0 d314 eec1
000001f0: d3f2 ecbf 0ff2 ef40 339c e4be 5637 05bf
00000200: 86ce 3740 3dc0 9540 5d14 373f 80a3 7fc1
00000210: 0a00 b1be c0a6 903e e80b e6bd 7e3f 20be
00000220: 0281 adbe 75cd cfbe db04 8abc 267d e5be
00000230: 2151 9440 65c4 9c41 9534 0a3f c4bb d740
00000240: da76 37be d910 833d 8cc0 bbc2 2dc3 bec1
00000250: 1e6a 313f cf9e e93f 156e c2ba 02a7 6bbf
00000260: 283f a6bf 1081 4141 3cb8 ef3e 54b7 d440
00000270: 5d48 053d 586a 61bf da08 b740 d6a7 1842
00000280: ae6b 333e 1a98 51c1 35d6 10bb 8171 f03f
00000290: aa8d 72c0 6469 85c1 efbe 03bf e633 0341
000002a0: f25e 4c3c 8a3b 18c0 3bd8 0dbf 52f2 95c0
000002b0: aa89 153f 002d 35c1 317a 73be ce37 e9be
000002c0: 0f78 d1bf d908 ce3f 9098 df3e 0317 f6c1
000002d0: 04b8 753c d02b 943f 957a 52c0 5e0a 33c1
000002e0: cbb4 603e 6a9b 0741 b1c8 953c f531 59bf
000002f0: eb43 bbc1 7d45 423f 7503 f13d e756 48bf
00000300: 3a25 e83c 1d1c c33f 2523 bcc0 b365 cdc0
00000310: 7ab9 a0be e6a7 cbc0 82aa ee3b b434 a03f
00000320: 86a7 ec3f 5192 69c0 f155 a13d 374e 70c1
00000330: 7d48 55bd 0849 8ebe 3d25 90be fb7f cbbe
00000340: accb 28be aa4b d93d 9665 653b 6894 5a3f
00000350: 20d0 eebf 0c64 d941 7505 8cbe b392 2141
00000360: 5121 a03b ee03 15c0 3a4a 3dc0 a29d f3c1
00000370: 8010 cd3e 84a8 1441 3a49 c33b fbdc a9c1
00000380: 3a2b 5d40 a43b 1fc2 8461 8ec1 acd6 6741
00000390: 4754 a0be 8588 57bf c46e 9740 f4ec 8ac2
000003a0: b2f9 123f 0846 4041 a1fd fc3d fedc 6dbf
000003b0: e4d1 96bf 5382 5ec1 d5ae 363e 817e d8c0
000003c0: 0cbe c63a a6ff b3bf 68c3 04c0 5cce 0d42
000003d0: 8ee3 813e 108a ec40 3994 88be a4ab 0a3e
000003e0: d47b f8bd fc09 813e e81c 06be 2055 99be
000003f0: b93d b0bc b545 05c2 96c7 d141 e3a5 73c2
0.024237799 3.8263133 0.58996993 -10.78407 -0.69959843 -10.354085 -0.4811716 1.5770677
-71.96083 -26.990965 0.7035879 2.2401826 -0.020441333 -0.019819567 -0.60795116 3.6895072
-0.16825187 5.622988 -0.1905866 0.10406178 -0.18809494 -0.047876447 -0.16581345 0.27082008
-0.32225904 -0.18820669 -0.11527902 -0.24546847 0.03853175 -0.40321833 0.007260806 -0.72430855
-0.6810502 -5.7172337 0.14863914 6.7929177 0.020087546 3.326933 -1.5262057 -9.553229
0.18529549 7.6467414 -0.014346301 1.4454327 -9.812847 15.183248 -0.26000163 8.517091
0.018630663 -1.9857355 -1.3543488 -4.5737414 0.43643865 6.6803284 -0.0029911618 -0.004854557
0.9840301 -21.383242 0.007405534 -25.951366 0.010945129 -0.58886915 -1.7608418 -2.7065232
0.5359101 7.0331435 -0.0017006407 -1.1281449 -4.035886 -0.37338442 0.10717492 5.6802306
0.026844824 0.18973188 -15.373629 -18.864265 -0.07617117 6.175775 0.003346445 0.97088736
-1.4387966 22.570015 -0.20213766 10.070558 0.013319422 0.3251712 -7.0189095 -14.68598
-0.14964896 -23.851364 0.15682891 -1.6820099 0.2840729 8.507576 -1.33082 -4.023759
0.06534016 0.3658039 5.844879 -20.168766 -0.21114153 -7.9587045 -0.053885996 -0.29634172
0.009576142 -0.2788669 -0.3463565 -0.22480708 -1.345613 0.30063975 2.3789842 0.99525565
0.69660807 -0.4798508 -0.2681268 -0.13588783 0.06383824 -0.35922638 -0.17590319 -0.24440543
0.071619965 -2.4200213 -2.9573674 -29.760168 -1.8511604 7.498298 -0.4465042 -0.5203756
2.8719802 4.6797166 0.71515447 -15.977417 -0.34570342 0.2825222 -0.1123274 -0.1564922
-0.33887488 -0.4058644 -0.016848018 -0.44822043 4.6349034 19.595896 0.53986484 6.7416706
-0.17916432 0.06399698 -93.87607 -23.8453 0.69302547 1.825159 -0.0014833832 -0.9205171
-1.2988024 12.094009 0.46820247 6.647379 0.032539714 -0.8805289 5.7198305 38.163902
0.17521545 -13.099634 -0.0022100334 1.8784639 -3.7898965 -16.67646 -0.51463217 8.2001705
0.012473809 -2.378634 -0.55408067 -4.68583 0.58413184 -11.323486 -0.23777081 -0.45550388
-1.6364764 1.609645 0.43671083 -30.761236 0.014997486 1.157587 -3.2887318 -11.190031
0.21943967 8.475443 0.018284174 -0.84841853 -23.408163 0.7588728 0.117682375 -0.782576
0.028338064 1.5242954 -5.87929 -6.4186645 -0.31391507 -6.3642454 0.0072835097 1.2516084
1.8488624 -3.6495554 0.0787772 -15.019095 -0.052071083 -0.27790093 -0.2815341 -0.3974608
-0.16483945 0.10610135 0.0035003177 0.853827 -1.8657265 27.173851 -0.27347913 10.098315
0.004886784 -2.3283648 -2.9576554 -30.45197 0.4005165 9.2911415 0.005959657 -21.2329
3.4557633 -39.808243 -17.797615 14.48991 -0.313143 -0.8419269 4.732271 -69.4628
0.57412255 12.017097 0.123530634 -0.9291533 -1.1782804 -13.906817 0.1784013 -6.7654424
0.001516284 -1.4062393 -2.0744267 35.451523 0.25368923 7.3918533 -0.26675585 0.13542038
-0.12132993 0.2520293 -0.13096964 -0.29947758 -0.021513807 -33.318073 26.222454 -60.912

main.0.bias f4 [256]
00000000: b84a dcc1 0be6 2ac2 2b97 3743 ea6b 06be
00000010: c60d 15be a445 2343 da38 0f43 fdba 08c3
00000020: cf5a 1943 91cc 2b42 31a0 1f43 df68 3543
00000030: fb17 28c3 5845 05c3 8fda 6842 9783 28c3
00000040: daab d442 d0f7 203e ee65 6a3f a434 aa3d
00000050: 6cf7 2e43 6300 483f 3d17 99be 045f 0a43
00000060: 960b 7ac2 9bcb 1543 90b8 ebc2 b095 1743
00000070: 3687 cd42 8aa3 c2be 301f 1f43 3f1d d3c1
00000080: fde5 19c3 9d25 de42 8178 a33c 1867 0dc3
00000090: f7a4 1743 8eab 86c2 cf1e a4c2 b2ec 9842
000000a0: ee93 c0c2 6090 2f3e ada4 b142 2961 b9c2
000000b0: fd48 e7c2 ce7d d642 d4bc b1be 90a3 f13b
000000c0: e1ce 1cc2 6e29 b942 f2fe 15c3 5f97 1fc0
000000d0: fdbe 82bf 7a08 88c2 0c8d 45be e3ba d7c2
000000e0: e079 cc3d 9e97 08bf f7b4 9542 62b7 7abe
000000f0: 31a3 9cc2 bcb3 1f43 5578 49bf 7e6f 1a43
00000100: b0c5 24c3 0d30 b6c2 911f bcbe 4302 0743
00000110: 1884 07c1 def6 b5c1 8772 cfc2 5128 5642
00000120: 0484 813d 4c0a 2dc1 cc8c 07c3 9f14 1d43
00000130: 30c3 cdc1 8e3e cbc2 f2ed 1743 ea4e 98be
00000140: e71a 1e43 2d44 1a42 6bd1 1d43 4b11 a9be
00000150: 7296 19c3 f280 9cc2 8838 ffc2 29ea bfc2
00000160: 11a8 edc2 1d80 1743 87a7 3542 dce0 c8c2
00000170: 0843 a3c1 0c95 12c3 8ed6 863e 8d05 d842
00000180: f12d 64c1 e0aa 5dc2 e7f1 1743 6de6 c942
00000190: d616 c9be 0ec9 4ac1 e353 bd41 38c2 d63d
000001a0: 6e4d e1bb 7ca8 113e b9b8 93be b989 02c3
000001b0: ce84 1b43 f96b 97c2 1301 f0bd 19a6 8dc2
000001c0: 2d6b a0c2 d7ab b7be 60ed 62bc ddf5 e8c2
000001d0: 173b 1243 bb4e a340 816c 113f c4e8 04c3
000001e0: f017 7b3e 6993 7042 44e6 5f3e 11bf 0ec1
000001f0: 0050 79ba a9bc cc42 4b44 3143 1f3f 8240
00000200: 2d31 b8be b849 8abc a979 ce42 e137 d8c2
00000210: d772 8a42 e806 d7bd 7773 87c0 cf1d c5c2
00000220: 0a9f 98c2 0263 c542 fa66 2242 6c73 66c1
00000230: ae3b 1543 6581 d042 d459 edc2 af22 0543
00000240: c70f 7ec0 60a8 33bd 7856 3543 5495 87c1
00000250: 4c1a 813d 9412 5ac2 9a75 93c2 00ce 7c3a
00000260: 306a 5742 2848 0e3e 58c2 c440 46f8 ecc2
00000270: 1c1d 923e 36c3 c73e 68ff 7c41 d0d9 c8c1
00000280: f017 4f3d 6604 ef42 7894 1c43 8284 1c43
00000290: b70f afbd 893f c2c2 a106 1b43 125e 4abe
000002a0: 602d 453e 8fe0 1843 97a6 f73e 863d 1e43
000002b0: dcb2 cc41 d56b 1c43 e1d1 bbbd 1077 91c2
000002c0: b0bb f1be dc32 0843 2d50 ffc2 64e3 8dbe
000002d0: e018 a63d cc9c 1743 7a5d 863e b48a 97c2
000002e0: c091 ea3c 201f 7a3e 597d bfbe 85f0 b2c2
000002f0: c019 09c3 dae7 ddc2 bee6 2f3e acc1 8ebe
00000300: ea73 1c43 3f8e fcc0 8c09 42be 60dc 1b43
00000310: ceac 4ec1 34a8 e4bd 01a0 1343 acff a13d
00000320: e0d8 c33d acdd 1d43 332d e9c2 4722 0442
00000330: 4955 2743 71a2 2143 9853 1ebe d9bb e642
00000340: b01e 983e 28ea 0fc1 103a de42 9c31 4d42
00000350: ec75 18c2 0233 01c3 ee4e 8cc2 fb40 c442
00000360: ee81 30be 2129 fdc2 89d7 58c2 f7bf 9a42
00000370: fa81 b63e 88b5 f3c2 2b23 2143 b48c 06c3
00000380: 68a7 4643 48c3 eac2 bd1f cfbe 1877 96bd
00000390: 9ff2 9bc2 dd59 1a43 2081 1fc2 f8c0 933e
000003a0: 32fa 1a43 ac0c 683e a86e 2d3e a2a4 81be
000003b0: 4417 91be f0a2 8a3c 01f6 563f b04e bc3c
000003c0: 10d3 0fbd dc37 10c3 32f0 11c3 06db dd42
000003d0: ceaa 93c2 3280 17c1 a7ea c8be 0f70 a2bf
000003e0: e0b1 f23c 305c 22c0 2ba6 2143 943f d3c2
000003f0: ba92 f2c2 2b52 05c3 7d69 dec1 b750 fbc2
-27.536484 -42.72465 183.5905 -0.13127103 -0.14556035 163.27203 143.22208 -136.73042
153.35472 42.94977 159.62575 181.40965 -168.09367 -133.27087 58.213436 -168.51402
106.33565 0.15719533 0.9156178 0.08310822 174.96649 0.7812559 -0.29900542 138.37115
-62.511314 149.79533 -117.86047 151.58472 102.764084 -0.38015395 159.12183 -26.38928
-153.89839 111.07346 0.019954922 -141.40271 151.6444 -67.33507 -82.06017 76.462296
-96.288925 0.17144918 88.82163 -92.689766 -115.642555 107.24571 -0.34714377 0.0073742345
-39.20203 92.58092 -149.99588 -2.493614 -1.0214535 -68.016556 -0.19292086 -107.86501
0.09984183 -0.5335635 74.85345 -0.24484017 -78.31873 159.70209 -0.7869924 154.43552
-164.77222 -91.09385 -0.36742833 135.00883 -8.469749 -22.74554 -103.72369 53.53937
0.06324008 -10.815014 -135.54999 157.08055 -25.720306 -101.62218 151.92947 -0.29747707
158.10509 38.566578 157.81804 -0.33021006 -153.58768 -78.25185 -127.61041 -95.957344
-118.828255 151.50044 45.4136 -100.43918 -20.40773 -146.58221 0.26335567 108.01084
-14.261216 -55.41687 151.94493 100.95005 -0.39275235 -12.674086 23.66596 0.10486263
-0.0068756854 0.14224428 -0.2885187 -130.53798 155.51877 -75.710884 -0.11718955 -70.82441
-80.20933 -0.3587329 -0.01385054 -116.4802 146.23082 5.1033607 0.5680619 -132.90924
0.2452085 60.143955 0.21865183 -8.921647 -0.0009510517 102.36848 177.26677 4.070205
-0.35975018 -0.016880855 103.23762 -108.10914 69.2243 -0.10499364 -4.232845 -98.55822
-76.31062 98.693375 40.600563 -14.403179 149.23312 104.25272 -118.675446 133.13548
-3.969713 -0.043861747 181.33777 -16.947914 0.06303844 -54.518143 -73.72969 0.00096437335
53.8537 0.13894713 6.1487236 -118.48491 0.28537834 0.39016122 15.812355 -25.106354
0.050559938 119.50859 156.57996 156.51761 -0.08547919 -97.12409 155.0259 -0.19762447
0.1925559 152.87718 0.48369285 158.24033 25.587334 156.42122 -0.091708906 -72.732544
-0.47213507 136.19867 -127.65659 -0.27712548 0.08110213 151.61249 0.26243192 -75.770905
0.028633952 0.24425936 -0.3740032 -89.469765 -137.10059 -110.952835 0.17177865 -0.27882135
156.45279 -7.892364 -0.18948954 155.86084 -12.917189 -0.11164895 147.62502 0.07910094
0.0956285 157.8659 -116.58828 33.033474 167.33315 161.63454 -0.15461576 115.36689
0.29710913 -8.994667 111.1134 51.298447 -38.115158 -129.19925 -70.15416 98.126915
-0.17237064 -126.58033 -54.210484 77.37493 0.3564604 -121.85455 161.13737 -134.54962
198.65393 -117.38141 -0.40453902 -0.07346934 -77.97387 154.35103 -39.8761 0.2885816
154.97733 0.22661084 0.16936743 -0.25320917 -0.28338063 0.016923398 0.8396912 0.02298674
-0.035113394 -144.2182 -145.93826 110.92778 -73.8336 -9.468798 -0.39241526 -1.2690448
0.029625833 -2.5368767 161.6491 -105.624176 -121.286575 -133.32097 -27.801508 -125.657646

main.2.weight f4 [256, 256]
00000000: a5a4 81bd 565f 453d f8b2 3cbc bc20 fdbc
00000010: e89f afbc a076 60bd fdd5 2b3d 01b7 a6bc
00000020: d4ee 0fbd ae1c 5ebd ed2c f33c e43d 7cbc
00000030: 08f9 4dbc 8722 bdbc ed2c 14bd e028 363c
00000040: 445c 2c3d 5e5f 14bd 2040 443b 00b1 42bd
00000050: 4813 f0bc ed0a 443d 80c9 2b3a e2b2 5a3d
00000060: 1459 92bc 8584 27bd aad0 34bd 84e5 623d
00000070: 34ba 60bd 0e19 d23c eaca 0e3c b0cb 4b3c
00000080: c446 ea3c d4e4 bdbc 4a67 1e3d 58a2 66bd
00000090: 8c24 b4bc bd81 1e3d 4aed 383c 605e 08bc
000000a0: cac3 a8bc 3c51 1cbd e751 fe3c f9c7 0fbc
000000b0: c269 0cbc 25e7 023c 2eea 3c3d 609b 02bd
000000c0: dc54 b0bc 3a79 2d3d ee94 103d 8781 1abd
000000d0: 8cff 8dbd b938 993b fea0 063d 932b 063c
000000e0: a095 353d aa1c 68bd 1e80 c73c 6026 1fbd
000000f0: 8e84 e23c 8266 223d 5aec 613c 58db 333d
00000100: 3be3 44bd 0130 81bd 3425 76bd 90b9 203d
00000110: 1d0b 743c d675 3bbd 327b bf3c 469e 4c3d
00000120: fa6f 7cbd 32b5 393d 22cf 3a3b daf0 cfba
00000130: 8d85 473d c2d4 673d 7867 a03c 4846 4a3d
00000140: 2801 d53c fa2f 633b 0ad7 7cbd 1ebe b93b
00000150: 1984 50bd a4a0 9d3c 7b8f 9e3b 5c8a b4bb
00000160: e8a1 47bd be2f 1bbd b83c 203d bb55 c43c
00000170: 8b87 d43c 2d96 cfbc 3854 30bc 1bd3 bebc
00000180: 607c 133d 3006 ddbc d23e 213d 44d6 123d
00000190: 5820 6abd c5de e5bb a2a6 a2bc c485 0dbd
000001a0: 140a dd3c 60d2 f8bb 4e21 603d f0b2 3bbd
000001b0: da46 b53c 2f2d 75bd 9d59 21bd 48a1 f6ba
000001c0: 00a8 2f3d 12d7 063d a832 52bd 8bd2 1b39
000001d0: 2b92 32bd 31a3 afbb 6c0f 75bd 3e9a cabc
000001e0: f294 2f3d 3f5c 83bd 8213 74bd 0d9b 973b
000001f0: d85f 0c3c 2286 95bc d48a 5f3d 7df0 3bbd
00000200: 9c69 1bbd 6c34 5bbd e896 3ebc aedc b3bc
00000210: 3266 1e3d 80fc 65bb 9276 543c aad1 07bd
00000220: 64f5 333d fc0c 393d 0244 65bd 850a c1bc
00000230: 2037 59bd 4da4 a13c 91ff 7ebd d2c1 14bd
00000240: aee5 5f3d 9675 74bd 5b41 213d 904d cdba
00000250: dcb4 4c3d 5cf3 1bbd 7fce 0c3d 5019 f73b
00000260: 43bc ddba 6eba 2e3d c400 86bd 871a 67bd
00000270: 463c 773d 24ba 19bd 993d 56bd c512 21bc
00000280: 78e4 a3bc 62f6 7abc 2c84 2bbd 4d7c 813c
00000290: da11 7abd b945 efba a300 f23c 50bf 443c
000002a0: 080f 083c e9a2 163b 8376 d8bc beed 98bc
000002b0: be46 09bd a288 45bd a223 20bd a960 613d
000002c0: 805f 2bbc 8927 823c 03cf 153d 40fc 9fbb
000002d0: acb8 09bd d4f5 48bd 5c9f bcbc 60c0 b63c
000002e0: b497 57bd e00d fabb 08c2 c23c 58b8 343d
000002f0: b8f1 4a3c d83c d03b 8e57 143d c896 ec3c
00000300: c99b 6a3c 5a51 d9bc 3e49 4dbd 23f6 a6bc
00000310: 4869 93bc 4066 963b 49cf 60bc e8fe ce3c
00000320: f41f 2a3d 3aab 03bd a457 87bd d9d7 1ebd
00000330: d3bb 15bd 7890 ea3c 9421 25bd 00a1 c0bb
00000340: 9006 59bc 534e 38bd 8c0b b03c 983c 03bd
00000350: 19b9 26bc ee7a 4ebd 5689 69bc fedd 0b3b
00000360: 80ad 26bb 099a f7bc 6397 3f3c e3da b5bc
00000370: 16ed 0dbd 62c8 3cbd ac9b a3bc 8a70 86bd
00000380: 307c 543d e17f 16bd a02e d4bc b050 bd3b
00000390: ad8c 203c 2021 50bc 08ea 133d 303c 15bd
000003a0: 89ba 813c 00ce 13b9 a43f 50bd 844b c6bc
000003b0: 2335 103c 78a0 433c 9a4a 193d 2043 2b3d
000003c0: d4a0 0bbd 3f88 08bd 56be a3bc 343f 52bd
000003d0: 3c57 c4bc f47c 51bd 34bc c23c 840c 183d
000003e0: 4027 a23b 6ea5 57bd ab4c 5dbd aa84 f8bc
000003f0: 507e 3a3c cccc aabb 664f 983b ad4b 563d
-0.063302316 0.048186623 -0.011517279 -0.030899398 -0.021438554 -0.05480063 0.041952122 -0.020350935
-0.035139874 -0.05422657 0.029684508 -0.015395615 -0.012571581 -0.023087753 -0.036175657 0.011118144
0.04208018 -0.03622376 0.0029945448 -0.04753208 -0.029306069 0.047861982 0.0006553158 0.053393252
-0.017864741 -0.040897865 -0.04414431 0.055394664 -0.054865077 0.025646713 0.008715371 0.0124387
0.028598197 -0.023180403 0.038672723 -0.056307167 -0.021990083 0.038697947 0.011287043 -0.008323282
-0.020601172 -0.03816341 0.031044913 -0.008775705 -0.0085701365 0.007989679 0.04612177 -0.03188646
-0.02152484 0.04235194 0.03529828 -0.037721183 -0.06933507 0.0046759513 0.032868378 0.0081891
0.044332147 -0.05666796 0.024353083 -0.038854957 0.027651098 0.03964854 0.013789261 0.043910354
-0.048068266 -0.06307984 -0.060094073 0.039239466 0.014895228 -0.045766674 0.023374174 0.04995563
-0.061630227 0.045338817 0.0028504808 -0.0015864626 0.04871135 0.056599386 0.019580588 0.04938343
0.026001528 0.0034666047 -0.061728515 0.0056684157 -0.05090723 0.019241638 0.0048388815 -0.005509658
-0.04873839 -0.037887327 0.039120406 0.02396666 0.025943538 -0.025340164 -0.010762267 -0.023294022
0.036007285 -0.02698049 0.03936655 0.03584887 -0.05715975 -0.0070150816 -0.019854847 -0.034551397
0.026982345 -0.007593438 0.05471926 -0.045824945 0.022128511 -0.059857544 -0.039392103 -0.0018816376
0.042884827 0.03291995 -0.05131784 0.00014860385 -0.043596428 -0.00536003 -0.05982916 -0.024731752
0.042866655 -0.06414079 -0.059588917 0.004626638 0.008567773 -0.018252436 0.054575756 -0.045883644
-0.037942514 -0.05351679 -0.011632659 -0.021955814 0.03867168 -0.0035093129 0.0129677225 -0.033158936
0.043935195 0.0451784 -0.05597306 -0.023564586 -0.053031087 0.019731665 -0.062255446 -0.036317654
0.0546624 -0.05968245 0.03936897 -0.0015663374 0.04997717 -0.038073882 0.034376618 0.0075408593
-0.0016917068 0.042658262 -0.06543115 -0.056421783 0.060360216 -0.037531033 -0.052304838 -0.009831135
-0.020006403 -0.015317531 -0.041874096 0.015806342 -0.06105218 -0.0018255032 0.02954132 0.012008503
0.008304365 0.0022985286 -0.026423698 -0.018668052 -0.03351473 -0.048226006 -0.039096482 0.055023823
-0.010459781 0.015887992 0.036574375 -0.0048823655 -0.033623382 -0.049062565 -0.023025207 0.022308528
-0.05263491 -0.0076310486 0.023774162 0.044121116 0.012386732 0.0063549094 0.03621631 0.028880492
0.014319369 -0.02652805 -0.050118677 -0.020381039 -0.017994538 0.004589826 -0.013721296 0.025268033
0.04153438 -0.032145716 -0.06608513 -0.038780067 -0.036556076 0.028633341 -0.040315226 -0.0058785677
-0.0132461935 -0.04499657 0.021489881 -0.03204021 -0.010175967 -0.050410204 -0.014253935 0.0021342034
-0.0025433004 -0.030224817 0.011693808 -0.0221991 -0.03464993 -0.046089537 -0.019971691 -0.06564434
0.051876247 -0.03674305 -0.025901139 0.005777441 0.009799165 -0.01270321 0.03611186 -0.036434352
0.015836017 -0.00014095753 -0.050841942 -0.02420593 0.008801731 0.011940114 0.03742466 0.041812062
-0.034088925 -0.03333306 -0.01998822 -0.051329806 -0.023967378 -0.051144555 0.023771383 0.03712131
0.0049485266 -0.052648 -0.054028194 -0.030336697 0.011382654 -0.005212402 0.004648137 0.052318264

main.2.bias f4 [256]
00000000: f6bb 63bd 3f78 c0bc cc91 63bd 6f4c a13b
00000010: c847 c4c2 1be6 2fbb f4a0 433c a5aa 913c
00000020: d3aa be42 c12f b4bd 7515 313b 4f50 1c43
00000030: 35dc 0b43 3d6f 8dbc 94ac ae3b a375 53bd
00000040: 049d 183d 888a 04ba 36d1 b2bc dc53 e3c2
00000050: 4c62 b33f 91e0 b842 5d08 7abd b2c6 adbd
00000060: 6e76 f0bc 62e8 a842 bcbc bac1 ffaa 0142
00000070: ed51 c53c 349c a7bd a762 b642 dee2 98bd
00000080: d575 32bd ece6 8fbc 7210 983c e572 053d
00000090: 1815 19bd 0887 2ebd ef3a 1543 90b2 1abd
000000a0: 4bc6 9fbd 2fa6 83bc 4968 ba3c 6da8 0bbd
000000b0: 8215 5dbd 78b5 8842 8177 6bbb 1580 38bd
000000c0: acaf 8ebd 8fae 0fc2 8da9 973b f1c7 2abb
000000d0: 944f babc 0d9e 78bd b3e7 4ebd 7812 f642
000000e0: 6f0a 0bbd faa7 84ba 77cb 83bd 02b1 5cbd
000000f0: a318 c1bc f161 febb 4b9d 1343 6e7a acbd
00000100: ba40 32bd 5e10 6d3d 4008 2e3d a0b3 75bd
00000110: 344e 2dbd 92c9 41bd e9db 8b38 6c59 47bd
00000120: 7bd2 2e3e b09b b9c2 f1f0 8cc1 0cc9 da3c
00000130: 128b 0cbd fdc7 f442 8cd8 81bc d47f 8c3c
00000140: 5e5b cabe 97d8 5fc2 1df3 dc41 f083 3b3d
00000150: 3d16 8c3c e302 133b b95c aebd f3ab 1c41
00000160: c59e bfbd cdd7 cac2 fa5d 10c3 d60d 633c
00000170: 3878 0543 cd2b 84b8 47f8 f9bc f451 b1bd
00000180: 003d 58bd c307 48bc 662c 2bbd 5f25 0cc3
00000190: b9e4 49bd 5b59 30bd 16ad 733b 486c 12bc
000001a0: 5551 1343 9cf9 023d 6b57 9fbd f644 2143
000001b0: b24a c0c1 79d5 24c3 a2a8 5dbb e8c3 4cc1
000001c0: 273c 0342 5411 bfbd 8e83 d9c2 077d 8e3f
000001d0: 2d92 48bd 4de7 73bd fe77 22bb 0cc9 c3bd
000001e0: 2dd6 98bd 8760 c842 531e ecc2 148a 1ac2
000001f0: 34df a83f f23c dd3a c95d fbbc 5ba8 553f
00000200: f648 db42 158a 533c c32c 5a3f 7c5f c33f
00000210: c55c eac2 f12c d4c2 ac22 c0c0 09a9 0942
00000220: a029 a73b 6e2d 0d3d a265 04bd d9c7 0ac3
00000230: f486 b0bf f31f 19c3 d5e1 ad41 770b 1943
00000240: 42c0 b5bc 174e c2c2 b59a b33b 0af6 a8bd
00000250: 66ae ec42 f29e 2642 0533 b5c2 ac7a a03c
00000260: d232 1143 4121 0142 c63c a5c2 d6f5 13c3
00000270: 92f4 6e41 3df3 6fbd 8f80 3341 44b2 2043
00000280: 057e 0e40 8677 b0bd 98f5 fb3c 2db2 61bd
00000290: 2425 bdbd cc81 acbd 787b 233d b2a1 54bd
000002a0: defc bcbd d6e4 743e f48d 2940 b6cf 453d
000002b0: f93f 98bd b48d ad42 b3b2 1543 3621 a83c
000002c0: 4153 16bd 898c 8bbd 0509 4b3d 0c35 eebc
000002d0: 2412 ec3c c806 1a43 60dc 0542 79fb aa3d
000002e0: 1ad2 ebbc 05c2 793c eb21 1d43 a116 c7bb
000002f0: 2944 0e43 40fe b2bc 0f7f 903c 92f1 fcc2
00000300: af7d 503c 19d7 27bd d55a 273d 6bfb 2143
00000310: 5888 bebc 405c 2fbb 3a83 ddbc 8406 1a3d
00000320: b4af 6cbd 217e 1643 8bee 563f 0d23 883f
00000330: 43af 2bc2 be55 a9bd 4222 84bc ae2d 83bc
00000340: b41f 32bc 5e76 8b42 97e4 83bd 0236 84c2
00000350: a88f 5cbd 2554 a1bd 1d41 16c3 61c2 443c
00000360: 87e0 0143 8fd2 94c2 3e10 78bd 3d66 813b
00000370: e2be 3f3c dec3 3dbd 7073 45bc 97d8 7abd
00000380: 81a9 1443 2fc1 b53b a192 8640 b826 2b43
00000390: be2a f1bc 7c5a 78c1 1b95 15c3 5664 30bc
000003a0: 8c8e e042 af97 adbc e746 80bd 0997 a8bd
000003b0: 8724 c6bc de92 01bd ce3a 0b43 a5e3 febc
000003c0: fe3b 2343 25e1 3e3d 0a52 c9c2 f194 0cbc
000003d0: bb09 d53c 8c03 b3bd 5c44 4fbc 8ec0 733a
000003e0: 4011 f5bc ba7d afbd 1428 653d a348 8c3f
000003f0: e19c f2c2 9e51 d9bd eb4d 1bbd a80d d542
-0.055599175 -0.023494838 -0.055558965 0.0049224417 -98.1402 -0.0026840034 0.01194023 0.017781565
95.33364 -0.08798171 0.0027020846 156.3137 139.86018 -0.017264957 0.0053306315 -0.05162586
0.037259117 -0.0005056043 -0.021828275 -113.66379 1.4014373 92.43861 -0.061043132 -0.08485164
-0.029353347 84.45387 -23.342155 32.41699 0.024086917 -0.0818409 91.19268 -0.074651465
-0.043569405 -0.017566167 0.01856253 0.032580275 -0.037373632 -0.042609245 149.23021 -0.037767947
-0.07801493 -0.016070453 0.022754805 -0.03409617 -0.05397559 68.35443 -0.0035929384 -0.045044024
-0.069671005 -35.920467 0.0046283663 -0.0026059116 -0.022743024 -0.060697604 -0.050513934 123.03607
-0.033945497 -0.0010120862 -0.06435292 -0.053879745 -0.023571318 -0.0077631404 147.61443 -0.08421789
-0.04351876 0.057876937 0.042488337 -0.059985757 -0.04231091 -0.047311373 6.668998e-05 -0.048669264
0.1707248 -92.80408 -17.617647 0.026707195 -0.034312315 122.3906 -0.015850328 0.017150797
-0.39522833 -55.961514 27.618708 0.045780122 0.017100448 0.002243214 -0.08513779 9.79198
-0.09356455 -101.421486 -144.3671 0.013858279 133.4696 -6.302409e-05 -0.030513896 -0.086582094
-0.05279255 -0.012208882 -0.04179039 -140.14598 -0.049290393 -0.043053966 0.0037182025 -0.008936949
147.3177 0.031976327 -0.077803455 161.26938 -24.036472 -164.83388 -0.0033822437 -12.797829
32.808743 -0.09329477 -108.75694 1.1131905 -0.04896753 -0.059546757 -0.002479076 -0.09559831
-0.07462726 100.18853 -118.05923 -38.634842 1.3193116 0.0016879125 -0.030684369 0.83460015
109.6425 0.012911339 0.8522455 1.5263515 -117.18119 -106.087776 -6.0042324 34.415073
0.0051013976 0.034467153 -0.032323487 -138.78065 -1.3791184 -153.1248 21.73527 153.04478
-0.022186402 -97.15252 0.005481089 -0.08250053 118.34062 41.65522 -90.59965 0.019589745
145.19852 32.282475 -82.6187 -147.9603 14.93471 -0.05858158 11.218886 160.69635
2.2264416 -0.08616547 0.030756757 -0.055101562 -0.092356 -0.08423194 0.03991267 -0.051912017
-0.09227918 0.23915419 2.6492891 0.04829379 -0.07434077 86.776764 149.69804 0.020523649
-0.03670049 -0.06813914 0.04956915 -0.02907803 0.028817244 154.02649 33.46521 0.08348746
-0.028786708 0.015244012 157.13249 -0.0060756956 142.26625 -0.021849751 0.017638711 -126.47182
0.012725278 -0.040976617 0.04085811 161.9821 -0.023258373 -0.0026757866 -0.027040113 0.03760387
-0.05778475 150.49269 0.8395774 1.0635697 -42.921154 -0.08268307 -0.016129617 -0.016012993
-0.010871816 69.731186 -0.064400844 -66.105484 -0.05384794 -0.078773774 -150.25435 0.012009234
129.87706 -74.41125 -0.060562365 0.0039489553 0.011703225 -0.04632937 -0.012051448 -0.061241712
148.66212 0.005546711 4.205399 171.15125 -0.029439326 -15.522091 -149.58244 -0.010766109
112.27841 -0.021190492 -0.062635235 -0.08231933 -0.02418734 -0.031634204 139.2297 -0.031114409
163.23434 0.046601433 -100.66023 -0.008580432 0.026005616 -0.08740911 -0.0126505755 0.0009298407
-0.029915452 -0.08568902 0.055946425 1.0959667 -121.306404 -0.1061127 -0.037916105 106.52667

main.4.weight f4 [256, 256]
00000000: c267 92bc ed0c 163c 6f27 11bc e191 05bd
00000010: ff9b 863d 0faf c23c d4cb 323d 9026 873d
00000020: b28f a73e 0f20 a5bd 967e f83c d945 843f
00000030: 7f6e 213f a286 c1bd 41e1 833b 91cf a5bd
00000040: c0ed ef3b dd5e 4ebc 880d 4bbd f3ab 8a40
00000050: 9efd ae3d fa05 a340 aab5 e03d 30df 92bd
00000060: edb2 c1bc 0a84 673e e8a3 b8bd de6e 2bbe
00000070: 55ca 55bd 69e9 26bb 621d cc3f 1750 edbc
00000080: 86ac a7bc fb0d 26bd 72eb 413a 55ce c2bc
00000090: b52f 9fbc c99f 6ebc cb35 1e3f f11f d53c
000000a0: 8b2f 873c 163c 12bd 42b1 513c 1c4e 223d
000000b0: 5c6c 1fbd a78d d33e 116d 9abd 8bc8 fb3c
000000c0: 1539 233d 9a00 0b3f 33af 863d 9bc7 833c
000000d0: 9f42 6a3d c412 383c d875 1ebd a1e9 593f
000000e0: 21b7 eb3c 4bb9 d53c 4837 abbc aaeb aa3c
000000f0: 3c0a 1dbd c260 9f3c 4a31 fc3e 8a97 a4bc
00000100: 3377 083d 8e19 93bc bae1 57bd 02ad 38bd
00000110: 248f 16bd 3854 6fbc ff25 fc3c 5ce8 2f3c
00000120: c0b5 3bbd b516 9e3f 5aa5 cc3e e99e 80bd
00000130: 0b67 b9bd 71a0 a13d f14a c53d d0ad e03c
00000140: 55d8 963e 4e38 a33e 0670 723e a877 733c
00000150: 0a9b dd3c 529a e9bc 72ec cd3c dcc2 893e
00000160: 8a95 07bc 38a7 fb3e 4bb1 103f eb31 27bd
00000170: 7673 6d3e 6d32 b03c c03c 98bd 605b 823b
00000180: d8c6 3d3d 0078 cbbc 90d6 563c 0c28 943e
00000190: 6e08 e1ba fd1b 923d 0af3 b23d a739 85bb
000001a0: b536 173f 325f 10bd 93b4 5f3d baca 133f
000001b0: fdaa 7a3e 69f8 253f dc91 cabc 41e8 0f3f
000001c0: 8fcc 0f3f c0c2 babb c746 b4be 9c8f 1c3d
000001d0: e193 3a3d f3bd 023c 0cd8 a7bd a300 a9bd
000001e0: a843 0ebc ad6e fc3d 76fe 8c3f c18b 44c0
000001f0: f0a6 d8bb 8187 aa3d 9188 09bd 563b db3d
00000200: 9884 1c3e 6bda 83bc c287 6abd 5f74 83bd
00000210: 4cd1 583f ec3a a7bf 604a 27bf 9931 2b3d
00000220: ba8e 17bd 197f a6bd ef38 9e3c e555 8fbf
00000230: 45db 49bc 3748 03bf 104f 55bf 1522 663f
00000240: 9aaa de3c 5b7f 8a3d 146e b63d ebcc 213c
00000250: 918f 04bd a28c 9e3d 3d34 f63f 9956 9dbd
00000260: 3d77 84bf 0f1c 923f 10f2 2f3f 8a1c 6f3e
00000270: bb7a 893e c4e5 023d 7c9b bdbb 435d 203f
00000280: 43a1 553c d7f6 a9bd 6920 45bd d5d9 e43c
00000290: f712 8cbc 49d2 11bd fc43 b83c bcf2 543c
000002a0: a9cf 04bc 372a 263d a1f2 a7bd ba52 3bbd
000002b0: 7671 8e3d ac0e d23e d50a 1a3f 0af6 51bd
000002c0: 09c8 c4bc fae1 0f3c ef7b 91bd 280e e33c
000002d0: 5e33 683d c87d 3f3f 3e3b d13f aec2 2dbd
000002e0: da6c 273d f23f 2cbd 2903 773f f146 743d
000002f0: 0118 923f 3648 a9bc 9eb1 223a db45 cfbf
00000300: bb41 bc3c fe06 02bd 83be 273d 4789 0c3f
00000310: d74e 173d 8001 88ba 10b6 11bc 0d61 21bd
00000320: be21 bfbc cd80 f23e 0988 10bc 2abe 633d
00000330: 42be eb3e 9ea0 4cbc a654 96ba b32d 14bc
00000340: d2a9 0e3d 3284 d43e 35a0 bf3d cc15 373f
00000350: 4424 493c 8f35 6b3d 9258 8cbf 9951 e63c
00000360: 80cc 353f c0c5 173e 9f17 b7bd 8e20 84bd
00000370: aadf 663d 5e0e 4a3d 9635 32bd f91f 65bd
00000380: 9add d23e 1e01 9fbd 5bea 63bc 7a4a fc3e
00000390: 5fb5 fb3c 51a2 263e 6967 4ebe 9baf afbc
000003a0: abcc aa3e 68bf c1bc 401e 613d 4727 46bc
000003b0: 5cd3 303c 9a00 f9bb f964 3cbe 6a00 85bd
000003c0: 0f8f fe3e 6523 533d c87e a7bf e3b5 ce3c
000003d0: 31d7 7fbd 0907 9abc 4667 f6bc ec01 2e3d
000003e0: 4724 b53b efca 1dbd d7b9 3dbd 2710 b93c
000003f0: 21e6 833b a48c 97bc 8227 5fbd a7f7 153f
-0.017871741 0.009158355 -0.008859499 -0.032609824 0.06572723 0.023765115 0.043651417 0.06599152
0.32726818 -0.08062755 0.030333798 1.0333816 0.6305923 -0.09449507 0.004024655 -0.08096231
0.007322043 -0.012595859 -0.04957345 4.33349 0.085444674 5.0944796 0.1097215 -0.07171476
-0.023644889 0.22608963 -0.09015638 -0.16741511 -0.052194912 -0.0025468713 1.5946467 -0.028968854
-0.020468008 -0.040540677 0.000739745 -0.023780027 -0.019431928 -0.014564463 0.6180083 0.026016207
0.016502162 -0.035701834 0.012798609 0.039625272 -0.0389217 0.4131901 -0.07540334 0.030735275
0.03984936 0.5429779 0.06576385 0.01608639 0.05719244 0.011234943 -0.038686603 0.85122114
0.028773846 0.026089331 -0.020900384 0.020864327 -0.03833984 0.019455317 0.49256355 -0.02009179
0.033316802 -0.017956521 -0.052705504 -0.045086868 -0.036757603 -0.014607482 0.030779837 0.010736551
-0.045827627 1.235068 0.39969903 -0.0628031 -0.09052857 0.0789193 0.096334346 0.02742663
0.29461923 0.31878895 0.23675546 0.014860071 0.027051467 -0.028515968 0.02513716 0.26906478
-0.008275399 0.49151015 0.5652053 -0.04081909 0.23188576 0.02150842 -0.07433462 0.003978178
0.04633221 -0.024837494 0.013112679 0.28936803 -0.001716865 0.071342446 0.08737762 -0.0040657106
0.5906785 -0.035247035 0.05461557 0.5773121 0.2447929 0.6483217 -0.024727754 0.56213766
0.56171507 -0.0056994855 -0.3521025 0.038222894 0.045551185 0.007979858 -0.081955045 -0.082520746
-0.008683123 0.12325797 1.1015155 -3.07103 -0.0066116974 0.083266266 -0.033577505 0.10704677
0.15284956 -0.01609536 -0.057258375 -0.064186804 0.8469436 -1.3064857 -0.6534786 0.041795347
-0.03700135 -0.08129711 0.019314257 -1.1198088 -0.012320344 -0.51282066 -0.83323765 0.89895755
0.027180959 0.067625724 0.089077145 0.009875516 -0.032363478 0.07741667 1.9234692 -0.07682533
-1.0348889 1.1414813 0.68728733 0.2335073 0.26851448 0.031957403 -0.0057863574 0.62642306
0.013038936 -0.08299034 -0.04812661 0.027935902 -0.017098887 -0.035600934 0.022493355 0.0129973255
-0.008106151 0.040567603 -0.08200575 -0.04573319 0.06955235 0.4102682 0.6017278 -0.05126003
-0.024021165 0.008781904 -0.071037166 0.027716711 0.056689613 0.748013 1.6346204 -0.04242199
0.040875293 -0.04205317 0.96489197 0.059637967 1.1413575 -0.020664316 0.00062062766 -1.6193193
0.022980561 -0.03174495 0.04095317 0.5489697 0.036940422 -0.0010376424 -0.008893505 -0.039399195
-0.02333152 0.47363892 -0.008821496 0.055601276 0.46043593 -0.012489466 -0.0011469319 -0.009044099
0.034829922 0.41507107 0.09356729 0.71517634 0.012276713 0.057424124 -1.096453 0.02811508
0.7101517 0.1482153 -0.08940052 -0.06451522 0.056365646 0.049330108 -0.043508135 -0.055938695
0.41184694 -0.07763885 -0.013910855 0.4927557 0.030726133 0.16272856 -0.20156635 -0.02144604
0.33359274 -0.02365084 0.05496049 -0.012094325 0.0107925795 -0.0075989487 -0.18397893 -0.064942196
0.4971852 0.051547427 -1.3085566 0.025233215 -0.062461082 -0.018802183 -0.030078541 0.0424823
0.0055280062 -0.03852361 -0.04631981 0.02259071 0.0040252362 -0.01849968 -0.054481037 0.5858101

main.4.bias f4 [256]
00000000: 4897 fd42 eb79 0943 575e de42 41a4 0143
00000010: 7b39 2e3d 8722 f742 bab3 1ac3 2513 07c1
00000020: 7512 173d 79e8 f942 5ba7 8dc2 7dc8 0b43
00000030: 8ef6 0e43 403f 00c3 a83f 303e 4224 92c1
00000040: f576 1e3c d4c7 3d43 ce30 d9bc 5911 72bc
00000050: 1335 5a42 f20d 20bd 3155 25c3 8e50 0343
00000060: 4923 eb42 0f50 b3c2 04e9 0a43 ed62 4243
00000070: a759 c9bd af80 0943 0c4f b8bd ef20 ec41
00000080: e2d5 f142 2f7c 1343 c16f 6142 37ec 0343
00000090: fa26 54bc 9003 1c43 5ad1 0643 f427 5cc3
000000a0: ace7 0943 68e4 2d43 285c 24bd b917 d5bd
000000b0: baa8 3843 6434 7f3c 6584 bcbd 0ad3 3fbd
000000c0: e334 85bc f446 a73c 9965 8f3b 0918 a8bd
000000d0: 1b17 e73c 3562 bdbd 99ad 1aba 4a38 0b43
000000e0: c077 2343 5017 0743 5d36 5cbd 8b8a eb42
000000f0: ad2f e3bd 8dec 1f43 2560 98bd feda c3bc
00000100: 0220 0d43 10dc 673c ee6b 26c3 d8a7 d4bc
00000110: 5923 0b43 22c4 0ebe 97b0 1cbd 8ab0 0443
00000120: ad02 e7bc b030 1e43 a7a1 fe42 ba9e 0c43
00000130: 8eec e9c2 d530 0843 e955 98c0 e2f6 0443
00000140: b127 2543 a74c 89bd dc28 c43e 9bd2 0843
00000150: d2ea 0243 11eb 16bd 82e7 dfbc 8525 cd3c
00000160: d368 77bd 4388 ffc1 915f 8dbc 1ab3 62bd
00000170: 6428 04c1 8372 8cbd 2ca0 8cbd 820c 2dbd
00000180: 79aa 0643 47c0 0443 ba95 51c2 915c 8bbd
00000190: b4ff d8bc 4689 fdbc 66f8 0243 cdad 3dbd
000001a0: 52cd 9fbd 2ade f4bc 95f5 ff42 7277 c5c2
000001b0: ed58 b13a a0e8 9ebd 636e f842 8d51 fb42
000001c0: e4cc fe42 a858 0e3c 64af 0343 d81a 0343
000001d0: ad58 0843 584f 03bd 4d3c 84bd 8b43 f642
000001e0: 1472 df40 176a 7ebd 360e 0b43 d56d a842
000001f0: c4fc 9cbd 9a71 1f43 bacf 86bc 44c9 093d
00000200: 5735 16bd f410 0c43 e95e 22bb 802b 19c3
00000210: 1889 0843 667f ff42 1716 9eb8 3df7 1443
00000220: b002 08c2 792d a2bd 800a 83bc 1e9e 0c43
00000230: 5a62 fe42 9dcc 11bd 7f2a 13bd 7586 0f43
00000240: cdc1 0c43 8283 c4bd 94f0 ef42 e075 3042
00000250: d48c 7abd 7a3d abbd 8d7b dcc2 e478 0ebd
00000260: 9afa 9c3d 3ccf ec42 f05b 59bd 6d0f 713c
00000270: c9c0 bebd 12e5 33bd a662 1143 3732 eebd
00000280: 956b d0bd da3d 9cbd 7e3f 7fbd cb8a f242
00000290: 3e35 7cbd 4374 fcbc 292c e6bd 85a3 fb42
000002a0: 864c 46bd c58b 11bd 8387 ff42 d45c c6bb
000002b0: 8476 1dc3 8123 0a43 51a3 f842 1884 69bd
000002c0: 6404 8ebd d8fa 00be d00c 0d43 a8ea 363d
000002d0: 4269 5dbd da3d 2fbd 4359 5cc3 ead5 0443
000002e0: b4bd 89bd e72b 0b43 ac22 06bf 0a58 f8bc
000002f0: e82a 6fbd fe82 08bd ef69 9fbd 3958 ff42
00000300: 9e67 bbbd a8a9 0343 417f ff42 da7a 0143
00000310: a30f 35bd a86e e2c2 ccc3 7142 1ec4 51bc
00000320: b009 1043 959a 7340 4744 76bd d362 ff42
00000330: 6f7c f1bc 6e0e 9bbd 44bd 0a43 d9e9 7b42
00000340: d29b c7c2 f690 88bd 7c91 803b d392 edbd
00000350: 68c5 92bd ed1e 0043 1d1e 5e3c 55b7 033d
00000360: 859c 4cbd e2da d7bd 563c 943c cd9e 2043
00000370: fb7a be3c 5d6e 39bc c4a0 c83e 5555 03c3
00000380: 63bf 22c1 19c4 1343 0b0d a6bd 4069 cfbd
00000390: 333d da42 869c 4ebd c090 abc2 883d 0743
000003a0: a016 0a43 c374 0143 b213 1c3d cf32 0843
000003b0: 02fb 74bd a828 8bbd e410 1743 a4cc 1b3f
000003c0: 4d75 0343 2325 cfbc 4aae 0643 8310 0dbd
000003d0: c9d0 463c 0755 69bd 99fb 1943 96da 2cbe
000003e0: fb57 8942 494b 213b fdbf dc38 6afa ff42
000003f0: 3e1d 8b3c 3e72 b4bd 22a4 95bd 7da9 bdc2
126.79547 137.47624 111.18426 129.64162 0.042535286 123.56744 -154.70206 -8.442174
0.036882836 124.95405 -70.826866 139.78316 142.9631 -128.24707 0.17211783 -18.267704
0.009671916 189.78058 -0.02651253 -0.014774644 54.55183 -0.0390758 -165.33278 131.31467
117.56892 -89.656364 138.91022 194.38643 -0.09831553 137.50267 -0.08999452 29.51608
120.91774 147.48509 56.359135 131.92271 -0.012948746 156.01392 134.81778 -220.15607
137.90497 173.89221 -0.04012695 -0.10404915 184.65909 0.015576456 -0.0920494 -0.046832122
-0.01626057 0.020419575 0.004376125 -0.08207709 0.02820926 -0.09247247 -0.0005900502 139.21988
163.46777 135.09106 -0.053762782 117.77059 -0.11093078 159.92403 -0.07440213 -0.023908135
141.12503 0.014151588 -166.4216 -0.02595894 139.13808 -0.13942006 -0.038254347 132.6896
-0.028199518 158.19019 127.31573 140.62003 -116.96202 136.19075 -4.760487 132.96439
165.15504 -0.067040734 0.38312423 136.82268 130.91727 -0.03684527 -0.027332071 0.025042305
-0.060402703 -31.941534 -0.017257484 -0.055346586 -8.259861 -0.06857779 -0.06866488 -0.042248257
134.66591 132.75108 -52.396217 -0.06804765 -0.026489116 -0.030949246 130.9703 -0.046308327
-0.078028336 -0.029891092 127.97965 -98.73329 0.001353053 -0.077592134 124.2156 125.65928
127.40018 0.0086881295 131.68512 131.10486 136.34639 -0.03205809 -0.06456814 123.13192
6.9826756 -0.062112894 139.05551 84.214516 -0.07665399 159.44376 -0.016456474 0.033639207
-0.036671963 140.06622 -0.002477581 -153.16992 136.53552 127.748825 -7.538142e-05 148.96577
-34.002625 -0.079188295 -0.015996218 140.61765 127.19209 -0.035595525 -0.0359292 143.52522
140.75703 -0.095953956 119.96988 44.115112 -0.06116946 -0.08361335 -110.24131 -0.03478326
0.07664986 118.404755 -0.053066194 0.01471315 -0.093141146 -0.04391963 145.38535 -0.116306715
-0.1017677 -0.07628985 -0.06231641 121.27108 -0.061574213 -0.030817157 -0.11238892 125.819374
-0.048412822 -0.035533685 127.76467 -0.0060535464 -157.46295 138.13869 124.31898 -0.05701074
-0.06934431 -0.1259569 141.05005 0.04465738 -0.05405546 -0.042783596 -220.34868 132.8356
-0.06725636 139.1715 -0.52396655 -0.030315418 -0.058390528 -0.03332805 -0.07783877 127.67231
-0.09150623 131.66272 127.74854 129.47989 -0.044204365 -113.216125 60.441208 -0.012803106
144.03784 3.80631 -0.060123708 127.693016 -0.02947828 -0.075711116 138.73932 62.978367
-99.80434 -0.06668274 0.003923593 -0.1160027 -0.071665585 128.1208 0.013556984 0.03215726
-0.049953956 -0.105397955 0.018095177 160.62032 0.023252001 -0.011317817 0.39185154 -131.33333
-10.171725 147.766 -0.081079565 -0.10127497 109.11953 -0.05044224 -85.782715 135.24036
138.08838 129.4561 0.03810472 136.19847 -0.059809692 -0.06794864 151.06598 0.6085913
131.4582 -0.025286263 134.68082 -0.034439575 0.012134739 -0.056965854 153.9828 -0.16880259
68.67184 0.0024611524 0.00010526178 127.98909 0.016981717 -0.088108525 -0.073066965 -94.83103

main.6.weight f4 [4, 256]
00000000: aaa8 f23e ab0d 6e3e 8ed0 8fc0 a63d 253f
00000010: 5644 eebc 05b9 bebf 18c9 3bc0 7a4a 593f
00000020: 19c5 8abb a1af ba3e 9ded 0040 0a3a 5fbf
00000030: 74f6 523f 7cb6 95c1 e909 c23f 4a31 c9bf
00000040: dcb8 2d3d e8db 1042 61d7 c9bc cff7 d23c
00000050: b03b 0c41 ef4e 983b 19c5 bac0 0a61 413f
00000060: 2632 d4bd 360a 3340 4110 263f 0346 fa41
00000070: 955c ecbc a3a5 3b3e 0d07 4a3c d7f9 65c0
00000080: 9f04 dcbe eb3d ec40 9064 bfbe c51e 473f
00000090: f7b0 3e3b a11e 2541 504a 2940 27f3 01c1
000000a0: c011 9d3f 2205 a140 ef1d 80bd 32cc acbc
000000b0: cd60 c040 707a e2bc 88cd fbbc 4e9c 613d
000000c0: 58af 833d db42 fa3a 3d68 163d bdf5 41bd
000000d0: b3f0 80bb 84c2 5ebc adcc d5bc bf2f 8140
000000e0: 6cff 4c41 97a5 9d3f 6a6c 8a3c d96d 293d
000000f0: 9e51 31bb bb72 9741 9be8 debb e624 f93a
00000100: 5430 8c3f 1831 dabc 02cc aec0 45cc 8bbd
00000110: a0e7 ad3f e416 d53b b521 193c cbb3 633f
00000120: 670c 63bc 1bc7 0141 9453 6cbf 88f9 18c0
00000130: 2d93 03c2 fcf8 323f f0ab 76c0 6f8f 713f
00000140: 6436 d341 cfc7 16bd 2e3d bf40 7149 bc3e
00000150: b85a 6b3f 4687 883d dc8d 7dbc 3f4a 683d
00000160: 2310 a03c c93a b640 5ea5 523d c148 373d
00000170: d57a fcc0 d858 dbbc 65b9 cdbb c35c 26bd
00000180: 0f26 9a3e 8dc4 533f 8eb8 dec0 9537 2dbd
00000190: 3cb8 8a3c 8f25 3fbd 9e2f 373f dd67 213c
000001a0: b83d b2bc 8ea0 943c 9aee 063f a623 9240
000001b0: 8b45 1ebd 8fac 69bc 7d40 7e40 d5aa 023f
000001c0: a561 8b3e 20b6 ec3b aeae 283e b2fb 67c0
000001d0: 5e36 8b3f b9dc 0dbb 9978 f93c 33e6 c93e
000001e0: aa99 2d41 6723 ac3d 1129 6c3e b4cc 21c0
000001f0: 390e cc3b 7c53 e740 899a 5ebc 6b48 2d3d
00000200: 90ea 16bd a2b1 09c1 8d8c 6ebc 563f 6cc1
00000210: 7f0a 0ebf e19e 233f 16c2 49be adf1 7840
00000220: 48dc 883f c214 a2b9 23d1 1f3d 5ea0 bc40
00000230: f183 fe3e a976 143c 3907 0ebd 6f07 c33f
00000240: 9338 ad3f 93d4 f93c cd7c 24be 5f08 d440
00000250: 4da3 f3bb b402 a43c acd0 61c1 c5e8 1cbd
00000260: ae2e 3fbd 05ce 0abf 069c 20bd 866e aabc
00000270: 0f79 db3c ccbf d0bc 0be8 d940 ef69 93bc
00000280: f415 80bc 2aa8 cf3c 031f b23b c3b7 cb3f
00000290: 990f ddbc abb4 d43c 65c6 5abd ed08 343f
000002a0: a094 473d 09ba 703d 322f 863d b251 56bc
000002b0: cd76 6fc0 9c14 4a3f 7c74 9e3e e258 2c3d
000002c0: f8db 5fbd d8f2 2bbb 126e 0cbf dfd0 34bd
000002d0: 49ea 973c c6db 1dbd f8f8 ffc0 4fc2 00bf
000002e0: 883d 37bd f66c a53f debd a7bd 51e9 6bbd
000002f0: d3d4 013c 33bc 393c ca75 333c f18d 123f
00000300: 4ec2 26bc 61a6 4d3f 19eb b93d 0eeb 883e
00000310: e524 48bc 9677 7dc1 594e cf40 bf23 293d
00000320: accf 2341 5674 48bf 8c18 073d 1ce5 1c3f
00000330: c058 3cbc e3d3 0f3d 1287 4940 c167 f03f
00000340: 850c 4bc1 46be aabd a64c 34bd 10d7 2b3d
00000350: 9f8b a73c 37b2 423e 9ff7 6b3d 835d 2d3d
00000360: 0ef3 f2bc 9f51 53bd 4c2b d33c d4ab 8f41
00000370: 249a 443d c6e7 08bb ee09 5bbf dc25 83c1
00000380: e559 3640 215e 6bc0 72ea f0bc d2d5 73bb
00000390: 18e1 6ebe 3d7d 00bd 94be 41c0 5201 39bf
000003a0: 6acd 8a3f cebd f8bf 998e 0b3d 2c1d cebe
000003b0: 4721 26c0 4de9 1cbc 921c 4d3e 5f69 90c0
000003c0: da59 393f c2cf 533d 038a 433f 530f 9cbb
000003d0: 4db4 8a3c 6d7a 3fbd 57ae e040 392f 91bd
000003e0: 3318 00c0 f15e 04bd a071 9dbc 0e92 c83e
000003f0: 721b 4fbd dcfc 62bb c056 4dbc f335 95bf
0.47394305 0.23247401 -4.4942083 0.64547193 -0.02908532 -1.4900213 -2.9341488 0.8487927
-0.0042349217 0.3646212 2.0145028 -0.87197936 0.8240731 -18.714104 1.5159274 -1.5718167
0.042412624 36.214752 -0.024638833 0.02575293 8.764572 0.0046480815 -5.83656 0.75538695
-0.103611276 2.7974982 0.6486855 31.284185 -0.02885274 0.18324904 0.012330783 -3.593374
-0.42972276 7.3825583 -0.3738141 0.77781326 0.0029097178 10.319978 2.6451607 -8.121863
1.2271042 5.0318766 -0.062557094 -0.021093462 6.0118165 -0.027646273 -0.030737653 0.055080704
0.064299285 0.0019093411 0.036720503 -0.047353495 -0.0039349436 -0.013596181 -0.026098574 4.0370784
12.812359 1.2316159 0.016897399 0.041364525 -0.0027056704 18.93102 -0.006802631 0.0019008189
1.0952249 -0.026634738 -5.4624033 -0.06826071 1.3586311 0.006502973 0.009346415 0.8894622
-0.013857937 8.11111 -0.9231503 -2.3902302 -32.893726 0.6991117 -3.8542442 0.9435949
26.401558 -0.036811646 5.976218 0.3677478 0.919353 0.06666426 -0.015475716 0.05671143
0.019538945 5.694676 0.051427238 0.044747118 -7.889994 -0.026775762 -0.0062782043 -0.04061581
0.3010716 0.8272179 -6.9600286 -0.042289335 0.016933553 -0.046666678 0.71557033 0.009851423
-0.021757945 0.018142965 0.5270783 4.5668516 -0.03864054 -0.014262333 3.972686 0.5104192
0.27222934 0.0072238594 0.16472885 -3.6247373 1.0875967 -0.0021646454 0.030453013 0.3943344
10.850016 0.0840519 0.2306254 -2.528119 0.0062272814 7.228941 -0.013586649 0.04230539
-0.03684479 -8.605867 -0.014559877 -14.765463 -0.55484766 0.63914305 -0.19702944 3.8897507
1.0692225 -0.00030914514 0.039017808 5.894576 0.49710038 0.009061494 -0.034674857 1.5236644
1.353289 0.030496871 -0.16063233 6.626022 -0.0074352385 0.02002082 -14.113445 -0.038307924
-0.046675377 -0.5422061 -0.039211296 -0.020804655 0.026791124 -0.02548208 6.8095756 -0.017994849
-0.015635468 0.025348742 0.005435826 1.5915455 -0.026984977 0.025965055 -0.05341186 0.7032612
0.048725724 0.058771167 0.065519705 -0.013081001 -3.741626 0.789377 0.30948246 0.042076953
-0.054653138 -0.0026237275 -0.54855454 -0.044144507 0.018544333 -0.03853967 -7.9991417 -0.5029649
-0.044736415 1.2923877 -0.08190511 -0.057595555 0.007924276 0.011336374 0.010953376 0.57247835
-0.010178162 0.80332 0.090780444 0.26741832 -0.012215828 -15.841696 6.478314 0.041293856
10.238201 -0.78302515 0.032982394 0.61287093 -0.011495769 0.03511418 3.148869 1.8781663
-12.690557 -0.08337073 -0.04401841 0.041953146 0.020452319 0.19013296 0.057609197 0.042325508
-0.029656913 -0.05159151 0.025777481 17.9589 0.047998562 -0.00208901 -0.85562027 -16.393486
2.8492367 -3.6776202 -0.029408667 -0.0037206304 -0.23328054 -0.031369437 -3.027257 -0.7226764
1.0843937 -1.9432924 0.03407154 -0.4025663 -2.595781 -0.009577108 0.2003043 -4.5128627
0.7240273 0.051711805 0.76382464 -0.004762569 0.016931677 -0.046747614 7.0212817 -0.07089085
-2.001477 -0.032317106 -0.01921922 0.3917393 -0.050563283 -0.003463558 -0.01253289 -1.1657089

main.6.bias f4 [4]
00000000: d660 3343 7320 3443 b997 e742 8c64 bb42
179.37827 180.12675 115.79633 93.69638
