src/episode_200.pth (torch, 540912 bytes, 8 tensors)

main.0.weight f4 [256, 6]
00000000: 1664 a83c 2d01 6140 e743 f13f 8909 41c1
00000010: 1251 31bf 62c0 25c1 f3d4 cebe 6a0d a13f
00000020: 474b 68c2 bbef 9dc1 09f5 063f 278e 8e3f
00000030: 3293 843a bc9a 063e c414 10bf 5eb7 c03f
00000040: da18 e33c 9ad6 c440 2229 43be 581e d53d
00000050: f69b 40be 181a 44bd 00cb 29be eea8 8a3e
00000060: 23ff a4be 41b9 40be 6817 ecbd 165c 7bbe
00000070: 78d3 1d3d a272 cebe d1d3 3b3c b988 1bbf
00000080: cfcd 7fbf 0c85 9bc0 20f3 0a3e 3acc df40
00000090: 2869 4e3c fb97 4440 ab1b f3bf 5ea9 18c1
000000a0: c1ae 993d 1c7a f840 7a4d 8c3a ea07 9d3f
000000b0: f387 08c1 e0a3 2e41 35ec 84be b30d 0c41
000000c0: 6feb 2b3d acf7 dcbf 0eb5 03c0 2f82 9ec0
000000d0: b2cd c53e 8e18 df40 a740 8a3b 72aa 92bd
000000e0: f296 bc3f d151 9fc1 ee4b dc3c f3cf aec1
000000f0: d187 983b cdbd 02bf 5643 fcbf 89b5 4bc0
00000100: 621a f43e f3ba e440 46b7 083c e7f8 0bbf
00000110: abb9 7dbf 23ce a43f 5f13 e93d 360a cf40
00000120: 3453 c83c 6bd3 e83d 4f65 73c1 b176 86c1
00000130: f74f 1bbd 3e94 c640 74ff 803b df5d 533f
00000140: 01fc ddbf aae9 9141 8e4c 20be f84e 2541
00000150: b032 f53b 053d 983e b7e7 2dc0 d763 57c1
00000160: 5be9 a7bd 8652 b8c1 eda3 333e 497a dfbf
00000170: b2ce c83e 6c77 ed40 f13d b4bf 51d2 93c0
00000180: 1497 763d 4474 f73e cde8 aa40 8f4d 91c1
00000190: c0fa 0abe 778e 05c1 90b7 5cbd 1aba 97be
000001a0: 40e5 1c3c a4c7 8ebe a455 b1be d433 66be
000001b0: 0cd0 95bf 94bd 823e b705 6c3f 094c 883f
000001c0: bcdc 153f 6bf2 52c0 ea47 89be 2e26 0bbe
000001d0: a0bd 823d 85ec b7be f71f 34be 6b45 7abe
000001e0: 54b8 753d e3d4 c4bf 07a2 2ac0 517f c0c1
000001f0: 2b19 c6bf 8329 fe40 5065 b3be 6c90 0fbf
00000200: 4c68 9d40 a6ef 3740 2492 013f cced 87c1
00000210: 0a00 b1be c0a6 903e e80b e6bd 7e3f 20be
00000220: 0281 adbe 75cd cfbe 896f 0cbc ea91 c2be
00000230: ca3f eb3e 7e58 0941 fecc b63e ee9a dc40
00000240: 65f4 5dbe 2f90 2a3f 45a8 96c2 256f 8ac1
00000250: 83d9 673f a28f b13f 14c5 303b e9d5 43bf
00000260: 4b68 05c0 eeab dc40 256f ce3e b388 dc40
00000270: 9892 e23c 4d43 0cbf 1824 9340 24b4 e741
00000280: b287 613e 99d7 4ac1 c278 4dba f942 873f
00000290: ea65 1fc0 d001 29c1 3a84 95be feff 0441
000002a0: 11fc b83b beb8 f9bf 5d2b 9b3d bcc3 afc0
000002b0: 06ae 033f 225c 19c1 5cff 43be 2264 00bf
000002c0: 2bac d53e 2105 aa3f be71 bc3e c2ea e7c1
000002d0: d7cb 4e3c 6c67 953f ce0e 70c0 c39f 1ac1
000002e0: 3dad 2a3e 0e70 0a41 2c77 b83c 19de 56bf
000002f0: 80b5 afc1 dce5 fdc0 ecc5 3f3e 89a0 f1bf
00000300: c9c4 333d 020e 643f 5bcf acc0 6049 c7c0
00000310: 7f2f 7dbe 00ba cbc0 2178 c43b 02e5 6b3f
00000320: 0995 2340 cdf8 06c1 ae05 bc3d 30b4 3cc1
00000330: 7d48 55bd 0849 8ebe 3d25 90be fb7f cbbe
00000340: accb 28be aa4b d93d 3fbd 983b d758 2b3f
00000350: 3b34 f8bf 8987 c241 62b5 1cbe 36ff 2341
00000360: 5f12 163c 81d6 c8bf 361e 56c0 872a c1c1
00000370: 67e8 873e 3f28 1641 fad2 e2bc da1a 4bc1
00000380: 53ec 4541 042e e7c1 e71c 2ec1 8da1 6e41
00000390: 5ca8 9dbe 3bd7 9dbf 7eee bd40 b814 6ac2
000003a0: 80f4 163f 5807 4041 d77a e53d 899b 7cbf
000003b0: 2c88 0ac0 2b74 46c1 7c44 203e b53a c2c0
000003c0: 6c33 ed3b feda bebf a1e8 bfbf c75a e341
000003d0: eb67 853e 9a2f f540 3994 88be a4ab 0a3e
000003e0: d47b f8bd fc09 813e e81c 06be 2055 99be
000003f0: 4e6b 03bd 1a4d 40c0 ebcf e341 d61d 2fc1
0.020555537 3.5156968 1.8848847 -12.064828 -0.6926433 -10.359468 -0.40396842 1.2582219
-58.073513 -19.742056 0.52717644 1.1137131 0.0010114668 0.13144964 -0.56281686 1.5055959
0.027721811 6.1511965 -0.1905866 0.10406178 -0.18809494 -0.047876447 -0.16581345 0.27082008
-0.32225904 -0.18820669 -0.11527902 -0.24546847 0.03853175 -0.40321833 0.011464075 -0.607555
-0.99923414 -4.859991 0.13569307 6.99368 0.012598313 3.0717762 -1.8992819 -9.541349
0.07504035 7.764906 0.0010704242 1.226804 -8.533191 10.915009 -0.25961462 8.753345
0.041972574 -1.7263083 -2.0579257 -4.9533916 0.38633496 6.9717474 0.004219133 -0.07161416
1.4733565 -19.91495 0.026891675 -21.851538 0.0046548625 -0.51070863 -1.9708049 -3.182955
0.47676378 7.147821 0.008344477 -0.5467667 -0.9911143 1.2875408 0.11380648 6.4699965
0.024453737 0.1136845 -15.212234 -16.807955 -0.037918057 6.205596 0.0039367024 0.8256511
-1.734253 18.239094 -0.15654203 10.3317795 0.007482849 0.29734054 -2.7172678 -13.461875
-0.08198806 -23.040295 0.17543001 -1.7459193 0.39220196 7.420828 -1.4081403 -4.6194234
0.060202673 0.4833089 5.340918 -18.16287 -0.13572216 -8.347281 -0.053885996 -0.29634172
0.009576142 -0.2788669 -0.3463565 -0.22480708 -1.1704116 0.25535262 0.9219622 1.0648204
0.5853994 -3.296046 -0.2681268 -0.13588783 0.06383824 -0.35922638 -0.17590319 -0.24440543
0.059990242 -1.5377468 -2.6661394 -24.062166 -1.5476431 7.9425673 -0.35038233 -0.56079745
4.9189816 2.874002 0.5061362 -16.991112 -0.34570342 0.2825222 -0.1123274 -0.1564922
-0.33887488 -0.4058644 -0.008571514 -0.3800195 0.45947105 8.584105 0.35703272 6.8939123
-0.2167526 0.66626257 -75.32865 -17.30427 0.9056627 1.3871958 0.0026972936 -0.76498276
-2.0844905 6.8959875 0.40319172 6.891687 0.027657792 -0.5479019 4.598156 28.96296
0.2202442 -12.677636 -0.0007838124 1.0567313 -2.4905953 -10.5629425 -0.29202443 8.312498
0.005645283 -1.9509504 0.0757663 -5.4926434 0.51437414 -9.584993 -0.1914038 -0.5015279
0.41732916 1.3282815 0.36805528 -28.989628 0.012621841 1.1672187 -3.7509036 -9.664004
0.16667648 8.652357 0.022517763 -0.83932644 -21.963623 -7.934309 0.18727845 -1.8877116
0.04388884 0.89083874 -5.400312 -6.227707 -0.2472515 -6.366455 0.005995766 0.92146313
2.5559714 -8.435742 0.09180771 -11.793991 -0.052071083 -0.27790093 -0.2815341 -0.3974608
-0.16483945 0.10610135 0.004661232 0.66932434 -1.939094 24.31618 -0.15303567 10.249807
0.009159653 -1.5690461 -3.345594 -24.145765 0.26544496 9.384826 -0.027688492 -12.694056
12.370196 -28.897469 -10.882056 14.914441 -0.3079251 -1.2331308 5.935363 -58.520233
0.5896683 12.001793 0.112050705 -0.9867483 -2.1645613 -12.403361 0.15651125 -6.0696664
0.007238796 -1.4910581 -1.4992868 28.419325 0.26055846 7.6620607 -0.26675585 0.13542038
-0.12132993 0.2520293 -0.13096964 -0.29947758 -0.032084756 -3.004706 28.476522 -10.944784

main.0.bias f4 [256]
00000000: 5706 c9c1 7373 fac1 6bba fb42 ea6b 06be
00000010: c60d 15be 6918 0743 9e11 eb42 4e91 c8c2
00000020: a721 0143 10f7 1a42 64be 0543 8867 fb42
00000030: cf44 06c3 ec16 cac2 e322 1542 626e 0ec3
00000040: 55bd b642 d0f7 203e 2419 0e3f a434 aa3d
00000050: 3776 1543 f74f 673f 3d17 99be b743 fc42
00000060: 90b6 18c2 231b f642 d8b9 bac2 268e e742
00000070: 42ec a342 9499 843e 567d 0043 08ee 73c1
00000080: 4dfc e8c2 a858 9b42 8178 a33c 213f e5c2
00000090: 5414 0443 bb90 a6c2 51c0 5cc2 646c 9b42
000000a0: 9eba 96c2 6090 2f3e 28d6 a742 810e 91c2
000000b0: ee69 b0c2 4260 a142 d4bc b1be d71b fa3c
000000c0: 9d41 62c1 5a9d 9142 c867 01c3 0f09 7cc0
000000d0: 6a5c f341 c02f 67c2 0c8d 45be b338 abc2
000000e0: e079 cc3d 5a6a 9f3e 3103 8142 62b7 7abe
000000f0: 0ad5 80c2 d4b0 0443 b9ff 4dbf 2441 fc42
00000100: f8c4 f0c2 c2bb 82c2 911f bcbe ca63 e242
00000110: 1ab6 c8c1 4682 ecc1 3e32 a6c2 6535 d140
00000120: 0484 813d b471 553e 1169 d7c2 3ee7 0043
00000130: f034 a3c1 bcfc 88c2 c214 ee42 ea4e 98be
00000140: 6c1f 0443 e68b 1d42 4f06 f742 19b5 7abe
00000150: b204 f4c2 951c 6dc2 fe20 d4c2 3cd8 92c2
00000160: 21f9 aec2 d307 f542 3715 4c42 aa6c c6c2
00000170: 3cca 78c1 8565 edc2 8ed6 863e 3d20 6042
00000180: c997 72c1 21fb 5cc2 bc57 0243 281f a042
00000190: d616 c9be 55a6 303e 4e94 9c41 38c2 d63d
000001a0: 6e4d e1bb 7ca8 113e b9b8 93be eca9 cec2
000001b0: b94e 0043 83aa 89c2 6e52 a2bd f151 18c2
000001c0: c748 89c2 d7ab b7be 60ed 62bc 8adf a2c2
000001d0: 719a ee42 19ea 6540 b18f b3be 6a29 f3c2
000001e0: f017 7b3e 7fed 5c42 44e6 5f3e 3a78 fdc1
000001f0: 0050 79ba 27ed a242 adee 1643 c7ed 8040
00000200: 2d31 b8be 1138 ec3d 4700 cf42 0957 a3c2
00000210: aa55 4942 e806 d7bd a09e efbe d916 7cc2
00000220: 4044 60c2 91da 8542 ffb5 9842 776d 8dc1
00000230: 2d16 f642 f936 9642 7f6e abc2 f501 d042
00000240: c73b 36c0 60a8 33bd 10a2 fb42 6a0e 9ec1
00000250: 4c1a 813d 5e00 43c2 eda3 90c2 00ce 7c3a
00000260: d5e0 ad42 2848 0e3e 8da8 0941 19f7 aec2
00000270: 1c1d 923e 36c3 c73e cfd4 8241 8981 61c1
00000280: f017 4f3d ff76 ba42 7d03 0043 7d93 f042
00000290: 57a4 52be 0956 93c2 ce4c ff42 125e 4abe
000002a0: 602d 453e 7a6c fd42 611b 9e3e eef8 fc42
000002b0: 255b bd40 6c18 0443 b81a b7bc 1f80 34c2
000002c0: 2b31 10be cc0f c842 cadb c5c2 64e3 8dbe
000002d0: e018 a63d 2474 fa42 7a5d 863e aed0 28c2
000002e0: c091 ea3c 201f 7a3e 597d bfbe afe6 86c2
000002f0: 1569 dfc2 4036 bac2 097a 0ac1 acc1 8ebe
00000300: 60d4 fb42 5f60 3242 8c09 42be bfce 0043
00000310: 1154 45c1 34a8 e4bd 4dce f442 acff a13d
00000320: e0d8 c33d f914 0443 455e adc2 5d0f 0942
00000330: 1bc1 fe42 7a31 0543 9853 1ebe 38fa cd42
00000340: b01e 983e 06de efc0 f0d3 a342 fe7a 0c42
00000350: 50e8 d5c1 6e5b c9c2 1ecc 1ac2 0853 ab42
00000360: ee81 30be c3a9 d9c2 0327 04c2 0661 6c42
00000370: fa81 b63e fda1 b0c2 54dd fb42 abbf d8c2
00000380: e5e4 2543 faf5 b4c2 bd1f cfbe 1877 96bd
00000390: 4d86 6ec2 7295 fa42 7e90 95c1 f8c0 933e
000003a0: c1b8 ef42 ac0c 683e a86e 2d3e a2a4 81be
000003b0: ee3d 58be f0a2 8a3c 01f6 563f b04e bc3c
000003c0: 10d3 0fbd bbdf e7c2 122b e9c2 d708 ca42
000003d0: 8a1d 4fc2 c2ef c141 a7ea c8be 5acb 71bf
000003e0: e0b1 f23c 14f5 bb3e 6f11 0343 e414 a7c2
000003f0: cf1b bec2 0c32 d6c2 d6db 8ac1 ae26 c8c2
-25.128096 -31.306372 125.8641 -0.13127103 -0.14556035 135.09535 117.53441 -100.2838
129.13145 38.741272 133.74371 125.70221 -134.26878 -101.04477 37.28407 -142.43118
91.36979 0.15719533 0.5550711 0.08310822 149.46178 0.9035639 -0.29900542 126.132256
-38.178284 123.053 -93.362976 115.77763 81.96144 0.2589842 128.4896 -15.245613
-116.492775 77.67316 0.019954922 -114.6233 132.0794 -83.28268 -55.18781 77.7117
-75.36449 0.17144918 83.918274 -72.52833 -88.206894 80.688 -0.34714377 0.030530853
-14.141019 72.80733 -129.4054 -3.938053 30.420124 -57.79663 -0.19292086 -85.61074
0.09984183 0.31135827 64.50623 -0.24484017 -64.41609 132.69073 -0.80468327 126.12723
-120.384705 -65.366714 -0.36742833 113.1949 -25.088917 -29.56361 -83.09813 6.537768
0.06324008 0.20844156 -107.70521 128.90329 -20.400848 -68.49362 119.04054 -0.29747707
132.12274 39.38662 123.51232 -0.24483146 -122.00917 -59.277912 -106.06444 -73.42233
-87.48658 122.51528 51.020718 -99.212234 -15.549374 -118.69828 0.26335567 56.031483
-15.162057 -55.245243 130.34271 80.06085 -0.39275235 0.1725095 19.572414 0.10486263
-0.0068756854 0.14224428 -0.2885187 -103.33188 128.30751 -68.83303 -0.079258785 -38.08002
-68.64214 -0.3587329 -0.01385054 -81.4366 119.30164 3.5924132 -0.35070565 -121.58089
0.2452085 55.23193 0.21865183 -31.683704 -0.0009510517 81.46319 150.93233 4.0290256
-0.35975018 0.11534131 103.50054 -81.66999 50.333656 -0.10499364 -0.4680071 -63.022312
-56.06665 66.92689 76.35546 -17.67845 123.04331 75.10737 -85.71581 104.00382
-2.8473985 -0.043861747 125.81653 -19.757038 0.06303844 -48.75036 -72.32017 0.00096437335
86.939125 0.13894713 8.60365 -87.48261 0.28537834 0.39016122 16.35391 -14.094125
0.050559938 93.232414 128.01363 120.28806 -0.20570503 -73.66804 127.65001 -0.19762447
0.1925559 126.71187 0.30880263 126.48619 5.917376 132.0954 -0.022351608 -45.12512
-0.14081256 100.03085 -98.929276 -0.27712548 0.08110213 125.22684 0.26243192 -42.20379
0.028633952 0.24425936 -0.3740032 -67.450554 -111.70524 -93.10596 -8.654794 -0.27882135
125.914795 44.594112 -0.18948954 128.8076 -12.333024 -0.11164895 122.40293 0.07910094
0.0956285 132.08192 -86.68412 34.265003 127.37716 133.19327 -0.15461576 102.98871
0.29710913 -7.4958525 81.91394 35.12011 -26.738434 -100.67857 -38.699333 85.66217
-0.17237064 -108.831566 -33.038097 59.09475 0.3564604 -88.31638 125.93228 -108.37435
165.89412 -90.48042 -0.40453902 -0.07346934 -59.631153 125.291885 -18.695553 0.2885816
119.86085 0.22661084 0.16936743 -0.25320917 -0.21117374 0.016923398 0.8396912 0.02298674
-0.035113394 -115.93697 -116.58412 101.017265 -51.778847 24.24207 -0.39241526 -0.94450915
0.029625833 0.36710417 131.0681 -83.5408 -95.05431 -107.09775 -17.357342 -100.07555

main.2.weight f4 [256, 256]
00000000: a5a4 81bd 565f 453d f8b2 3cbc bc20 fdbc
00000010: e89f afbc a076 60bd fdd5 2b3d 01b7 a6bc
00000020: d4ee 0fbd ae1c 5ebd ed2c f33c e43d 7cbc
00000030: 08f9 4dbc 8722 bdbc ed2c 14bd e028 363c
00000040: 445c 2c3d 5e5f 14bd 2040 443b 00b1 42bd
00000050: 4813 f0bc ed0a 443d 80c9 2b3a e2b2 5a3d
00000060: 1459 92bc 8584 27bd aad0 34bd 84e5 623d
00000070: 34ba 60bd 0e19 d23c eaca 0e3c b0cb 4b3c
00000080: c446 ea3c d4e4 bdbc 4a67 1e3d 58a2 66bd
00000090: 8c24 b4bc bd81 1e3d 4aed 383c 605e 08bc
000000a0: cac3 a8bc 3c51 1cbd e751 fe3c f9c7 0fbc
000000b0: c269 0cbc 25e7 023c 2eea 3c3d 609b 02bd
000000c0: dc54 b0bc 3a79 2d3d ee94 103d 8781 1abd
000000d0: 8cff 8dbd b938 993b fea0 063d 932b 063c
000000e0: a095 353d aa1c 68bd 1e80 c73c 6026 1fbd
000000f0: 8e84 e23c 8266 223d 5aec 613c 58db 333d
00000100: 3be3 44bd 0130 81bd 3425 76bd 90b9 203d
00000110: 1d0b 743c d675 3bbd 327b bf3c 469e 4c3d
00000120: fa6f 7cbd 32b5 393d 22cf 3a3b daf0 cfba
00000130: 8d85 473d c2d4 673d 7867 a03c 4846 4a3d
00000140: 2801 d53c fa2f 633b 0ad7 7cbd 1ebe b93b
00000150: 1984 50bd a4a0 9d3c 7b8f 9e3b 5c8a b4bb
00000160: e8a1 47bd be2f 1bbd b83c 203d bb55 c43c
00000170: 8b87 d43c 2d96 cfbc 3854 30bc 1bd3 bebc
00000180: 607c 133d 3006 ddbc d23e 213d 44d6 123d
00000190: 5820 6abd c5de e5bb a2a6 a2bc c485 0dbd
000001a0: 140a dd3c 60d2 f8bb 4e21 603d f0b2 3bbd
000001b0: da46 b53c 2f2d 75bd 9d59 21bd 48a1 f6ba
000001c0: 00a8 2f3d 12d7 063d a832 52bd 8bd2 1b39
000001d0: 2b92 32bd 31a3 afbb 6c0f 75bd 3e9a cabc
000001e0: f294 2f3d 3f5c 83bd 8213 74bd 0d9b 973b
000001f0: d85f 0c3c 2286 95bc d48a 5f3d 7df0 3bbd
00000200: 9c69 1bbd 6c34 5bbd e896 3ebc aedc b3bc
00000210: 3266 1e3d 80fc 65bb 9276 543c aad1 07bd
00000220: 64f5 333d fc0c 393d 0244 65bd 850a c1bc
00000230: 2037 59bd 4da4 a13c 91ff 7ebd d2c1 14bd
00000240: aee5 5f3d 9675 74bd 5b41 213d 904d cdba
00000250: dcb4 4c3d 5cf3 1bbd 7fce 0c3d 5019 f73b
00000260: 43bc ddba 6eba 2e3d c400 86bd 871a 67bd
00000270: 463c 773d 24ba 19bd 993d 56bd c512 21bc
00000280: 78e4 a3bc 62f6 7abc 2c84 2bbd 4d7c 813c
00000290: da11 7abd b945 efba a300 f23c 50bf 443c
000002a0: 080f 083c e9a2 163b 8376 d8bc beed 98bc
000002b0: be46 09bd a288 45bd a223 20bd a960 613d
000002c0: 805f 2bbc 8927 823c 03cf 153d 40fc 9fbb
000002d0: acb8 09bd d4f5 48bd 5c9f bcbc 60c0 b63c
000002e0: b497 57bd e00d fabb 08c2 c23c 58b8 343d
000002f0: b8f1 4a3c d83c d03b 8e57 143d c896 ec3c
00000300: c99b 6a3c 5a51 d9bc 3e49 4dbd 23f6 a6bc
00000310: 4869 93bc 4066 963b 49cf 60bc e8fe ce3c
00000320: f41f 2a3d 3aab 03bd a457 87bd d9d7 1ebd
00000330: d3bb 15bd 7890 ea3c 9421 25bd 00a1 c0bb
00000340: 9006 59bc 534e 38bd 8c0b b03c 983c 03bd
00000350: 19b9 26bc ee7a 4ebd 5689 69bc fedd 0b3b
00000360: 80ad 26bb 099a f7bc 6397 3f3c e3da b5bc
00000370: 16ed 0dbd 62c8 3cbd ac9b a3bc 8a70 86bd
00000380: 307c 543d e17f 16bd a02e d4bc b050 bd3b
00000390: ad8c 203c 2021 50bc 08ea 133d 303c 15bd
000003a0: 89ba 813c 00ce 13b9 a43f 50bd 844b c6bc
000003b0: 2335 103c 78a0 433c 9a4a 193d 2043 2b3d
000003c0: d4a0 0bbd 3f88 08bd 56be a3bc 343f 52bd
000003d0: 3c57 c4bc f47c 51bd 34bc c23c 840c 183d
000003e0: 4027 a23b 6ea5 57bd ab4c 5dbd aa84 f8bc
000003f0: 507e 3a3c cccc aabb 664f 983b ad4b 563d
-0.063302316 0.048186623 -0.011517279 -0.030899398 -0.021438554 -0.05480063 0.041952122 -0.020350935
-0.035139874 -0.05422657 0.029684508 -0.015395615 -0.012571581 -0.023087753 -0.036175657 0.011118144
0.04208018 -0.03622376 0.0029945448 -0.04753208 -0.029306069 0.047861982 0.0006553158 0.053393252
-0.017864741 -0.040897865 -0.04414431 0.055394664 -0.054865077 0.025646713 0.008715371 0.0124387
0.028598197 -0.023180403 0.038672723 -0.056307167 -0.021990083 0.038697947 0.011287043 -0.008323282
-0.020601172 -0.03816341 0.031044913 -0.008775705 -0.0085701365 0.007989679 0.04612177 -0.03188646
-0.02152484 0.04235194 0.03529828 -0.037721183 -0.06933507 0.0046759513 0.032868378 0.0081891
0.044332147 -0.05666796 0.024353083 -0.038854957 0.027651098 0.03964854 0.013789261 0.043910354
-0.048068266 -0.06307984 -0.060094073 0.039239466 0.014895228 -0.045766674 0.023374174 0.04995563
-0.061630227 0.045338817 0.0028504808 -0.0015864626 0.04871135 0.056599386 0.019580588 0.04938343
0.026001528 0.0034666047 -0.061728515 0.0056684157 -0.05090723 0.019241638 0.0048388815 -0.005509658
-0.04873839 -0.037887327 0.039120406 0.02396666 0.025943538 -0.025340164 -0.010762267 -0.023294022
0.036007285 -0.02698049 0.03936655 0.03584887 -0.05715975 -0.0070150816 -0.019854847 -0.034551397
0.026982345 -0.007593438 0.05471926 -0.045824945 0.022128511 -0.059857544 -0.039392103 -0.0018816376
0.042884827 0.03291995 -0.05131784 0.00014860385 -0.043596428 -0.00536003 -0.05982916 -0.024731752
0.042866655 -0.06414079 -0.059588917 0.004626638 0.008567773 -0.018252436 0.054575756 -0.045883644
-0.037942514 -0.05351679 -0.011632659 -0.021955814 0.03867168 -0.0035093129 0.0129677225 -0.033158936
0.043935195 0.0451784 -0.05597306 -0.023564586 -0.053031087 0.019731665 -0.062255446 -0.036317654
0.0546624 -0.05968245 0.03936897 -0.0015663374 0.04997717 -0.038073882 0.034376618 0.0075408593
-0.0016917068 0.042658262 -0.06543115 -0.056421783 0.060360216 -0.037531033 -0.052304838 -0.009831135
-0.020006403 -0.015317531 -0.041874096 0.015806342 -0.06105218 -0.0018255032 0.02954132 0.012008503
0.008304365 0.0022985286 -0.026423698 -0.018668052 -0.03351473 -0.048226006 -0.039096482 0.055023823
-0.010459781 0.015887992 0.036574375 -0.0048823655 -0.033623382 -0.049062565 -0.023025207 0.022308528
-0.05263491 -0.0076310486 0.023774162 0.044121116 0.012386732 0.0063549094 0.03621631 0.028880492
0.014319369 -0.02652805 -0.050118677 -0.020381039 -0.017994538 0.004589826 -0.013721296 0.025268033
0.04153438 -0.032145716 -0.06608513 -0.038780067 -0.036556076 0.028633341 -0.040315226 -0.0058785677
-0.0132461935 -0.04499657 0.021489881 -0.03204021 -0.010175967 -0.050410204 -0.014253935 0.0021342034
-0.0025433004 -0.030224817 0.011693808 -0.0221991 -0.03464993 -0.046089537 -0.019971691 -0.06564434
0.051876247 -0.03674305 -0.025901139 0.005777441 0.009799165 -0.01270321 0.03611186 -0.036434352
0.015836017 -0.00014095753 -0.050841942 -0.02420593 0.008801731 0.011940114 0.03742466 0.041812062
-0.034088925 -0.03333306 -0.01998822 -0.051329806 -0.023967378 -0.051144555 0.023771383 0.03712131
0.0049485266 -0.052648 -0.054028194 -0.030336697 0.011382654 -0.005212402 0.004648137 0.052318264

main.2.bias f4 [256]
00000000: f6bb 63bd 3f78 c0bc cc91 63bd 6f4c a13b
00000010: 2beb a8c2 1be6 2fbb f4a0 433c a5aa 913c
00000020: 4e75 8442 c12f b4bd 7515 313b f2f7 0843
00000030: 7336 e142 3d6f 8dbc 94ac ae3b a375 53bd
00000040: 049d 183d 888a 04ba 36d1 b2bc cb8b b2c2
00000050: 2673 b73f 5f68 b042 44e3 efbc b2c6 adbd
00000060: 6e76 f0bc 67a3 4942 4537 b0c1 66c5 f341
00000070: ed51 c53c 349c a7bd b01f 9042 dee2 98bd
00000080: d575 32bd ece6 8fbc 7210 983c e572 053d
00000090: 1815 19bd 0887 2ebd 4b36 f642 90b2 1abd
000000a0: 59a8 47bd 2fa6 83bc 4968 ba3c 6da8 0bbd
000000b0: 8215 5dbd 56f7 4742 8177 6bbb 1580 38bd
000000c0: acaf 8ebd 4acd c6c1 8da9 973b f1c7 2abb
000000d0: 944f babc 0d9e 78bd b3e7 4ebd b48d d142
000000e0: 6f0a 0bbd faa7 84ba 77cb 83bd 02b1 5cbd
000000f0: a318 c1bc f161 febb 0259 0143 6e7a acbd
00000100: ba40 32bd 5e10 6d3d 4008 2e3d d83a e7bc
00000110: 344e 2dbd 92c9 41bd e9db 8b38 6c59 47bd
00000120: 7bd2 2e3e 22df 88c2 78bf 54c1 0cc9 da3c
00000130: 128b 0cbd ac1b b342 df53 823c d47f 8c3c
00000140: ec6d bbbf cde0 45c2 c7ba be41 f083 3b3d
00000150: 10c1 1b3d e302 133b b95c aebd 03d9 4a41
00000160: 2540 81bd d125 b4c2 1e2d 28c3 d60d 633c
00000170: cc48 ed42 cd2b 84b8 47f8 f9bc f451 b1bd
00000180: 003d 58bd c307 48bc 662c 2bbd 9b13 d5c2
00000190: b9e4 49bd 5b59 30bd 16ad 733b 486c 12bc
000001a0: a188 f542 9cf9 023d 6b57 9fbd 3485 0443
000001b0: 477c a3c1 1371 0cc3 a2a8 5dbb 3aee 3ec1
000001c0: eda1 c241 5411 bfbd 1703 a4c2 077d 8e3f
000001d0: 2d92 48bd 4de7 73bd fe77 22bb 0cc9 c3bd
000001e0: 2dd6 98bd b954 b942 6051 b6c2 1c04 76c2
000001f0: 34df a83f f23c dd3a c95d fbbc 3dc7 5d3f
00000200: a0db f642 158a 533c 744e 623f 7c5f c33f
00000210: 4fc3 b7c2 3b06 9fc2 9cf3 93c0 6567 ea41
00000220: a029 a73b 6e2d 0d3d a265 04bd 5ae6 dec2
00000230: 8be4 6940 4b8f f0c2 8c15 a741 7277 fd42
00000240: 42c0 b5bc 42ac 91c2 b59a b33b 0af6 a8bd
00000250: 902a b442 17df e341 94f3 75c2 9353 523d
00000260: 1bfb ee42 85cb de41 2879 9dc2 a41c f3c2
00000270: 382c 9041 3df3 6fbd b876 0241 319f 0243
00000280: 057e 0e40 8677 b0bd 98f5 fb3c 2db2 61bd
00000290: 2425 bdbd cc81 acbd 787b 233d b2a1 54bd
000002a0: 1586 83bd d6e4 743e 5996 2b40 b6cf 453d
000002b0: f93f 98bd 3f86 9d42 32c7 f842 3621 a83c
000002c0: 4153 16bd 898c 8bbd 0509 4b3d 0c35 eebc
000002d0: 2412 ec3c 045b 0043 9abd f341 79fb aa3d
000002e0: 1ad2 ebbc 9884 403d 93c1 0343 a116 c7bb
000002f0: 097d eb42 10cc ad3b 0f7f 903c e8f9 d3c2
00000300: af7d 503c 19d7 27bd d55a 273d 9c3c 0443
00000310: 5888 bebc 405c 2fbb 3a83 ddbc 8406 1a3d
00000320: b4af 6cbd bb5d f942 8bee 563f 0116 8a3f
00000330: 2091 5ec1 be55 a9bd 4222 84bc ae2d 83bc
00000340: b41f 32bc 0662 9842 97e4 83bd ba2b b1c2
00000350: a88f 5cbd 2554 a1bd 10ea fac2 61c2 443c
00000360: 187e c942 c155 84c2 3e10 78bd 3d66 813b
00000370: e2be 3f3c dec3 3dbd 7073 45bc 97d8 7abd
00000380: 2f51 ed42 2fc1 b53b e67d dc41 2be1 1043
00000390: be2a f1bc 77e8 35c1 9109 f7c2 5664 30bc
000003a0: f778 c142 af97 adbc e746 80bd 0997 a8bd
000003b0: 8724 c6bc de92 01bd 8a30 cd42 a5e3 febc
000003c0: cd7b 0143 25e1 3e3d a9df 9ac2 f194 0cbc
000003d0: bb09 d53c 8c03 b3bd 5c44 4fbc 8ec0 733a
000003e0: 4011 f5bc ba7d afbd 1428 653d a348 8c3f
000003f0: e283 a8c2 9e51 d9bd eb4d 1bbd 9c44 ac42
-0.055599175 -0.023494838 -0.055558965 0.0049224417 -84.45931 -0.0026840034 0.01194023 0.017781565
66.22911 -0.08798171 0.0027020846 136.96854 112.606346 -0.017264957 0.0053306315 -0.05162586
0.037259117 -0.0005056043 -0.021828275 -89.27303 1.4332016 88.20385 -0.029283173 -0.08485164
-0.029353347 50.409573 -22.026987 30.471386 0.024086917 -0.0818409 72.06189 -0.074651465
-0.043569405 -0.017566167 0.01856253 0.032580275 -0.037373632 -0.042609245 123.10604 -0.037767947
-0.048744533 -0.016070453 0.022754805 -0.03409617 -0.05397559 49.99154 -0.0035929384 -0.045044024
-0.069671005 -24.850239 0.0046283663 -0.0026059116 -0.022743024 -0.060697604 -0.050513934 104.776764
-0.033945497 -0.0010120862 -0.06435292 -0.053879745 -0.023571318 -0.0077631404 129.34769 -0.08421789
-0.04351876 0.057876937 0.042488337 -0.028226301 -0.04231091 -0.047311373 6.668998e-05 -0.048669264
0.1707248 -68.43581 -13.296745 0.026707195 -0.034312315 89.55405 0.015909133 0.017150797
-1.464292 -49.469532 23.8412 0.045780122 0.038025916 0.002243214 -0.08513779 12.677981
-0.06311063 -90.07386 -168.17624 0.013858279 118.64218 -6.302409e-05 -0.030513896 -0.086582094
-0.05279255 -0.012208882 -0.04179039 -106.53829 -0.049290393 -0.043053966 0.0037182025 -0.008936949
122.76685 0.031976327 -0.077803455 132.52032 -20.435682 -140.4417 -0.0033822437 -11.933161
24.329065 -0.09329477 -82.006035 1.1131905 -0.04896753 -0.059546757 -0.002479076 -0.09559831
-0.07462726 92.665474 -91.158936 -61.504013 1.3193116 0.0016879125 -0.030684369 0.8663214
123.428955 0.012911339 0.8840096 1.5263515 -91.88146 -79.51217 -4.6234875 29.300486
0.0051013976 0.034467153 -0.032323487 -111.449905 3.6545742 -120.27987 20.88552 126.73329
-0.022186402 -72.83644 0.005481089 -0.08250053 90.08313 28.48393 -61.48787 0.051349234
119.49044 27.849375 -78.73663 -121.55594 18.021591 -0.05858158 8.153984 130.62184
2.2264416 -0.08616547 0.030756757 -0.055101562 -0.092356 -0.08423194 0.03991267 -0.051912017
-0.064220585 0.23915419 2.6810515 0.04829379 -0.07434077 78.7622 124.38905 0.020523649
-0.03670049 -0.06813914 0.04956915 -0.02907803 0.028817244 128.35553 30.467579 0.08348746
-0.028786708 0.04700145 131.75615 -0.0060756956 117.74421 0.005303867 0.017638711 -105.9881
0.012725278 -0.040976617 0.04085811 132.23676 -0.023258373 -0.0026757866 -0.027040113 0.03760387
-0.05778475 124.68307 0.8395774 1.0787965 -13.910431 -0.08268307 -0.016129617 -0.016012993
-0.010871816 76.19145 -0.064400844 -88.5854 -0.05384794 -0.078773774 -125.45715 0.012009234
100.74628 -66.16749 -0.060562365 0.0039489553 0.011703225 -0.04632937 -0.012051448 -0.061241712
118.65856 0.005546711 27.561474 144.87956 -0.029439326 -11.369254 -123.518684 -0.010766109
96.73626 -0.021190492 -0.062635235 -0.08231933 -0.02418734 -0.031634204 102.5948 -0.031114409
129.4836 0.046601433 -77.43684 -0.008580432 0.026005616 -0.08740911 -0.0126505755 0.0009298407
-0.029915452 -0.08568902 0.055946425 1.0959667 -84.25758 -0.1061127 -0.037916105 86.134

main.4.weight f4 [256, 256]
00000000: c267 92bc ed0c 163c 6f27 11bc e191 05bd
00000010: ea87 cfbd 0faf c23c d4cb 323d 9026 873d
00000020: b3c4 8b3e 0f20 a5bd 967e f83c 523c 803f
00000030: 6b95 0f3f a286 c1bd 41e1 833b 91cf a5bd
00000040: c0ed ef3b dd5e 4ebc 880d 4bbd 0b60 f6bf
00000050: c50b f03d a6f0 ca40 72a7 9f3d 30df 92bd
00000060: edb2 c1bc 8cb7 7dbe 2865 a3bc 3152 7a3e
00000070: 55ca 55bd 69e9 26bb 3cde f03f 1750 edbc
00000080: 86ac a7bc fb0d 26bd 72eb 413a 55ce c2bc
00000090: b52f 9fbc c99f 6ebc 0437 2f3f f11f d53c
000000a0: 82de 96bc 163c 12bd 42b1 513c 1c4e 223d
000000b0: 5c6c 1fbd 4523 c23e 116d 9abd 8bc8 fb3c
000000c0: 1539 233d 744d 0b3e 33af 863d 9bc7 833c
000000d0: 9f42 6a3d c412 383c d875 1ebd 64f5 853f
000000e0: 21b7 eb3c 4bb9 d53c 4837 abbc aaeb aa3c
000000f0: 3c0a 1dbd c260 9f3c 54bf 1b3f 8a97 a4bc
00000100: 3377 083d 8e19 93bc bae1 57bd 8641 5abc
00000110: 248f 16bd 3854 6fbc ff25 fc3c 5ce8 2f3c
00000120: c0b5 3bbd 8823 873f 5e3e d53e e99e 80bd
00000130: 0b67 b9bd 50d2 543e 9d3c 843d d0ad e03c
00000140: b99b 243e 094a 8b3e f349 fb3e a877 733c
00000150: 60ec 923b 529a e9bc 72ec cd3c 3215 8d3e
00000160: b020 fd3b 3a20 273f b188 053f eb31 27bd
00000170: 9285 e43e 6d32 b03c c03c 98bd 605b 823b
00000180: d8c6 3d3d 0078 cbbc 90d6 563c a151 1e3e
00000190: 6e08 e1ba fd1b 923d 0af3 b23d a739 85bb
000001a0: 6a2d 013f 325f 10bd 93b4 5f3d ff56 8a3f
000001b0: 541a d13d 80be 143f dc91 cabc f058 0d3f
000001c0: 779c 053f c0c2 babb 53e1 ffbf 9c8f 1c3d
000001d0: e193 3a3d f3bd 023c 0cd8 a7bd a300 a9bd
000001e0: a843 0ebc f43b 883d 84d6 463f eac1 d9bf
000001f0: f0a6 d8bb 8187 aa3d 9188 09bd f22c 9a3d
00000200: 5e2e 7e3e 6bda 83bc 4dd7 d0bc 5f74 83bd
00000210: 4a9e 973e a0d2 f1bf 30d7 12bf 750e 57be
00000220: ba8e 17bd 197f a6bd ef38 9e3c bb2a a0bf
00000230: e598 0abc 2cd7 79be 3ee4 26bf 45d7 7b3f
00000240: 9aaa de3c 449a 38bd 146e b63d ebcc 213c
00000250: a034 ef3d 7964 6f3e e0c4 0140 0791 38bd
00000260: b71b 0abf 69a2 9d3f 643d a93e 8079 923e
00000270: c6be b03e c4e5 023d 7686 e93e 254d ec3e
00000280: 43a1 553c d7f6 a9bd 6920 45bd d5d9 e43c
00000290: f712 8cbc 49d2 11bd fc43 b83c bcf2 543c
000002a0: 1cc7 a73c 372a 263d 509d 4ebd ba52 3bbd
000002b0: 7671 8e3d f6b3 d73e a85d 173f 0af6 51bd
000002c0: 09c8 c4bc fae1 0f3c ef7b 91bd 280e e33c
000002d0: 5e33 683d 0348 6c3f 3447 d33f aec2 2dbd
000002e0: da6c 273d fba5 28bc 2394 883f f146 743d
000002f0: 6a0d 993f 484a 0d3c 9eb1 223a 4700 a1c0
00000300: bb41 bc3c fe06 02bd 83be 273d 01af 2e3f
00000310: d74e 173d 8001 88ba 10b6 11bc 0d61 21bd
00000320: be21 bfbc 0eb6 053f 0988 10bc 1f78 d13c
00000330: 987d f33e 9ea0 4cbc a654 96ba b32d 14bc
00000340: d2a9 0e3d 436c ea3e 35a0 bf3d 0ee6 f23e
00000350: 4424 493c 8f35 6b3d ab4d bcbf 9951 e63c
00000360: 4753 d63f 37c0 963c 9f17 b7bd 8e20 84bd
00000370: aadf 663d 5e0e 4a3d 9635 32bd f91f 65bd
00000380: 6a80 ff3e 1e01 9fbd 88a9 68be f1ff 283f
00000390: 5fb5 fb3c 5202 453e 22e4 b4be 9baf afbc
000003a0: f020 b53e 68bf c1bc 401e 613d 4727 46bc
000003b0: 5cd3 303c 9a00 f9bb d1b0 c23d 6a00 85bd
000003c0: 4ba5 1d3f 6523 533d 8f93 b5bf e3b5 ce3c
000003d0: 31d7 7fbd 0907 9abc 4667 f6bc ec01 2e3d
000003e0: 4724 b53b efca 1dbd d7b9 3dbd 2710 b93c
000003f0: 73d1 423e a48c 97bc 8227 5fbd 6462 853f
-0.017871741 0.009158355 -0.008859499 -0.032609824 -0.101333454 0.023765115 0.043651417 0.06599152
0.27298507 -0.08062755 0.030333798 1.0018408 0.5608737 -0.09449507 0.004024655 -0.08096231
0.007322043 -0.012595859 -0.04957345 -1.924806 0.11720995 6.341876 0.077956095 -0.07171476
-0.023644889 -0.24777049 -0.019945696 0.24445416 -0.052194912 -0.0025468713 1.881782 -0.028968854
-0.020468008 -0.040540677 0.000739745 -0.023780027 -0.019431928 -0.014564463 0.6844332 0.026016207
-0.018416647 -0.035701834 0.012798609 0.039625272 -0.0389217 0.37917534 -0.07540334 0.030735275
0.03984936 0.13603765 0.06576385 0.01608639 0.05719244 0.011234943 -0.038686603 1.0465512
0.028773846 0.026089331 -0.020900384 0.020864327 -0.03833984 0.019455317 0.6083882 -0.02009179
0.033316802 -0.017956521 -0.052705504 -0.013321286 -0.036757603 -0.014607482 0.030779837 0.010736551
-0.045827627 1.0557718 0.41649145 -0.0628031 -0.09052857 0.20783353 0.064568736 0.02742663
0.16075028 0.27204922 0.49079856 0.014860071 0.0044837445 -0.028515968 0.02513716 0.27555233
0.007724844 0.6528355 0.521617 -0.04081909 0.44633156 0.02150842 -0.07433462 0.003978178
0.04633221 -0.024837494 0.013112679 0.15460826 -0.001716865 0.071342446 0.08737762 -0.0040657106
0.5045992 -0.035247035 0.05461557 1.0807799 0.102101 0.5810318 -0.024727754 0.5521383
0.5219187 -0.0056994855 -1.9990638 0.038222894 0.045551185 0.007979858 -0.081955045 -0.082520746
-0.008683123 0.0665206 0.77671075 -1.7012303 -0.0066116974 0.083266266 -0.033577505 0.07528104
0.24822375 -0.01609536 -0.025493288 -0.064186804 0.29612952 -1.8892403 -0.573596 -0.21001609
-0.03700135 -0.08129711 0.019314257 -1.251304 -0.008459304 -0.24398488 -0.6519202 0.9837535
0.027180959 -0.045068994 0.089077145 0.009875516 0.11679959 0.23378171 2.0276413 -0.045060184
-0.5394854 1.2315189 0.3305465 0.28608322 0.3452055 0.031957403 0.45610398 0.46152607
0.013038936 -0.08299034 -0.04812661 0.027935902 -0.017098887 -0.035600934 0.022493355 0.0129973255
0.020480685 0.040567603 -0.050442994 -0.04573319 0.06955235 0.42129487 0.59127283 -0.05126003
-0.024021165 0.008781904 -0.071037166 0.027716711 0.056689613 0.9229738 1.6506104 -0.04242199
0.040875293 -0.010293479 1.0670208 0.059637967 1.1957219 0.008623667 0.00062062766 -5.031284
0.022980561 -0.03174495 0.04095317 0.68235785 0.036940422 -0.0010376424 -0.008893505 -0.039399195
-0.02333152 0.5223092 -0.008821496 0.025569974 0.47556758 -0.012489466 -0.0011469319 -0.009044099
0.034829922 0.45785722 0.09356729 0.47441143 0.012276713 0.057424124 -1.4711202 0.02811508
1.6744164 0.018402202 -0.08940052 -0.06451522 0.056365646 0.049330108 -0.043508135 -0.055938695
0.4990266 -0.07763885 -0.22720921 0.66015536 0.030726133 0.19239166 -0.35330302 -0.02144604
0.35376692 -0.02365084 0.05496049 -0.012094325 0.0107925795 -0.0075989487 0.09506381 -0.064942196
0.6158034 0.051547427 -1.4185656 0.025233215 -0.062461082 -0.018802183 -0.030078541 0.0424823
0.0055280062 -0.03852361 -0.04631981 0.02259071 0.19025211 -0.01849968 -0.054481037 1.0420651

main.4.bias f4 [256]
00000000: 7678 cd42 23e5 de42 ef14 c642 70d0 d142
00000010: 7b39 2e3d cf3d cf42 a4d0 04c3 f4d0 06c1
00000020: 7512 173d 049f ca42 416e 36c2 8ba1 dd42
00000030: 18e4 e742 d504 a6c2 d176 843e 52f9 5fc1
00000040: f576 1e3c 19a3 2b43 ce30 d9bc 5911 72bc
00000050: b322 0442 f20d 20bd 51e7 07c3 8433 d542
00000060: fa5e bf42 3180 a3c2 6ccf e042 972e 2543
00000070: a759 c9bd d7f9 de42 0c4f b8bd fbde 9b41
00000080: b10f c842 d2a6 f742 511d 0242 3246 e042
00000090: fa26 54bc fa36 0243 31e9 e842 8f1f 32c3
000000a0: ff5d de42 333f 0f43 285c 24bd b917 d5bd
000000b0: ed33 2443 6434 7f3c 6584 bcbd 0ad3 3fbd
000000c0: e334 85bc f446 a73c 9965 8f3b 0918 a8bd
000000d0: 1b17 e73c 3562 bdbd 99ad 1aba 0038 ed42
000000e0: b45a 0543 3420 e242 5d36 5cbd 457e c442
000000f0: ad2f e3bd 4e09 0743 2560 98bd feda c3bc
00000100: 32e4 e342 10dc 673c 3567 0bc3 d8a7 d4bc
00000110: d3a3 e042 dc04 ddbd cae7 77bc 13a5 db42
00000120: ad02 e7bc 495c 0443 5493 d242 bf45 ec42
00000130: af51 b7c2 752e de42 41cf 99c0 44c5 d742
00000140: ba80 0c43 a74c 89bd f824 d03e 9a82 dc42
00000150: aa1c d842 11eb 16bd 82e7 dfbc 8525 cd3c
00000160: d368 77bd 496b b6c1 915f 8dbc 1ab3 62bd
00000170: 365c 74c0 8372 8cbd f490 18bd 820c 2dbd
00000180: 569c da42 6d23 d642 864a 14c2 915c 8bbd
00000190: b4ff d8bc 4689 fdbc 1aea d342 cdad 3dbd
000001a0: 52cd 9fbd 2ade f4bc becc ce42 9b25 9fc2
000001b0: ed58 b13a 9ee1 3fbd f24c cb42 edc8 cb42
000001c0: e0a7 ce42 a858 0e3c 9d31 d642 5c97 e242
000001d0: 49b9 e842 584f 03bd 9058 e6bc 4e42 cc42
000001e0: adc8 2a41 5426 00bd 1b9a e142 296b 8242
000001f0: c4fc 9cbd 8344 0243 bacf 86bc 5533 563d
00000200: 5735 16bd 5736 f542 e95e 22bb 9f76 f1c2
00000210: a1fb e742 abbc ce42 1716 9eb8 8a00 f942
00000220: e884 29c1 792d a2bd 800a 83bc 945d ee42
00000230: 4111 cf42 9dcc 11bd 7f2a 13bd 58d1 e842
00000240: 4daa e242 8283 c4bd 0f89 c342 3b2d 5442
00000250: d48c 7abd 7a3d abbd b5ac acc2 50e3 e5bc
00000260: 9afa 9c3d e957 c242 f05b 59bd 6d0f 713c
00000270: c9c0 bebd 12e5 33bd aacd e842 c93c 89bc
00000280: 956b d0bd da3d 9cbd 7e3f 7fbd f59c d842
00000290: 96a9 00bd 4374 fcbc 292c e6bd aea1 cb42
000002a0: 864c 46bd ac5d f7bc 2e2d d542 d45c c6bb
000002b0: 9bf0 05c3 b728 ea42 b70a ca42 1884 69bd
000002c0: 6404 8ebd d8fa 00be 08c5 ef42 a8ea 363d
000002d0: 4269 5dbd 100e 3abc a833 2bc3 d11c d742
000002e0: b4bd 89bd c1e2 e342 ac22 06bf 0a58 f8bc
000002f0: e82a 6fbd fe82 08bd ef69 9fbd 6c69 d042
00000300: 9e67 bbbd 15e1 d642 e64d cf42 ad8e d242
00000310: a30f 35bd f5a4 99c2 0ccd 4942 1ec4 51bc
00000320: d4ca f042 4069 4d40 4744 76bd 2f12 cf42
00000330: 9a6c 873a 6e0e 9bbd fe31 ef42 a185 9b42
00000340: c9d7 95c2 f690 88bd 7c91 803b d392 edbd
00000350: 68c5 92bd f264 d342 1d1e 5e3c bdec 2d3d
00000360: 859c 4cbd e2da d7bd 4e1f 203d f5d7 0743
00000370: fb7a be3c 5d6e 39bc c4a0 c83e e127 dfc2
00000380: 2b6e f3c0 9a6b f742 0b0d a6bd 4069 cfbd
00000390: 1c15 a442 869c 4ebd 6faa 85c2 ab76 e842
000003a0: 44a1 de42 7b5b d342 b213 1c3d 8447 e242
000003b0: 02fb 74bd a828 8bbd 7cf5 f942 33a7 1f3f
000003c0: 7f51 d342 2325 cfbc d390 da42 8310 0dbd
000003d0: 850e 333d 0755 69bd 854a 0243 96da 2cbe
000003e0: 6a8e 4242 494b 213b fdbf dc38 452d d142
000003f0: 3e1d 8b3c 3e72 b4bd 22a4 95bd 03be a5c2
102.735275 111.44753 99.040886 104.907104 0.042535286 103.62072 -132.815 -8.426014
0.036882836 101.31058 -45.60767 110.81551 115.945496 -83.00944 0.258719 -13.998369
0.009671916 171.6371 -0.02651253 -0.014774644 33.033886 -0.0390758 -135.90358 106.60062
95.6855 -81.750374 112.40512 165.18199 -0.09831553 111.48797 -0.08999452 19.483877
100.03065 123.82582 32.52863 112.1371 -0.012948746 130.21475 116.45545 -178.12328
111.183586 143.24687 -0.04012695 -0.10404915 164.20284 0.015576456 -0.0920494 -0.046832122
-0.01626057 0.020419575 0.004376125 -0.08207709 0.02820926 -0.09247247 -0.0005900502 118.609375
133.35431 113.0629 -0.053762782 98.24662 -0.11093078 135.03635 -0.07440213 -0.023908135
113.945694 0.014151588 -139.40315 -0.02595894 112.31997 -0.107919425 -0.015130946 109.82241
-0.028199518 132.36049 105.28775 118.13622 -91.65954 111.09074 -4.8065495 107.885284
140.50284 -0.067040734 0.40653205 110.25508 108.055984 -0.03684527 -0.027332071 0.025042305
-0.060402703 -22.802385 -0.017257484 -0.055346586 -3.818128 -0.06857779 -0.037247613 -0.042248257
109.30534 107.06919 -37.072777 -0.06804765 -0.026489116 -0.030949246 105.95723 -0.046308327
-0.078028336 -0.029891092 103.39989 -79.57345 0.001353053 -0.046846025 101.65028 101.89243
103.32788 0.0086881295 107.0969 113.29562 116.361885 -0.03205809 -0.028118402 102.1295
10.673993 -0.031286553 112.80099 65.2093 -0.07665399 130.26762 -0.016456474 0.052295048
-0.036671963 122.60613 -0.002477581 -120.73168 115.99146 103.36849 -7.538142e-05 124.50105
-10.594948 -0.079188295 -0.015996218 119.18277 103.5337 -0.035595525 -0.0359292 116.408875
113.33262 -0.095953956 97.76769 53.04417 -0.06116946 -0.08361335 -86.33732 -0.028062493
0.07664986 97.1717 -0.053066194 0.01471315 -0.093141146 -0.04391963 116.40169 -0.016752617
-0.1017677 -0.07628985 -0.06231641 108.30656 -0.03141173 -0.030817157 -0.11238892 101.81578
-0.048412822 -0.030196033 106.58824 -0.0060535464 -133.93987 117.07952 101.02093 -0.05701074
-0.06934431 -0.1259569 119.88483 0.04465738 -0.05405546 -0.011355892 -171.20178 107.55628
-0.06725636 113.94288 -0.52396655 -0.030315418 -0.058390528 -0.03332805 -0.07783877 104.2059
-0.09150623 107.43961 103.652145 105.27866 -0.044204365 -76.82218 50.45024 -0.012803106
120.39615 3.209549 -0.060123708 103.535515 0.0010332048 -0.075711116 119.59764 77.760994
-74.921455 -0.06668274 0.003923593 -0.1160027 -0.071665585 105.69716 0.013556984 0.0424621
-0.049953956 -0.105397955 0.039092354 135.84358 0.023252001 -0.011317817 0.39185154 -111.57789
-7.607198 123.71016 -0.081079565 -0.10127497 82.04123 -0.05044224 -66.83288 116.23177
111.31497 105.67867 0.03810472 113.13968 -0.059809692 -0.06794864 124.97946 0.623645
105.65917 -0.025286263 109.28286 -0.034439575 0.04371502 -0.056965854 130.29109 -0.16880259
48.639076 0.0024611524 0.00010526178 104.58842 0.016981717 -0.088108525 -0.073066965 -82.87112

main.6.weight f4 [4, 256]
00000000: 2549 173f 3d82 2c3f 74c8 2a3d dc71 363f
00000010: 5644 eebc 994f b2bd 1851 2ec0 78af b3c0
00000020: 19c5 8abb c878 033f 4f77 d03e 0442 593f
00000030: 2c3f 973f 5a96 80c1 05ee c03f b1d6 dcbe
00000040: dcb8 2d3d aa77 0442 61d7 c9bc cff7 d23c
00000050: 6e69 1141 ef4e 983b 96dd 1cc1 fda5 5a3f
00000060: e20a 4b3e 9edd c33f ddf7 793f a565 e240
00000070: 955c ecbc 4949 fa3e 0d07 4a3c 7248 d63e
00000080: 35e4 dc3d b7a5 e840 583c 0a3f a625 a43f
00000090: f7b0 3e3b 17b7 6e41 8e20 0340 944f e2c0
000000a0: e6d6 a03f e27c 9d40 ef1d 80bd 32cc acbc
000000b0: 16c7 8841 707a e2bc 88cd fbbc 4e9c 613d
000000c0: 58af 833d db42 fa3a 3d68 163d bdf5 41bd
000000d0: b3f0 80bb 84c2 5ebc adcc d5bc 2463 b440
000000e0: e0f8 4c41 70df ec3f 6a6c 8a3c 271c 3640
000000f0: 9e51 31bb 0442 9741 9be8 debb e624 f93a
00000100: 2eb2 fe3f 1831 dabc 1964 12c1 45cc 8bbd
00000110: 56b5 b93f e416 d53b c4b1 7abc 389b 47bd
00000120: 670c 63bc 14d9 0941 fe28 d3bd d733 1140
00000130: b87b 1ac2 a475 903f bc87 a9c0 3b61 6a3f
00000140: 1b7f e141 cfc7 16bd 03ff b340 1779 243f
00000150: cd37 5d3f 4687 883d dc8d 7dbc 3f4a 683d
00000160: 2310 a03c a955 2441 5ea5 523d c148 373d
00000170: 4f1f f9c0 d858 dbbc 65b9 cdbb c35c 26bd
00000180: 1adb 0f3f 8961 593f 09e4 07c1 9537 2dbd
00000190: 3cb8 8a3c 8f25 3fbd 4cc6 523f dd67 213c
000001a0: b83d b2bc 8ea0 943c 41e1 293f f6e9 7340
000001b0: 8b45 1ebd 8fac 69bc cc90 a240 2d0e 183f
000001c0: bc20 013f 20b6 ec3b b5c7 213f f058 b13e
000001d0: 5cac 0c3f b9dc 0dbb e0f3 bf3b 9a13 cabe
000001e0: 431b f340 6723 ac3d 6a6c 5d3f ac0f 15c0
000001f0: 390e cc3b fbe3 ba40 899a 5ebc f6ec d73b
00000200: 90ea 16bd 13d8 0640 8d8c 6ebc 9805 49c1
00000210: ef9c 7b40 3af5 423f 16c2 49be 43c4 b640
00000220: 9e58 ee3f c214 a2b9 23d1 1f3d 0cd7 f840
00000230: 533c 1b3f a976 143c 3907 0ebd fa81 0540
00000240: 8673 b13f 93d4 f93c 1e1d 5e3e 4418 e940
00000250: 4da3 f3bb b402 a43c 9f3d 7dc1 9912 27bd
00000260: ae2e 3fbd 9e35 393d 069c 20bd 866e aabc
00000270: 0f79 db3c ccbf d0bc 219a b640 e919 49bd
00000280: f415 80bc 2aa8 cf3c 031f b23b f573 ef40
00000290: 88a8 9c3b abb4 d43c 65c6 5abd fca9 583f
000002a0: a094 473d 5615 4a3b f051 163f b251 56bc
000002b0: 6dbf f2c0 475b 1a40 6b66 0d3f e258 2c3d
000002c0: f8db 5fbd d8f2 2bbb 2a44 1340 dfd0 34bd
000002d0: 49ea 973c c6db 1dbd b4a1 dac0 03e7 d63e
000002e0: 883d 37bd c3ad e93f debd a7bd 51e9 6bbd
000002f0: d3d4 013c 33bc 393c ca75 333c a9bf 2c3f
00000300: 4ec2 26bc 306e 573f 42e5 eb3e aaa1 303f
00000310: e524 48bc fed4 77c1 c69f 5740 bf23 293d
00000320: 3e4e 0541 cf15 a4bf 8c18 073d b12a 353f
00000330: c058 3cbc e3d3 0f3d 741c 4240 e6cd eb3f
00000340: e813 57c1 46be aabd a64c 34bd 10d7 2b3d
00000350: 9f8b a73c 8a16 b13e 9ff7 6b3d 7f54 a73c
00000360: 0ef3 f2bc 9f51 53bd ad0f 783c c311 9a41
00000370: 249a 443d c6e7 08bb ee09 5bbf f01d 40c1
00000380: 8671 aa3f c1d2 1440 72ea f0bc d2d5 73bb
00000390: ec8a 053f 3d7d 00bd c72e f6bf 31a0 d53f
000003a0: 44ad 8f3f 65c3 13bf 998e 0b3d 6ceb 9a3f
000003b0: 4721 26c0 4de9 1cbc 61bd 5a40 cc3a b4bf
000003c0: 7338 493f c2cf 533d 9340 883f 530f 9cbb
000003d0: 4db4 8a3c 6d7a 3fbd 8a84 0941 392f 91bd
000003e0: d907 bd3f f15e 04bd a071 9dbc 5d22 083f
000003f0: 721b 4fbd dcfc 62bb c056 4dbc 87cd 21c0
0.59095985 0.6738623 0.041695073 0.71267486 -0.02908532 -0.08706588 -2.7236996 -5.6151695
-0.0042349217 0.5135617 0.40716025 0.84866357 1.1816154 -16.073414 1.5072638 -0.43132547
0.042412624 33.11686 -0.024638833 0.02575293 9.08824 0.0046480815 -9.804098 0.8540953
0.1982837 1.5302007 0.97643834 7.074908 -0.02885274 0.48884037 0.012330783 0.41852146
0.107857145 7.270229 0.5399833 1.2823989 0.0029097178 14.9197 2.048862 -7.072214
1.2565582 4.9214945 -0.062557094 -0.021093462 17.09721 -0.027646273 -0.030737653 0.055080704
0.064299285 0.0019093411 0.036720503 -0.047353495 -0.0039349436 -0.013596181 -0.026098574 5.637102
12.8107605 1.8505688 0.016897399 2.8454683 -0.0027056704 18.907234 -0.006802631 0.0019008189
1.9898126 -0.026634738 -9.149438 -0.06826071 1.4508464 0.006502973 -0.015301172 -0.048732013
-0.013857937 8.615498 -0.10310553 2.268789 -38.62082 1.1285901 -5.297819 0.9155461
28.187063 -0.036811646 5.6248794 0.6424727 0.8641327 0.06666426 -0.015475716 0.05671143
0.019538945 10.270913 0.051427238 0.044747118 -7.785072 -0.026775762 -0.0062782043 -0.04061581
0.561937 0.8491445 -8.493173 -0.042289335 0.016933553 -0.046666678 0.82333827 0.009851423
-0.021757945 0.018142965 0.66359335 3.8111548 -0.03864054 -0.014262333 5.0801754 0.5939663
0.50440574 0.0072238594 0.63195354 0.34638166 0.549505 -0.0021646454 0.0058579296 -0.3946808
7.597078 0.0840519 0.8649355 -2.3290815 0.0062272814 5.8403296 -0.013586649 0.0065895272
-0.03684479 2.1069381 -0.014559877 -12.563866 3.9314535 0.76155436 -0.19702944 5.7114577
1.8620794 -0.00030914514 0.039017808 7.776251 0.6063892 0.009061494 -0.034674857 2.0860581
1.386338 0.030496871 0.21690795 7.284212 -0.0074352385 0.02002082 -15.827544 -0.04078922
-0.046675377 0.04521715 -0.039211296 -0.020804655 0.026791124 -0.02548208 5.7063146 -0.049096975
-0.015635468 0.025348742 0.005435826 7.482905 0.0047808327 0.025965055 -0.05341186 0.84634376
0.048725724 0.003083547 0.58718777 -0.013081001 -7.5858674 2.4118211 0.552344 0.042076953
-0.054653138 -0.0026237275 2.3010354 -0.044144507 0.018544333 -0.03853967 -6.832239 0.41973123
-0.044736415 1.8256153 -0.08190511 -0.057595555 0.007924276 0.011336374 0.010953376 0.6747995
-0.010178162 0.8415251 0.46073347 0.6899668 -0.012215828 -15.4895 3.3691268 0.041293856
8.331602 -1.2819155 0.032982394 0.70768267 -0.011495769 0.03511418 3.0329866 1.842221
-13.44236 -0.08337073 -0.04401841 0.041953146 0.020452319 0.34587508 0.057609197 0.020426033
-0.029656913 -0.05159151 0.015140456 19.258673 0.047998562 -0.00208901 -0.85562027 -12.007309
1.3315895 2.3253634 -0.029408667 -0.0037206304 0.521651 -0.031369437 -1.9233025 1.6689512
1.1224751 -0.57720023 0.03407154 1.2103095 -2.595781 -0.009577108 3.4178088 -1.4080443
0.7860176 0.051711805 1.0644706 -0.004762569 0.016931677 -0.046747614 8.594858 -0.07089085
1.476802 -0.032317106 -0.01921922 0.53177434 -0.050563283 -0.003463558 -0.01253289 -2.5281694

main.6.bias f4 [4]
00000000: 2237 1043 4f18 1043 4f24 b442 cacf 9842
144.21536 144.09496 90.070915 76.40584
