src/policy_network.pth (torch, 6158 bytes, 6 tensors)

main.0.weight f4 [24, 6]
000000 cc 3a b1 3c 44 b0 11 40 cc a5 89 43 9b aa d6 44
       0.021634482 2.2763834 275.2953 1717.3314
000010 32 00 16 bf 9e 6f 6e 44 1a ff c5 bf df 80 1b be
       -0.5859405 953.744 -1.5468476 -0.15185879
000020 ed 6f 55 c0 8d 72 96 bc f9 58 69 bd 51 6e 5b 40
       -3.3349564 -0.018365169 -0.056969617 3.4286082
000030 16 c9 8d be 0a bc 28 bf 15 c0 ee c0 43 4c e9 40
       -0.2769248 -0.65911925 -7.4609475 7.2905593
000040 3b 13 a8 be 34 0d 09 42 22 29 43 be 58 1e d5 3d
       -0.32827172 34.262894 -0.1905866 0.10406178
000050 f6 9b 40 be 18 1a 44 bd 00 cb 29 be ee a8 8a 3e
       -0.18809494 -0.047876447 -0.16581345 0.27082008
000060 23 ff a4 be 41 b9 40 be 68 17 ec bd 16 5c 7b be
       -0.32225904 -0.18820669 -0.11527902 -0.24546847
000070 78 d3 1d 3d a2 72 ce be 74 c9 03 41 f6 e0 c0 c1
       0.03853175 -0.40321833 8.236683 -24.109844
000080 9a 96 a9 45 30 56 26 46 e9 0c 04 c1 9b 91 44 46
       5426.825 10645.547 -8.253152 12580.401
000090 15 ac d2 bc 0b fd 60 3e c1 a2 37 c0 9f ae a3 3f
       -0.02571682 0.21971528 -2.8693087 1.2787665
0000a0 ac d3 47 bd 3e c3 7f 40 5c 16 0b bd e7 ea b2 3d
       -0.04878585 3.9962916 -0.03395687 0.0873621
0000b0 73 e0 8f c0 f7 aa 8b 3f cb a0 cf bc 89 89 ec 40
       -4.4961486 1.0911549 -0.025345227 7.391789
0000c0 fc 53 30 41 96 77 36 41 13 a7 24 46 e5 34 1c 46
       11.020504 11.404196 10537.769 9997.224
0000d0 aa ec c0 c0 49 e4 39 46 03 04 13 40 bc 35 c9 c0
       -6.0288897 11897.071 2.2971199 -6.2878094
0000e0 5c 6c 79 44 0e 3d 0d 46 36 e0 87 c1 a9 a0 3f 46
       997.6931 9039.264 -16.984478 12264.165
0000f0 37 2c bf bd 60 73 b1 be 3d 58 0c 3d 8d 6c 8b be
       -0.09334605 -0.34658337 0.034263838 -0.27231255
000100 c8 a3 6e 3d 1f f7 67 be 6a 60 aa 41 15 2d b6 42
       0.058261663 -0.22652863 21.297077 91.08805
000110 fc b4 2c 46 ac c7 37 46 e1 59 f7 40 4b 7f 4a 46
       11053.246 11761.918 7.7297215 12959.823
000120 47 27 e5 3f cc 8d 5a 43 cd d5 04 44 51 99 d3 45
       1.7902611 218.5539 531.34064 6771.1646
000130 f1 49 1d c3 be 58 92 45 23 8b 08 bf 62 31 02 40
       -157.28883 4683.093 -0.53337306 2.034264
000140 e7 75 45 c0 03 48 84 c0 94 73 b1 be d3 4f ec c0
       -3.0853212 -4.1337905 -0.34658492 -7.384744
000150 be d9 fa bd 67 08 bd be 1a 9b bd 3e ed c2 88 bf
       -0.12248562 -0.36920473 0.37032396 -1.0684487
000160 57 64 15 bf 7f 0e 50 40 18 fb b2 be 3b 62 ec bf
       -0.5835623 3.2508848 -0.34957194 -1.8467478
000170 3b ab ab c0 a9 c4 02 41 dd 64 dc bd ec 61 23 42
       -5.364652 8.173013 -0.10761426 40.845627
000180 fc 1e 8e 3e af 94 56 c2 53 eb 9b 43 68 b1 41 45
       0.27758014 -53.6452 311.83847 3099.088
000190 ff c9 20 41 26 4c 86 44 90 b7 5c bd 1a ba 97 be
       10.049315 1074.3796 -0.053885996 -0.29634172
0001a0 40 e5 1c 3c a4 c7 8e be a4 55 b1 be d4 33 66 be
       0.009576142 -0.2788669 -0.3463565 -0.22480708
0001b0 4d ca 2c bf f3 dd 13 bf 99 33 b9 3d cf 52 76 be
       -0.67496186 -0.5776054 0.090430446 -0.24055026
0001c0 f6 74 44 be f8 cb 32 bf ea 47 89 be 2e 26 0b be
       -0.19185242 -0.6984248 -0.2681268 -0.13588783
0001d0 a0 bd 82 3d 85 ec b7 be f7 1f 34 be 6b 45 7a be
       0.06383824 -0.35922638 -0.17590319 -0.24440543
0001e0 99 fe 7e be c2 4e f9 bf 94 2d c2 c0 21 cf d7 40
       -0.24901809 -1.947716 -6.0680637 6.7440343
0001f0 e1 4c 79 3c 1b bc 20 42 f5 98 47 bf a8 f8 73 bd
       0.015216083 40.183697 -0.7796777 -0.05956331
000200 4f 5a bd be 85 8e 12 c0 8a f7 53 bb cf f9 9c c0
       -0.36982962 -2.2899487 -0.003234359 -4.905494
000210 0a 00 b1 be c0 a6 90 3e e8 0b e6 bd 7e 3f 20 be
       -0.34570342 0.2825222 -0.1123274 -0.1564922
000220 02 81 ad be 75 cd cf be 30 9a 2b bf e2 a0 f9 3e
       -0.33887488 -0.4058644 -0.67032146 0.48755556
000230 23 63 03 bf 5f 89 d0 bf 97 4a d1 be e4 76 35 3e
       -0.51323146 -1.6291922 -0.4087722 0.17721134

main.0.bias f4 [24]
000000 77 d5 86 46 4b ee db be 72 fa 9e 41 1e bf a8 3e
       17258.732 -0.4295524 19.872288 0.3295831
000010 5c 69 be 3e 3c 53 83 46 5f 09 0a 40 4b 4e 1b 40
       0.37189758 16809.617 2.156822 2.4266536
000020 48 07 03 46 55 92 77 46 da 95 80 3e f6 64 87 46
       8385.82 15844.583 0.25114328 17330.48
000030 43 8a 5e 46 26 c0 74 c0 fa 0e 82 3f 86 7f b1 41
       14242.565 -3.8242278 1.016082 22.187267
000040 eb 91 83 46 50 bb b7 3d 98 c0 87 be e0 33 b8 be
       16840.959 0.08971274 -0.26514125 -0.35977077
000050 70 36 b1 41 57 61 c2 bf 64 84 3f be 49 ec 31 3f
       22.15158 -1.5185956 -0.18702847 0.6950117

main.2.weight f4 [24, 24]
000000 b6 e9 f1 bd a9 0a a5 be de c9 89 be 80 b6 1f bc
       -0.11812155 -0.32234696 -0.26911825 -0.009748101
000010 bc 6b e9 3d c7 ed 61 be d6 86 ee bd ee 9d 69 be
       0.11397502 -0.22063361 -0.11646812 -0.22814152
000020 ea 27 1c be 5b 3e ff bd d4 ca 21 3e ad e7 b6 be
       -0.15249601 -0.12463065 0.15800029 -0.3572363
000030 e0 2e 42 3d f5 2d 5d bd b0 9b 17 3d 68 e0 94 bd
       0.047407985 -0.053998906 0.03701371 -0.072693646
000040 43 e1 62 bd 58 b0 db 3d a4 51 9c 3d 5c eb 12 bd
       -0.055390608 0.10726994 0.07632759 -0.035868987
000050 0a c2 80 be 8b b1 e0 bd fc b2 13 bd 4b 86 4b be
       -0.2514804 -0.10971364 -0.036059365 -0.19875447
000060 06 39 65 3d 28 fb 28 3e 51 c8 bf bd d0 32 3b bd
       0.055962585 0.16502059 -0.09364379 -0.045702755
000070 40 35 43 3b 36 b0 b5 bd 16 f0 ac bc 1b 87 74 bc
       0.0029786378 -0.088715 -0.021110576 -0.01492479
000080 1b 23 82 be 25 25 0b be 54 a3 35 3e 51 6b 33 bd
       -0.25417408 -0.13588388 0.17738086 -0.043803517
000090 cf 56 8c bd 8e 0c 3a be 59 07 3a be 6c ab 88 be
       -0.06852495 -0.18168852 -0.18166865 -0.26693285
0000a0 91 ac 0d be 0c 2d 8d 3d 16 47 05 3e c8 02 c1 3d
       -0.1383536 0.06893358 0.13015398 0.094243586
0000b0 f4 23 88 be 5c d2 23 be 08 f3 03 bd 66 7b 06 3e
       -0.2658993 -0.15998214 -0.032214195 0.1313301
0000c0 8c dd 30 45 b0 ad e8 be 27 31 25 be e2 39 9f bd
       2829.8467 -0.45445013 -0.16132031 -0.07774712
0000d0 9a 4a 07 be 9b c6 85 42 c8 b8 e7 3b 67 99 70 3d
       -0.13212052 66.8879 0.007071588 0.058740046
0000e0 41 d5 82 41 15 8c bb 43 d8 4e 21 3e b5 c5 e0 41
       16.354128 375.0944 0.15752733 28.096537
0000f0 a6 d3 07 44 cc 81 a2 bf 23 bd 79 3e 49 38 c8 3f
       543.307 -1.2695861 0.24388556 1.5642177
000100 0c 6a a9 44 d6 e4 2f 3e f1 c7 57 be c8 9b 53 3d
       1355.314 0.17177138 -0.21072365 0.051662236
000110 df a6 d2 3f 26 d6 9b ba d0 15 33 be 77 f2 b3 bf
       1.6457175 -0.0011889383 -0.1748879 -1.4058369
000120 70 3c a3 bd 51 3f cd bd 0e 88 48 be 7c 96 f0 bd
       -0.07970512 -0.10021842 -0.1958315 -0.117474526
000130 14 5b 18 bd 06 17 b1 be 39 94 08 be a4 ab 8a 3d
       -0.037196234 -0.34587878 -0.13337792 0.06771019
000140 d1 0e b0 be fc 09 01 3e e8 1c 86 bd 5c c7 9b be
       -0.34386304 0.12601465 -0.06548482 -0.30425537
000150 f4 6f a3 be bc a8 c3 be a4 cb 7f bd cf 02 b6 3d
       -0.3192135 -0.38214672 -0.062450066 0.088872544
000160 24 95 28 bd da 85 11 be 10 1e d2 3d ec b3 bd 3d
       -0.041157857 -0.14211217 0.1025964 0.09262833
000170 f5 a9 db 3e e5 54 20 be 2a 54 16 3e ce a1 c5 bd
       0.42903104 -0.15657385 0.14680544 -0.096500024
000180 66 82 31 bd 80 e6 83 3e 7e 79 4c be 80 e8 ce ba
       -0.04333725 0.25761795 -0.1996822 -0.0015785843
000190 7c 7e 40 bd ef 95 e4 be 94 3e 22 3e 31 97 8d be
       -0.046995625 -0.4464564 0.15844184 -0.27654412
0001a0 bf f5 c2 3d d4 14 0b 3e b3 ac 21 3e 7d 8d da be
       0.095195286 0.13582164 0.15788536 -0.42686072
0001b0 26 eb 8b be 65 5f dc bd 06 7b f7 bc e5 0a 50 be
       -0.27327842 -0.107603826 -0.03021003 -0.20316656
0001c0 4d 26 0b bf a2 99 fa bd 68 41 92 bc 9c c4 cd bd
       -0.5435532 -0.122363344 -0.017853454 -0.10047266
0001d0 3e e2 aa bd 22 b2 0c be b2 a2 46 be fa 91 60 3d
       -0.083439335 -0.13739827 -0.19398001 0.054826714
0001e0 04 50 18 bd 67 af 09 be b6 2a fc bd ee 9c aa bd
       -0.037185684 -0.13445817 -0.12312834 -0.08330713
0001f0 d2 c2 3c be 88 87 e1 be d4 5e 9b 3d 21 94 58 be
       -0.18433693 -0.44048715 0.075864464 -0.21150257
000200 4c 60 06 be 20 78 82 bc ce 36 8b bd 83 be 28 be
       -0.13122672 -0.01592642 -0.067975625 -0.16478924
000210 c0 ea d6 3b 58 96 0c be 44 f0 8f bd bc 29 c8 bd
       0.006558746 -0.13729227 -0.07028249 -0.09773585
000220 24 aa a8 be 74 44 2f 3e f7 4b a7 bd 20 8c 5d 3d
       -0.32942307 0.17115957 -0.08168786 0.05408871
000230 3c 0c 91 bd 28 8f 99 bd 52 df 42 3e c2 dc 8b 3a
       -0.07082412 -0.07498008 0.19030502 0.0010670649
000240 78 d8 5b 45 3d b9 ab 3c 02 d2 f6 3e 48 f6 5b 3d
       3517.5293 0.020962352 0.48207098 0.05370167
000250 60 22 0c 3e 70 d8 ff 42 ac 0c bb bd 57 56 b6 bc
       0.13684988 127.92273 -0.09133276 -0.022257967
000260 1c 95 61 42 e5 d1 c7 43 07 9b ba 3d 9b 56 a2 41
       56.395615 399.6398 0.091116 20.292288
000270 cd 7a eb 43 bc a9 b0 be 2b 03 22 bf 31 49 6a bf
       470.95938 -0.34504497 -0.63286084 -0.9151793
000280 a2 bc b7 44 74 c3 4e bd a0 10 0d 3e 70 f2 0b 3d
       1469.8948 -0.050479367 0.13775873 0.034166753
000290 50 23 a9 be 79 44 49 c0 b8 f7 cf 3d f8 23 5a be
       -0.33034754 -3.1448042 0.101546705 -0.21302783
0002a0 ff 37 11 be 81 b3 99 bc 80 38 58 be b8 55 b6 bc
       -0.14181517 -0.018762352 -0.21115303 -0.02225767
0002b0 f0 8d 91 bc 3c ce 45 bd b7 76 61 be 21 e8 98 be
       -0.017767876 -0.048292384 -0.22017942 -0.298646
0002c0 1f f7 28 be f7 67 67 be e1 cc a4 3d ce 0f ad be
       -0.16500519 -0.22598253 0.0804689 -0.3380112
0002d0 69 5d 0c be 3e 67 44 be 50 7e 77 bd 38 0d e5 3d
       -0.13707508 -0.19180009 -0.060423195 0.11184162
0002e0 75 cd de bd 94 cc e8 3d 24 3f 4f be c0 4d 94 3c
       -0.108790316 0.11367145 -0.2023893 0.01810348
0002f0 98 3b fd 3d 23 cd 0a be 91 58 f6 bd 5e 93 9f 3d
       0.12364882 -0.13554816 -0.120286115 0.0779178
000300 8d d8 87 be 4b 39 9d be e4 18 ed be 30 63 15 3c
       -0.26532403 -0.30707774 -0.46308053 0.009117886
000310 08 40 b9 3d be 36 46 be db 33 80 3d 8c e9 33 be
       0.09045416 -0.1935682 0.06259891 -0.1756956
000320 13 da db be 40 8c 9b be 2c 98 3e 3e d2 09 fe bc
       -0.42939815 -0.3038044 0.18612736 -0.031010542
000330 c0 b5 e5 be 9a 43 49 bd a9 ec ea be e1 ac c9 bd
       -0.44865227 -0.049136735 -0.45883682 -0.09847427
000340 3c a1 35 be 6c a4 e3 3d fa 25 2d 3e c9 e7 3f be
       -0.17737287 0.11115345 0.16909018 -0.18740763
000350 b4 fe 73 be 75 19 2e be 6c 8b 9c 3d d6 01 19 3e
       -0.2382763 -0.17001899 0.0764378 0.14942107
000360 4a b9 a3 be ce 2b 3e 3e 36 19 32 be 36 ad 9f bd
       -0.31977302 0.18571398 -0.1739243 -0.07796709
000370 a4 d3 f3 3d 6b 37 ae be f8 25 2b bd fb 3c ae bd
       0.119056016 -0.34026656 -0.041784257 -0.08507725
000380 1d 64 12 bd 94 0d cd 3d 84 f6 85 3d ba 4b 2c bf
       -0.035740007 0.100123554 0.0654116 -0.6730305
000390 a8 ac 29 be 10 02 63 be 70 b7 77 3d 55 04 c1 bd
       -0.1656977 -0.22168756 0.060477674 -0.094246544
0003a0 9c 10 83 bf e0 2a 0d 3e b0 34 85 3c 70 e4 16 3c
       -1.0239444 0.13785887 0.016260475 0.009209737
0003b0 48 c3 4d bd 09 4a 3d be 1a 89 44 be 19 d5 c7 bd
       -0.050235063 -0.18485273 -0.19192925 -0.09757442
0003c0 90 65 8e be 7b 12 95 bd ca 15 81 be 88 8c a3 bd
       -0.2781186 -0.072789155 -0.25211936 -0.079857886
0003d0 f4 49 47 3e 1b 51 d3 bd 58 03 15 3e 0f d4 8b be
       0.19461805 -0.10318204 0.14552057 -0.27310225
0003e0 25 ec 83 be 73 48 cb bd 54 44 0b be bb 49 9f be
       -0.257661 -0.09925928 -0.13600284 -0.3111094
0003f0 d1 8f 3c be 44 c8 dd bd b7 94 a7 be 92 ed 59 bd
       -0.18414237 -0.10829213 -0.32730648 -0.05320508

main.2.bias f4 [24]
000000 ca 1a 9d be 17 b1 a8 be bb 03 83 46 5f e1 8f be
       -0.306845 -0.3294761 16769.865 -0.28101632
000010 c0 78 66 be e7 de 44 3d c2 79 7f 46 98 ee 8c be
       -0.22507 0.04806414 16350.439 -0.27525783
000020 c9 cf e0 be 95 83 17 bf 96 ce b8 bc d6 f8 96 bc
       -0.43908527 -0.59185153 -0.022559445 -0.018429201
000030 41 53 e3 45 06 5d 5c bf f3 79 d7 be 18 44 86 46
       7274.4067 -0.8607944 -0.42085227 17186.047
000040 b7 2c f5 be 5d 31 f1 bd 68 20 b1 be 1c 78 a7 be
       -0.47885677 -0.117769934 -0.34595037 -0.32708824
000050 d0 a9 0a bf 69 0e 87 46 8d a7 73 46 91 69 c8 be
       -0.54165363 17287.205 15593.888 -0.3914304

main.4.weight f4 [4, 24]
000000 6c 88 06 be f6 39 4d 3e 65 e3 56 43 e2 a3 ba 3c
       -0.13137978 0.20041642 214.88826 0.022783224
000010 21 5f d1 bd 29 a5 56 3e 65 4f fe 42 90 e7 18 bd
       -0.102232225 0.20961441 127.15507 -0.03733021
000020 94 06 a3 3e 00 f3 44 bd 0e b1 1d be cb 3d 8a 3d
       0.31840956 -0.048083305 -0.15399572 0.06750067
000030 6b 48 69 c2 70 51 05 bf fe 40 68 be e3 ac 09 42
       -58.32072 -0.5207739 -0.22681043 34.418835
000040 87 33 dc bd 51 43 4f be e0 d1 da 3d f0 dd 14 be
       -0.107520156 -0.20240523 0.10684562 -0.14537787
000050 06 be 0a bd 9e 93 68 42 32 4c 2c 44 28 3f 0d 3e
       -0.033872627 58.144157 689.19055 0.13793623
000060 0d d9 f9 bd fc d3 c2 bd 8c e4 3c 43 cc 17 f1 be
       -0.12199602 -0.09513089 188.89276 -0.47088468
000070 93 0f 3d bf 50 77 8c be 22 7b 4d 43 60 32 4c 3e
       -0.7385189 -0.27434778 205.48099 0.19941092
000080 fc 1b 19 3e 7e e3 80 3e 21 8f 93 be 5b f6 ba 3d
       0.14952081 0.25173563 -0.28820136 0.0912902
000090 dc 99 a2 c0 ae 08 10 bd 08 83 f4 3c d6 3c bf 42
       -5.0812817 -0.035164528 0.029847637 95.61882
0000a0 12 34 10 be ef 56 ff bd ed b8 cd bd e4 bf 20 3d
       -0.14082363 -0.12467753 -0.100450374 0.0392455
0000b0 1b 20 f4 3d 65 7d a3 42 72 29 0b 44 4c 96 3d bd
       0.11920186 81.74491 556.6476 -0.046285912
0000c0 95 57 30 be 2f 81 2a 3e 1b 22 00 43 74 38 12 be
       -0.1722091 0.16650842 128.13322 -0.14279348
0000d0 98 b7 89 bd 3b 40 9b 3d 05 e4 0b 43 d9 d7 7d be
       -0.06724471 0.0758061 139.8907 -0.2478937
0000e0 79 72 9e bc 1a 2a 8c 3e a9 ee ca bd b0 2b d6 bd
       -0.019341694 0.2737587 -0.09908802 -0.104575515
0000f0 57 61 0b 44 84 f0 6c 3d b0 8b fc 3d 73 9a 1b 43
       557.52094 0.05784656 0.12331331 155.60332
000100 d5 f6 e5 bd de 40 43 bd e4 f5 13 3e d4 55 cf 3d
       -0.1122872 -0.047669284 0.14449269 0.10123792
000110 c0 8b 54 3d e9 b5 20 43 17 c7 1b 44 f3 77 e2 3b
       0.05189109 160.71059 623.1108 0.0069112717
000120 4f 74 5f 3d 94 87 2f be a6 a8 fb 42 a2 b2 ef be
       0.05455428 -0.17141563 125.82939 -0.46815974
000130 78 18 ba be a4 64 dc 3c 98 15 07 43 08 9b 1a bd
       -0.36346793 0.026903458 135.08435 -0.037745506
000140 93 65 8e 3e 67 17 6c 3e cd 53 88 bd ae 3c 14 bc
       0.2781187 0.23055802 -0.06656609 -0.00904767
000150 62 5d 0f 44 e3 e6 c6 3e d3 1f cf bd 2f 4c 28 43
       573.4591 0.38848028 -0.10113492 168.29759
000160 52 40 9e 3d 1e a5 a1 3c f0 20 44 3e 72 f5 49 b9
       0.07727112 0.019732054 0.1915319 -0.00019260289
000170 8b bb d1 3d 01 0b 2b 43 be 3c 21 44 4a ad 20 be
       0.10240849 171.04298 644.9491 -0.15691105

main.4.bias f4 [4]
000000 e6 ae 6a 46 54 92 63 46 87 21 67 46 7c 1e 61 46
       15019.725 14564.582 14792.382 14407.621
