src/policy_network_continued.pth (torch, 541132 bytes, 8 tensors)

main.0.weight f4 [256, 6]
000000 66 bf 37 3d fa ce 94 40 b4 a8 49 bd 18 00 5f c1
       0.044860266 4.6502657 -0.049233153 -13.937523
000010 fd da 4c bf a5 3e 56 c1 d5 20 6a bf 45 ad bb 3f
       -0.8002165 -13.390294 -0.9145635 1.4662253
000020 f4 d5 75 c2 51 5c b2 c1 84 ef 56 3f 47 87 ba 40
       -61.45894 -22.295076 0.8395922 5.8290133
000030 cc 23 c3 ba 6e b7 4d 40 2f 0a 13 c1 4d 84 2b 41
       -0.0014887988 3.2143207 -9.189986 10.7198
000040 25 fa e0 bf 9d 1e 9e 40 22 29 43 be 58 1e d5 3d
       -1.7576338 4.941237 -0.1905866 0.10406178
000050 f6 9b 40 be 18 1a 44 bd 00 cb 29 be ee a8 8a 3e
       -0.18809494 -0.047876447 -0.16581345 0.27082008
000060 23 ff a4 be 41 b9 40 be 68 17 ec bd 16 5c 7b be
       -0.32225904 -0.18820669 -0.11527902 -0.24546847
000070 78 d3 1d 3d a2 72 ce be 4f f6 bc 3b e7 c5 1f bf
       0.03853175 -0.40321833 0.005766667 -0.6241135
000080 a6 e9 83 bf a2 62 f6 c0 ef 53 0f 3e b4 f3 c8 40
       -1.0305679 -7.69954 0.13996862 6.279749
000090 89 68 dc 3c f4 40 99 40 73 47 c8 bf ab 2f 35 c1
       0.026905315 4.789179 -1.5646805 -11.324138
0000a0 f1 c5 cd 3e 89 44 e7 40 00 72 21 bd fd 0e f4 3f
       0.4019008 7.227116 -0.03941536 1.9067074
0000b0 87 95 36 c1 b7 7b 8b 41 31 2e 5d 3e 68 ce 01 41
       -11.411506 17.435408 0.21599652 8.112892
0000c0 e2 7e 05 bb b7 1f e5 bf be 0e 15 c0 a5 08 f6 c0
       -0.0020369818 -1.7900304 -2.3290248 -7.6885552
0000d0 97 46 1e 3f 81 e1 c5 40 6d 02 01 bd 87 2f 01 bd
       0.6182646 6.1837773 -0.031496454 -0.031539466
0000e0 ed 96 74 3f 9d 47 ab c1 7d 47 9d bc 0e d6 cf c1
       0.95542794 -21.409967 -0.019199127 -25.979519
0000f0 46 fc a4 3c 9c d6 15 bf c4 99 d9 bf 4c f6 f7 bf
       0.020139825 -0.5853059 -1.700005 -1.9372039
000100 ea b6 34 3f eb 9b d5 40 93 f1 c8 bb 78 38 a2 bf
       0.70591605 6.675283 -0.0061323135 -1.2673483
000110 d1 cd 6f c1 6a fc 1f 40 8b cb 8c bb 61 39 8e 40
       -14.987748 2.4997811 -0.004296725 4.4445043
000120 d4 a7 0d 3d 39 ac b8 3e f6 71 84 c1 88 fc cb c1
       0.03458388 0.36068895 -16.555645 -25.498306
000130 04 68 13 be cd 78 c3 40 fc b1 c4 b9 08 e8 af 3f
       -0.14395148 6.108496 -0.00037516642 1.3742685
000140 80 a3 aa bf ea 60 ee 41 69 c2 08 bf 81 8a 1a 41
       -1.3331146 29.797321 -0.53421646 9.658814
000150 48 3c d8 3c 3f 8f 1e 40 6f a4 74 c1 3d 63 8b c1
       0.026395932 2.477493 -15.290145 -17.423456
000160 e6 41 06 bf e5 65 17 c2 44 76 2e 3e a8 27 8a c0
       -0.52444303 -37.849506 0.17037302 -4.317341
000170 ca 1c 48 40 7f 75 6d 41 2a 9f 30 bf 41 1a 85 c0
       3.1267571 14.841186 -0.68992865 -4.159455
000180 0d 09 83 3d 53 2c 4b 3f ae 55 f1 40 93 73 c9 c1
       0.06398211 0.7936451 7.541709 -25.181433
000190 0c 1a ab be 5a cb 00 c1 90 b7 5c bd 1a ba 97 be
       -0.3341831 -8.049646 -0.053885996 -0.29634172
0001a0 40 e5 1c 3c a4 c7 8e be a4 55 b1 be d4 33 66 be
       0.009576142 -0.2788669 -0.3463565 -0.22480708
0001b0 1d 9d 22 bf ee 94 7b 3f 6b fd 91 c1 a6 63 9b c1
       -0.63520986 0.98274124 -18.24874 -19.423656
0001c0 9f e8 b2 bd de 66 8c 40 ea 47 89 be 2e 26 0b be
       -0.08735775 4.387557 -0.2681268 -0.13588783
0001d0 a0 bd 82 3d 85 ec b7 be f7 1f 34 be 6b 45 7a be
       0.06383824 -0.35922638 -0.17590319 -0.24440543
0001e0 fa 08 90 3d 23 6d e6 bf 32 9e 49 c0 1f 96 1e c2
       0.07032962 -1.8002056 -3.1502805 -39.646603
0001f0 50 28 11 c0 13 78 e9 40 05 95 5c bf f7 11 24 3e
       -2.2680855 7.2959075 -0.86164886 0.16022478
000200 0e 40 64 40 12 4e b0 40 00 27 a1 3f f8 a6 81 c1
       3.5664096 5.50953 1.2590027 -16.206528
000210 0a 00 b1 be c0 a6 90 3e e8 0b e6 bd 7e 3f 20 be
       -0.34570342 0.2825222 -0.1123274 -0.1564922
000220 02 81 ad be 75 cd cf be a1 53 bb bc dd 44 33 bf
       -0.33887488 -0.4058644 -0.022867026 -0.7002695
000230 4c 1c 45 41 aa a3 07 42 4a 66 a8 3e 2a bb bf 40
       12.319408 33.90983 0.3289054 5.991597
000240 ac 5b 9c be c8 e1 4e 3f b0 b8 d2 c2 f9 01 ac c1
       -0.3053869 0.80813265 -105.36072 -21.500963
000250 13 47 7b 3f d1 73 15 40 2e 58 85 bb 96 19 a3 bf
       0.98155326 2.3351939 -0.0040693497 -1.2742183
000260 ea 7b 08 bf d4 70 94 41 39 15 cf 3e b8 28 b7 40
       -0.5331408 18.555092 0.4044588 5.7237206
000270 ef d0 3b 3c 11 de c9 3c 05 83 e0 40 e5 48 35 42
       0.011463388 0.024642022 7.0159936 45.321186
000280 fe bc 98 bc f6 d9 6a c1 68 33 d2 ba 1b fb 0f 40
       -0.018644806 -14.678213 -0.0016037049 2.2497013
000290 7e 46 dc c0 c5 eb b2 c1 e9 cd 41 bf 74 df f5 40
       -6.883605 -22.365122 -0.7570482 7.683527
0002a0 8c ed 85 3c d7 73 4f c0 31 10 25 40 86 4c cb 40
       0.016348623 -3.2414453 2.5791132 6.3530912
0002b0 34 5d 2e 3f 83 74 d2 c1 fe 29 55 be bc af e2 be
       0.68110967 -26.30689 -0.208168 -0.442747
0002c0 dd cc dc 3f 64 a6 69 3e 65 28 07 3f e2 aa 1c c2
       1.7250019 0.22817379 0.5279601 -39.166878
0002d0 07 7a 1f 3c 14 6f 07 40 26 57 4f c0 c9 6a 60 c1
       0.009733683 2.1161547 -3.239694 -14.026071
0002e0 82 a7 0f 3f 1a d0 fd 40 39 bf 8b 3c ac 8b 09 c0
       0.5611497 7.931653 0.017058956 -2.14915
0002f0 75 be 09 c2 e0 65 ae 41 76 f1 f2 3e c4 d8 52 be
       -34.435993 21.799744 0.47449845 -0.20590502
000300 2a 69 ce 3c ce 7f 3e 40 22 bf d0 c0 75 2f f8 c0
       0.02519663 2.9765506 -6.5233316 -7.755793
000310 11 e6 3b bf cd 03 00 c1 c1 19 67 bc 28 2f 19 40
       -0.7339793 -8.000928 -0.014105261 2.3935032
000320 e9 4e 28 be 62 ed 73 40 29 af 5f 3f dc 13 99 c1
       -0.16436352 3.8113637 0.8737665 -19.134697
000330 7d 48 55 bd 08 49 8e be 3d 25 90 be fb 7f cb be
       -0.052071083 -0.27790093 -0.2815341 -0.3974608
000340 ac cb 28 be aa 4b d9 3d be cc 32 ba 04 cb 8d 3f
       -0.16483945 0.10610135 -0.000682067 1.107758
000350 10 7b e5 bf 5e 71 05 42 95 7d 63 be a8 80 1d 41
       -1.7928181 33.36071 -0.22215874 9.84391
000360 f5 44 85 3b 12 87 39 c0 49 68 46 c0 99 66 31 c2
       0.004067058 -2.898869 -3.100115 -44.350193
000370 1a 5c f4 3e 36 b2 0e 41 0a 6c f4 3c 3b 44 04 c2
       0.47726518 8.918509 0.029836673 -33.06663
000380 61 19 1b c1 b7 db 4b c2 4f 9c ac c1 b3 76 52 41
       -9.693696 -50.964565 -21.576323 13.153979
000390 22 55 af be b9 36 55 bf ce 3d 30 41 e4 a6 7f c2
       -0.3424464 -0.83286625 11.015089 -63.91298
0003a0 4a 28 4b 3f e5 20 3c 41 ce b8 04 3e 17 cd 63 bf
       0.7935835 11.758031 0.12961122 -0.8898482
0003b0 68 3c 8c c0 17 13 87 c1 c7 c7 97 3e 5b d6 dc c0
       -4.382374 -16.884321 0.29644606 -6.9011664
0003c0 5b 21 a3 3c e4 70 b3 bf 4c 38 3d c0 dd d4 49 42
       0.019913366 -1.4018826 -2.956561 50.457874
0003d0 8b 00 6f 3e d0 96 e3 40 39 94 88 be a4 ab 0a 3e
       0.23340051 7.1121597 -0.26675585 0.13542038
0003e0 d4 7b f8 bd fc 09 81 3e e8 1c 06 be 20 55 99 be
       -0.12132993 0.2520293 -0.13096964 -0.29947758
0003f0 2f 17 30 3d 70 f3 ff c2 78 17 fb 40 c7 4b 14 c3
       0.04299086 -127.975464 7.846615 -148.296

main.0.bias f4 [256]
000000 2d bc 6a c2 26 67 07 c2 d1 ae a0 43 ea 6b 06 be
       -58.683765 -33.85073 321.36575 -0.13127103
000010 c6 0d 15 be b6 e8 83 43 41 8e 65 43 f8 e7 88 c3
       -0.14556035 263.81805 229.55568 -273.81226
000020 d0 f6 77 43 fc af 2b 42 0f 3b 78 43 89 71 9e 43
       247.96411 42.92186 248.2307 316.887
000030 99 59 8a c3 73 03 6a c3 10 fd a6 42 89 8d 82 c3
       -276.69998 -234.01347 83.49426 -261.10574
000040 5d 84 39 43 d0 f7 20 3e 10 a3 8e c1 a4 34 aa 3d
       185.51704 0.15719533 -17.82962 0.08310822
000050 4f dc 83 43 8a 62 55 3f 3d 17 99 be 73 2a 70 43
       263.72116 0.83353484 -0.29900542 240.16582
000060 d7 83 16 c3 aa 32 75 43 85 83 3b c3 42 84 73 43
       -150.515 245.1979 -187.51375 243.51663
000070 ed ba 22 43 bd 22 21 bf a0 eb 7c 43 bf 0b af c2
       162.73018 -0.6294363 252.92041 -87.52294
000080 99 b5 73 c3 ce 5f 34 43 81 78 a3 3c 2b c7 6c c3
       -243.70937 180.37424 0.019954922 -236.778
000090 47 a9 64 43 d8 69 d4 c2 06 5f 50 c3 c0 13 21 43
       228.66124 -106.206726 -208.37119 161.07715
0000a0 04 d8 35 c3 60 90 2f 3e 60 bf 2f 43 71 1a 18 c3
       -181.84381 0.17144918 175.74756 -152.10329
0000b0 e8 ce 55 c3 b7 7b 3d 43 d4 bc b1 be 90 a3 f1 3b
       -213.80823 189.48326 -0.34714377 0.0073742345
0000c0 ef d4 fe c2 bc 14 23 43 6f 6c 5e c3 2a 5c 4f c2
       -127.415886 163.081 -222.42357 -51.840004
0000d0 64 70 1e c2 03 cd da c2 0c 8d 45 be 42 29 14 c3
       -39.609756 -109.40041 -0.19292086 -148.16116
0000e0 e0 79 cc 3d 8f 86 1b c0 69 ba 01 43 62 b7 7a be
       0.09984183 -2.4300878 129.72816 -0.24484017
0000f0 1c 64 9e c2 05 aa 7b 43 43 8b d7 be 35 2b 82 43
       -79.195526 251.66414 -0.42098436 260.33755
000100 93 c2 93 c3 63 ee 20 c3 91 1f bc be 36 b5 50 43
       -295.5201 -160.9312 -0.36742833 208.70786
000110 3c 2a cf 40 b8 2b 0f bf ce d0 01 c3 dd 82 2e 43
       6.4739056 -0.55926085 -129.81564 174.51118
000120 04 84 81 3d 67 e9 5d c1 46 ba 60 c3 ca 7d 7f 43
       0.06324008 -13.869483 -224.72763 255.49136
000130 cc 10 b6 3f 77 3c 40 c3 ab 70 94 43 ea 4e 98 be
       1.4223876 -192.23619 296.88022 -0.29747707
000140 a5 f8 80 43 46 ee 1f 42 70 35 7f 43 4b 11 a9 be
       257.94254 39.98269 255.20874 -0.33021006
000150 a0 96 82 c3 34 28 18 c3 a2 e9 42 c3 05 57 1f c3
       -261.17676 -152.15704 -194.91263 -159.33992
000160 08 de 5a c3 f4 f8 82 43 f8 38 23 c0 28 8b 09 c3
       -218.86731 261.94495 -2.550352 -137.54358
000170 8b 94 e1 c1 5f 73 4a c3 8e d6 86 3e cc 0c 4b 43
       -28.19753 -202.45067 0.26335567 203.04999
000180 e4 a0 5d c1 a6 eb 9c c2 74 61 69 43 90 6b 42 43
       -13.85178 -78.46025 233.38068 194.42017
000190 d6 16 c9 be f9 28 a9 c1 00 13 02 c2 38 c2 d6 3d
       -0.39275235 -21.145006 -32.518555 0.10486263
0001a0 6e 4d e1 bb 7c a8 11 3e b9 b8 93 be 07 12 81 c3
       -0.0068756854 0.14224428 -0.2885187 -258.14084
0001b0 4b 69 75 43 d3 05 b4 c2 10 43 6e 3f fc 54 28 c3
       245.4113 -90.011375 0.9307108 -168.33197
0001c0 08 34 1b c3 d7 ab b7 be 60 ed 62 bc 31 1b 56 c3
       -155.20325 -0.3587329 -0.01385054 -214.10622
0001d0 0b 79 7d 43 7b d2 da 40 95 e2 14 3c f2 6f 28 c3
       253.47282 6.8381934 0.0090872245 -168.43729
0001e0 f0 17 7b 3e 61 01 4b 42 44 e6 5f 3e 13 63 1e c1
       0.2452085 50.751347 0.21865183 -9.899188
0001f0 00 50 79 ba f2 d5 3d 43 aa 96 88 43 d3 5c 7b 40
       -0.0009510517 189.83572 273.17706 3.9275405
000200 2d 31 b8 be ec 63 07 3e 77 6e 1a 43 16 74 4c c3
       -0.35975018 0.13221711 154.4315 -204.45346
000210 34 04 14 43 e8 06 d7 bd 0d 2d 79 c1 6a 38 44 c3
       148.01642 -0.10499364 -15.573499 -196.22037
000220 ab 02 1f c3 01 93 34 43 48 fb b0 42 20 03 29 42
       -159.01042 180.57423 88.49078 42.25305
000230 86 9d 70 43 a6 cb 2c 43 e5 1c 5b c3 49 c8 54 43
       240.61533 172.7955 -219.11287 212.78236
000240 7c 44 9f c0 60 a8 33 bd 71 d2 a0 43 6a 7b 21 c1
       -4.97711 -0.043861747 321.64407 -10.09263
000250 4c 1a 81 3d d2 49 8a c2 74 ba e0 c2 00 ce 7c 3a
       0.06303844 -69.14418 -112.36417 0.00096437335
000260 d1 ae 3f 42 28 48 0e 3e 37 34 f2 41 5d 45 43 c3
       47.92072 0.13894713 30.275496 -195.27095
000270 1c 1d 92 3e 36 c3 c7 3e d8 bb 75 c1 b4 2e a8 c2
       0.28537834 0.39016122 -15.35836 -84.09122
000280 f0 17 4f 3d 04 f9 49 43 ce 49 80 43 1e a3 84 43
       0.050559938 201.97272 256.5766 265.27435
000290 7b a8 77 3e 07 33 27 c3 38 eb 74 43 12 5e 4a be
       0.24185364 -167.19933 244.91882 -0.19762447
0002a0 60 2d 45 3e 09 1a 73 43 2c 37 50 3f fb f9 82 43
       0.1925559 243.1017 0.81334186 261.95297
0002b0 7a bc 8f 42 f9 0b 73 43 8d b0 6e bf ef 24 26 c3
       71.86812 243.04677 -0.93238145 -166.14427
0002c0 30 15 12 42 9a cf 68 43 e5 14 5e c3 64 e3 8d be
       36.52069 232.81094 -222.08162 -0.27712548
0002d0 e0 18 a6 3d e5 e7 6c 43 7a 5d 86 3e 1c 4c 1d c3
       0.08110213 236.90584 0.26243192 -157.2973
0002e0 c0 91 ea 3c 20 1f 7a 3e 59 7d bf be da 35 d5 c2
       0.028633952 0.24425936 -0.3740032 -106.60518
0002f0 ab f1 66 c3 3a 1d 2e c3 90 e7 34 c1 ac c1 8e be
       -230.94402 -174.11417 -11.306534 -0.27882135
000300 7c ac 7f 43 80 9e 00 c3 8c 09 42 be 73 5f 75 43
       255.67377 -128.61914 -0.18948954 245.37285
000310 3d b0 45 c2 34 a8 e4 bd 8e 4c 6b 43 ac ff a1 3d
       -49.422108 -0.11164895 235.29904 0.07910094
000320 e0 d8 c3 3d ac 7e 75 43 0a d9 52 c3 e1 5c 08 42
       0.0956285 245.49481 -210.84781 34.090702
000330 0a 6f 88 43 7f f6 7f 43 98 53 1e be 8a f4 2e 43
       272.8675 255.96288 -0.15461576 174.95523
000340 b0 1e 98 3e 3f 49 23 c1 18 b8 40 43 bb 99 03 43
       0.29710913 -10.205382 192.71912 131.60051
000350 51 8e 3d c2 f3 09 65 c3 3e 5f 85 c2 e6 0a 3c 43
       -47.38898 -229.03886 -66.68602 188.04257
000360 ee 81 30 be c1 17 2a c3 f7 09 01 c2 fe b1 18 43
       -0.17237064 -170.09279 -32.25973 152.69528
000370 fa 81 b6 3e 3d b2 3d c3 c9 45 86 43 24 f5 5e c3
       0.3564604 -189.69624 268.5452 -222.95758
000380 a5 6d 96 43 f0 b1 32 c3 bd 1f cf be 18 77 96 bd
       300.8566 -178.69507 -0.40453902 -0.07346934
000390 db 66 be c2 6e b2 7b 43 12 e5 d2 c2 f8 c0 93 3e
       -95.20089 251.69699 -105.4474 0.2885816
0003a0 5a 74 94 43 ac 0c 68 3e a8 6e 2d 3e a2 a4 81 be
       296.909 0.22661084 0.16936743 -0.25320917
0003b0 70 b5 1a 3e f0 a2 8a 3c 01 f6 56 3f b0 4e bc 3c
       0.15108275 0.016923398 0.8396912 0.02298674
0003c0 10 d3 0f bd b3 98 71 c3 30 f7 64 c3 38 db 46 43
       -0.035113394 -241.59648 -228.96558 198.85632
0003d0 9e 2e 00 c3 15 e4 b7 c2 a7 ea c8 be b2 ab 21 c0
       -128.1821 -91.94547 -0.39241526 -2.5261045
0003e0 e0 b1 f2 3c 03 51 05 c2 4b b6 81 43 03 70 47 c3
       0.029625833 -33.329113 259.42416 -199.43755
0003f0 14 d9 55 c3 30 3d 61 c3 73 01 5f c2 85 a5 5c c3
       -213.84796 -225.23901 -55.751415 -220.64656

main.2.weight f4 [256, 256]
000000 11 b3 c2 bd 56 5f 45 3d f8 b2 3c bc bc 20 fd bc
       -0.095068105 0.048186623 -0.011517279 -0.030899398
000010 e8 9f af bc a0 76 60 bd 6b e4 26 3c 01 b7 a6 bc
       -0.021438554 -0.05480063 0.010186295 -0.020350935
000020 d4 ee 0f bd ae 1c 5e bd d5 66 08 bb e4 3d 7c bc
       -0.035139874 -0.05422657 -0.0020813246 -0.015395615
000030 08 f9 4d bc 87 22 bd bc ed 2c 14 bd 53 25 a9 bc
       -0.012571581 -0.023087753 -0.036175657 -0.02064768
000040 83 fd 28 3c 5e 5f 14 bd 20 40 44 3b 00 b1 42 bd
       0.010314348 -0.03622376 0.0029945448 -0.04753208
000050 82 26 7a bd ed 0a 44 3d 80 c9 2b 3a 04 2c b1 3c
       -0.06107188 0.047861982 0.0006553158 0.021627434
000060 14 59 92 bc 84 d0 94 bd c2 76 9b bd 84 e5 62 3d
       -0.017864741 -0.07266334 -0.07591011 0.055394664
000070 87 6b b1 bd 0e 19 d2 3c ea ca 0e 3c b0 cb 4b 3c
       -0.08663087 0.025646713 0.008715371 0.0124387
000080 ff 97 4f bb 46 0f 61 bd 4a 67 1e 3d 58 a2 66 bd
       -0.003167629 -0.054946207 0.038672723 -0.056307167
000090 8c 24 b4 bc d9 26 e3 3b 4a ed 38 3c 74 34 24 bd
       -0.021990083 0.0069321212 0.011287043 -0.040089086
0000a0 bf 7e 56 bd 3c 51 1c bd da fb 3c ba da 0e 26 bd
       -0.05236697 -0.03816341 -0.00072091597 -0.040541507
0000b0 4e 37 25 bd 2d c6 c2 bc 2e ea 3c 3d 60 9b 02 bd
       -0.040335946 -0.023776138 0.04612177 -0.03188646
0000c0 dc 54 b0 bc 58 71 2d 3c a7 80 67 3b 87 81 1a bd
       -0.02152484 0.010586105 0.0035324486 -0.037721183
0000d0 8c ff 8d bd b9 38 99 3b fe a0 06 3d f7 23 c1 bc
       -0.06933507 0.0046759513 0.032868378 -0.02357672
0000e0 a0 95 35 3d aa 1c 68 bd 1e 80 c7 3c 60 26 1f bd
       0.044332147 -0.05666796 0.024353083 -0.038854957
0000f0 8e 84 e2 3c 9c 26 01 3c 5a ec 61 3c 52 fa 46 3c
       0.027651098 0.00788274 0.013789261 0.012144642
000100 0b 80 a3 bd 6e 3e c2 bd 34 25 76 bd 6c e5 f4 3b
       -0.07983407 -0.09484564 -0.060094073 0.0074736383
000110 1d 0b 74 3c 58 c9 9e bd 32 7b bf 3c c8 02 95 3c
       0.014895228 -0.07753247 0.023374174 0.018189803
000120 fa 6f 7c bd 32 b5 39 3d 22 cf 3a 3b 64 9c 08 bd
       -0.061630227 0.045338817 0.0028504808 -0.03335227
000130 8d 85 47 3d c2 6f cb 3c 78 67 a0 3c 48 46 4a 3d
       0.04871135 0.024833564 0.019580588 0.04938343
000140 28 01 d5 3c c2 d3 e7 bc 0a d7 7c bd 1e be b9 3b
       0.026001528 -0.028299216 -0.061728515 0.0056684157
000150 19 84 50 bd 44 32 4d bc e1 95 dc bc 5c 8a b4 bb
       -0.05090723 -0.012524191 -0.026926937 -0.005509658
000160 61 df a4 bd 4d a6 8e bd b8 3c 20 3d 1a 90 ff bb
       -0.08050419 -0.06965313 0.039120406 -0.0077991607
000170 8b 87 d4 3c f4 e7 69 bd 38 54 30 bc 6e 86 61 bd
       0.025943538 -0.057105973 -0.010762267 -0.055059843
000180 60 7c 13 3d f8 9f 70 bd 73 0f f9 3b 44 d6 12 3d
       0.036007285 -0.058746308 0.0076007186 0.03584887
000190 58 20 6a bd c5 de e5 bb a2 a6 a2 bc c4 85 0d bd
       -0.05715975 -0.0070150816 -0.019854847 -0.034551397
0001a0 14 0a dd 3c 60 d2 f8 bb 4e 21 60 3d f0 b2 3b bd
       0.026982345 -0.007593438 0.05471926 -0.045824945
0001b0 d7 e5 1d bc 2f 2d 75 bd 9d 59 21 bd 48 a1 f6 ba
       -0.009637318 -0.059857544 -0.039392103 -0.0018816376
0001c0 6f 2c 36 3c 12 d7 06 3d a8 32 52 bd 0b 81 01 bd
       0.011118992 0.03291995 -0.05131784 -0.031617206
0001d0 2b 92 32 bd 31 a3 af bb 6c 0f 75 bd 3e 9a ca bc
       -0.043596428 -0.00536003 -0.05982916 -0.024731752
0001e0 f2 94 2f 3d ad 6a c4 bd 82 13 74 bd fe 52 de bc
       0.042866655 -0.09590659 -0.059588917 -0.027139183
0001f0 d8 5f 0c 3c f2 df 4c bd e8 db ba 3c 7d f0 3b bd
       0.008567773 -0.05001826 0.022809938 -0.045883644
000200 9c 69 1b bd 6c 34 5b bd 96 c2 31 bd 33 0b 5c bd
       -0.037942514 -0.05351679 -0.043398462 -0.053721618
000210 32 66 1e 3d 80 fc 65 bb 92 76 54 3c aa d1 07 bd
       0.03867168 -0.0035093129 0.0129677225 -0.033158936
000220 64 f5 33 3d 69 c0 5b 3c 6f b0 b3 bd 85 0a c1 bc
       0.043935195 0.013412573 -0.087738864 -0.023564586
000230 20 37 59 bd f5 2a 45 bc 91 ff 7e bd 58 6f 8b bd
       -0.053031087 -0.012034168 -0.062255446 -0.068083465
000240 ae e5 5f 3d 96 75 74 bd 5b 41 21 3d 90 4d cd ba
       0.0546624 -0.05968245 0.03936897 -0.0015663374
000250 dc b4 4c 3d 5c f3 1b bd 7f ce 0c 3d 50 19 f7 3b
       0.04997717 -0.038073882 0.034376618 0.0075408593
000260 43 bc dd ba 6e ba 2e 3d 32 0f c7 bd b1 9b b4 bd
       -0.0016917068 0.042658262 -0.09719695 -0.08818758
000270 46 3c 77 3d 24 ba 19 bd 99 3d 56 bd c5 12 21 bc
       0.060360216 -0.037531033 -0.052304838 -0.009831135
000280 78 e4 a3 bc 77 da 40 bd 83 d0 96 bd 6f bd 82 bc
       -0.020006403 -0.047083344 -0.07363989 -0.01595947
000290 da 11 7a bd b9 45 ef ba 17 c9 11 bb 50 bf 44 3c
       -0.06105218 -0.0018255032 -0.0022245103 0.012008503
0002a0 08 0f 08 3c e9 a2 16 3b 83 76 d8 bc b1 93 4e bd
       0.008304365 0.0022985286 -0.026423698 -0.05043382
0002b0 cf b1 85 bd a2 88 45 bd a2 23 20 bd a9 60 61 3d
       -0.06528055 -0.048226006 -0.039096482 0.055023823
0002c0 80 5f 2b bc 89 27 82 3c 07 91 9d 3b 40 fc 9f bb
       -0.010459781 0.015887992 0.0048085484 -0.0048823655
0002d0 ac b8 09 bd 58 89 a5 bd 5c 9f bc bc 60 c0 b6 3c
       -0.033623382 -0.08082837 -0.023025207 0.022308528
0002e0 b4 97 57 bd e0 0d fa bb 08 c2 c2 3c d4 6d 4a 3c
       -0.05263491 -0.0076310486 0.023774162 0.012355287
0002f0 df c0 9e bc d8 3c d0 3b 53 d5 91 3b c8 96 ec 3c
       -0.019379077 0.0063549094 0.004450479 0.028880492
000300 9b eb 8e bc 5a 51 d9 bc 3e 49 4d bd ee 97 55 bd
       -0.01744633 -0.02652805 -0.050118677 -0.052146845
000310 81 d1 4b bd 40 66 96 3b 49 cf 60 bc e8 fe ce 3c
       -0.049760345 0.004589826 -0.013721296 0.025268033
000320 f4 1f 2a 3d 0d e4 82 bd 13 66 c8 bd d9 d7 1e bd
       0.04153438 -0.063911535 -0.09785094 -0.038780067
000330 d3 bb 15 bd 78 90 ea 3c 94 21 25 bd 00 a1 c0 bb
       -0.036556076 0.028633341 -0.040315226 -0.0058785677
000340 90 06 59 bc 53 4e 38 bd 7a 5c 28 bc 98 3c 03 bd
       -0.0132461935 -0.04499657 -0.010275954 -0.03204021
000350 19 b9 26 bc e4 4b a8 bd 56 89 69 bc 01 be f2 bc
       -0.010175967 -0.082176 -0.014253935 -0.029631617
000360 80 ad 26 bb e1 e9 7d bd 10 6e a4 bc e3 da b5 bc
       -0.0025433004 -0.061990622 -0.020072013 -0.0221991
000370 16 ed 0d bd 9d 72 9f bd b4 ea 53 bd 8a 70 86 bd
       -0.03464993 -0.077855326 -0.051737502 -0.06564434
000380 a1 be a4 3c e1 7f 16 bd a0 2e d4 bc b0 50 bd 3b
       0.02011043 -0.03674305 -0.025901139 0.005777441
000390 6a f3 b3 bc 24 25 36 bd 08 ea 13 3d 30 3c 15 bd
       -0.021966655 -0.044469014 0.03611186 -0.036434352
0003a0 89 ba 81 3c 00 ce 13 b9 a4 3f 50 bd 84 4b c6 bc
       0.015836017 -0.00014095753 -0.050841942 -0.02420593
0003b0 23 35 10 3c 78 a0 43 3c 9a 4a 19 3d 20 43 2b 3d
       0.008801731 0.011940114 0.03742466 0.041812062
0003c0 d4 a0 0b bd 8e 52 85 bd 56 be a3 bc 34 3f 52 bd
       -0.034088925 -0.06509887 -0.01998822 -0.051329806
0003d0 3c 57 c4 bc e7 cc a9 bd 34 bc c2 3c 84 0c 18 3d
       -0.023967378 -0.08291035 0.023771383 0.03712131
0003e0 40 27 a2 3b 6e a5 57 bd 7d b4 af bd 32 5f 7e bd
       0.0049485266 -0.052648 -0.08579347 -0.062102504
0003f0 50 7e 3a 3c cc cc aa bb 66 4f 98 3b 98 5d a8 3c
       0.011382654 -0.005212402 0.004648137 0.020552441

main.2.bias f4 [256]
000000 9d e9 b2 bd 3f 78 c0 bc cc 91 63 bd 6f 4c a1 3b
       -0.087359644 -0.023494838 -0.055558965 0.0049224417
000010 26 bc 32 c3 1b e6 2f bb f4 a0 43 3c a5 aa 91 3c
       -178.73495 -0.0026840034 0.01194023 0.017781565
000020 84 4f 37 43 c1 2f b4 bd 75 15 31 3b 53 9d 69 43
       183.31061 -0.08798171 0.0027020846 233.61455
000030 c7 16 67 43 3d 6f 8d bc 94 ac ae 3b a3 75 53 bd
       231.08897 -0.017264957 0.0053306315 -0.05162586
000040 04 9d 18 3d 88 8a 04 ba 36 d1 b2 bc 99 1c 33 c3
       0.037259117 -0.0005056043 -0.021828275 -179.11171
000050 4c 62 b3 3f 31 85 f6 42 5d 08 7a bd b2 c6 ad bd
       1.4014373 123.26014 -0.061043132 -0.08485164
000060 6e 76 f0 bc 1f b6 06 43 eb 1f fa c1 b8 4b 3f 42
       -0.029353347 134.71141 -31.265585 47.823944
000070 ed 51 c5 3c 34 9c a7 bd 97 2b 27 43 de e2 98 bd
       0.024086917 -0.0818409 167.17027 -0.074651465
000080 a8 48 9a bd ec e6 8f bc 72 10 98 3c e5 72 05 3d
       -0.07533389 -0.017566167 0.01856253 0.032580275
000090 18 15 19 bd 08 87 2e bd 2b f2 6b 43 90 b2 1a bd
       -0.037373632 -0.042609245 235.94597 -0.037767947
0000a0 4b c6 9f bd 2f a6 83 bc 63 7f 13 bc 6d a8 0b bd
       -0.07801493 -0.016070453 -0.009002539 -0.03409617
0000b0 82 15 5d bd c1 b8 d3 42 81 77 6b bb 15 80 38 bd
       -0.05397559 105.86085 -0.0035929384 -0.045044024
0000c0 ac af 8e bd 17 8a 86 c2 8d a9 97 3b f1 c7 2a bb
       -0.069671005 -67.26971 0.0046283663 -0.0026059116
0000d0 94 4f ba bc 0d 9e 78 bd b3 e7 4e bd c1 2e 4c 43
       -0.022743024 -0.060697604 -0.050513934 204.18263
0000e0 6f 0a 0b bd 36 3d 06 bd 77 cb 83 bd 02 b1 5c bd
       -0.033945497 -0.03277322 -0.06435292 -0.053879745
0000f0 a6 e6 aa bd f1 61 fe bb 20 c5 50 43 6e 7a ac bd
       -0.08344774 -0.0077631404 208.77002 -0.08421789
000100 ba 40 32 bd 5e 10 6d 3d 40 08 2e 3d a0 b3 75 bd
       -0.04351876 0.057876937 0.042488337 -0.059985757
000110 34 4e 2d bd 92 c9 41 bd e9 db 8b 38 6c 59 47 bd
       -0.04231091 -0.047311373 6.668998e-05 -0.048669264
000120 7b d2 2e 3e 6e c5 46 c3 12 0f f7 c1 0c c9 da 3c
       0.1707248 -198.77121 -30.882359 0.026707195
000130 12 8b 0c bd d0 2b 5b 43 8c d8 81 bc d4 7f 8c 3c
       -0.034312315 219.17114 -0.015850328 0.017150797
000140 cf e0 14 40 bb d6 96 c2 34 09 8f 41 a5 9c e6 3c
       2.3262212 -75.419395 17.879494 0.028150866
000150 57 b3 87 3b e3 02 13 3b b9 5c ae bd c1 d3 f7 41
       0.004141252 0.002243214 -0.08513779 30.978395
000160 c5 9e bf bd 23 e8 15 c3 d3 bc 01 c3 d6 0d 63 3c
       -0.09356455 -149.90678 -129.7376 0.013858279
000170 61 84 49 43 cd 2b 84 b8 47 f8 f9 bc f4 51 b1 bd
       201.5171 -6.302409e-05 -0.030513896 -0.086582094
000180 00 3d 58 bd 09 79 63 3d 66 2c 2b bd 6b b4 70 c3
       -0.05279255 0.05553535 -0.04179039 -240.70476
000190 b9 e4 49 bd 5b 59 30 bd 16 ad 73 3b 48 6c 12 bc
       -0.049290393 -0.043053966 0.0037182025 -0.008936949
0001a0 00 17 62 43 9c f9 02 3d 6b 57 9f bd 47 69 7a 43
       226.08984 0.031976327 -0.077803455 250.41124
0001b0 9d 82 e9 c1 d6 f3 79 c3 a2 a8 5d bb dc f4 57 c1
       -29.188776 -249.95248 -0.0033822437 -13.49728
0001c0 07 fd 7a 42 54 11 bf bd c2 6a c6 c2 07 7d 8e 3f
       62.747097 -0.09329477 -99.20851 1.1131905
0001d0 2d 92 48 bd 4d e7 73 bd fe 77 22 bb 0c c9 c3 bd
       -0.04896753 -0.059546757 -0.002479076 -0.09559831
0001e0 2d d6 98 bd 22 af 10 43 ea a8 55 c3 b6 5e 25 42
       -0.07462726 144.68411 -213.65982 41.34249
0001f0 34 df a8 3f f2 3c dd 3a 3f ca 7f bd 5b a8 55 3f
       1.3193116 0.0016879125 -0.062448736 0.83460015
000200 17 8a 45 43 15 8a 53 3c c3 2c 5a 3f c1 4e bf 3f
       197.53941 0.012911339 0.8522455 1.4945909
000210 d4 27 59 c3 c5 03 36 c3 50 4d e4 c0 b1 1c 75 42
       -217.15558 -182.01472 -7.1344376 61.27802
000220 a0 29 a7 3b 6e 2d 0d 3d a2 65 04 bd f9 ad 5f c3
       0.0051013976 0.034467153 -0.032323487 -223.67958
000230 72 ca 06 41 90 13 87 c3 84 85 eb 41 65 be 73 43
       8.424425 -270.15283 29.440193 243.74373
000240 42 c0 b5 bc a1 09 2d c3 b5 9a b3 3b 0a f6 a8 bd
       -0.022186402 -173.03761 0.005481089 -0.08250053
000250 27 f0 3f 43 0d e4 b5 42 0c db da c2 ac 7a a0 3c
       191.9381 90.94541 -109.427826 0.019589745
000260 b5 f3 66 43 66 90 6b 42 38 09 17 c3 74 b5 5b c3
       230.95198 58.891014 -151.03601 -219.7088
000270 f1 60 2b 41 3d f3 6f bd ff 3f 66 42 fa 3e 7c 43
       10.711167 -0.05858158 57.562496 252.246
000280 05 7e 0e 40 86 77 b0 bd 98 f5 fb 3c 2d b2 61 bd
       2.2264416 -0.08616547 0.030756757 -0.055101562
000290 24 25 bd bd cc 81 ac bd 78 7b 23 3d b2 a1 54 bd
       -0.092356 -0.08423194 0.03991267 -0.051912017
0002a0 de fc bc bd d6 e4 74 3e f4 8d 29 40 b6 cf 45 3d
       -0.09227918 0.23915419 2.6492891 0.04829379
0002b0 f9 3f 98 bd aa aa 2f 42 23 ef 66 43 36 21 a8 3c
       -0.07434077 43.916664 230.93413 0.020523649
0002c0 41 53 16 bd 89 8c 8b bd 05 09 4b 3d 0c 35 ee bc
       -0.03670049 -0.06813914 0.04956915 -0.02907803
0002d0 24 12 ec 3c c3 e3 5a 43 a1 c3 ec 41 79 fb aa 3d
       0.028817244 218.8897 29.595522 0.08348746
0002e0 1a d2 eb bc 05 c2 79 3c 70 12 6c 43 a1 16 c7 bb
       -0.028786708 0.015244012 236.07202 -0.0060756956
0002f0 d8 43 5a 43 40 fe b2 bc 0f 7f 90 3c 91 1f 47 c3
       218.26501 -0.021849751 0.017638711 -199.1233
000300 af 7d 50 3c 19 d7 27 bd d5 5a 27 3d 4c 96 7b 43
       0.012725278 -0.040976617 0.04085811 251.5871
000310 58 88 be bc 40 5c 2f bb 3a 83 dd bc 1b 64 19 3c
       -0.023258373 -0.0026757866 -0.027040113 0.009362246
000320 b4 af 6c bd 0c 88 65 43 8b ee 56 3f 0d 23 88 3f
       -0.05778475 229.53143 0.8395774 1.0635697
000330 5b 26 b2 c2 be 55 a9 bd 42 22 84 bc ae 2d 83 bc
       -89.07491 -0.08268307 -0.016129617 -0.016012993
000340 b4 1f 32 bc 1e 05 c8 42 97 e4 83 bd c3 d7 12 c2
       -0.010871816 100.009995 -0.064400844 -36.710705
000350 a8 8f 5c bd 25 54 a1 bd 84 19 57 c3 61 c2 44 3c
       -0.05384794 -0.078773774 -215.09967 0.012009234
000360 e9 19 54 43 6d a8 d2 c2 3e 10 78 bd 3d 66 81 3b
       212.10121 -105.32896 -0.060562365 0.0039489553
000370 e2 be 3f 3c 55 e6 9f bd 70 73 45 bc 97 d8 7a bd
       0.011703225 -0.07807604 -0.012051448 -0.061241712
000380 d9 13 76 43 2f c1 b5 3b e7 68 5d c2 45 6f 83 43
       246.07753 0.005546711 -55.352444 262.8693
000390 be 2a f1 bc 88 af 78 c1 c7 f4 5b c3 56 64 30 bc
       -0.029439326 -15.542854 -219.95616 -0.010766109
0003a0 dd 4b 0f 43 af 97 ad bc e7 46 80 bd 09 97 a8 bd
       143.29634 -0.021190492 -0.062635235 -0.08231933
0003b0 87 24 c6 bc de 92 01 bd 83 b3 79 43 a5 e3 fe bc
       -0.02418734 -0.031634204 249.70122 -0.031114409
0003c0 64 f1 86 43 25 e1 3e 3d 08 95 28 c3 f1 94 0c bc
       269.88586 0.046601433 -168.58215 -0.008580432
0003d0 97 80 bc bb 8c 03 b3 bd 5c 44 4f bc 8e c0 73 3a
       -0.005752634 -0.08740911 -0.0126505755 0.0009298407
0003e0 40 11 f5 bc ba 7d af bd 14 28 65 3d a3 48 8c 3f
       -0.029915452 -0.08568902 0.055946425 1.0959667
0003f0 27 4a 23 c3 9e 51 d9 bd eb 4d 1b bd b1 fe 3e 43
       -163.28966 -0.1061127 -0.037916105 190.99489

main.4.weight f4 [256, 256]
000000 2d 4d 4b bd ed 0c 16 3c 6f 27 11 bc e1 91 05 bd
       -0.049634147 0.009158355 -0.008859499 -0.032609824
000010 a7 33 b9 3e 0f af c2 3c d4 cb 32 3d 90 26 87 3d
       0.3617222 0.023765115 0.043651417 0.06599152
000020 03 88 1c 3f 0f 20 a5 bd 96 7e f8 3c b6 f5 e7 3f
       0.6114504 -0.08062755 0.030333798 1.812186
000030 c4 91 32 3f a2 86 c1 bd 41 e1 83 3b 91 cf a5 bd
       0.6975367 -0.09449507 0.004024655 -0.08096231
000040 c0 ed ef 3b dd 5e 4e bc 88 0d 4b bd c8 67 77 40
       0.007322043 -0.012595859 -0.04957345 3.8657093
000050 9e fd ae 3d 3d 19 0b 40 aa b5 e0 3d 30 df 92 bd
       0.085444674 2.1734154 0.1097215 -0.07171476
000060 ed b2 c1 bc e5 bd e5 bd 5d 3c e2 bd 70 96 f5 be
       -0.023644889 -0.1121786 -0.1104667 -0.47966337
000070 55 ca 55 bd 69 e9 26 bb bd b9 c5 3f 17 50 ed bc
       -0.052194912 -0.0025468713 1.5447308 -0.028968854
000080 8d f2 55 bd fb 0d 26 bd 72 eb 41 3a 55 ce c2 bc
       -0.052233268 -0.040540677 0.000739745 -0.023780027
000090 b5 2f 9f bc c9 9f 6e bc 5b 3a 33 3f f1 1f d5 3c
       -0.019431928 -0.014564463 0.7001092 0.026016207
0000a0 8b 2f 87 3c 16 3c 12 bd 97 60 9b bc 1c 4e 22 3d
       0.016502162 -0.035701834 -0.018966956 0.039625272
0000b0 5c 6c 1f bd ce 7e 3d 3f 11 6d 9a bd 8b c8 fb 3c
       -0.0389217 0.74021614 -0.07540334 0.030735275
0000c0 15 39 23 3d f7 13 e0 3e 33 af 86 3d 9b c7 83 3c
       0.03984936 0.43765232 0.06576385 0.01608639
0000d0 9f 42 6a 3d c4 12 38 3c d8 75 1e bd 5e cd 21 3e
       0.05719244 0.011234943 -0.038686603 0.15800998
0000e0 21 b7 eb 3c 9d f8 6c 3d 48 37 ab bc aa eb aa 3c
       0.028773846 0.057854284 -0.020900384 0.020864327
0000f0 78 06 c3 bc c2 60 9f 3c 8b 8a a8 3e 8a 97 a4 bc
       -0.023806795 0.019455317 0.329182 -0.02009179
000100 33 77 08 3d 8e 19 93 bc ba e1 57 bd 02 ad 38 bd
       0.033316802 -0.017956521 -0.052705504 -0.045086868
000110 24 8f 16 bd 38 54 6f bc ff 25 fc 3c 5c e8 2f 3c
       -0.036757603 -0.014607482 0.030779837 0.010736551
000120 c0 b5 3b bd 97 23 95 3f ba 41 7e 3f e9 9e 80 bd
       -0.045827627 1.1651486 0.9931904 -0.0628031
000130 0b 67 b9 bd c0 bf e9 bc f1 4a c5 3d d0 ad e0 3c
       -0.09052857 -0.028533816 0.096334346 0.02742663
000140 ca 6e 83 3e 94 d4 35 3e ea 01 f9 be fd 18 2e bc
       0.25670463 0.17756873 -0.48634273 -0.010626075
000150 e9 e9 8c 3c 52 9a e9 bc 72 ec cd 3c 75 12 fb 3f
       0.01720138 -0.028515968 0.02513716 1.9615008
000160 8a 95 07 bc 8c d7 81 3e 80 be df 3e eb 31 27 bd
       -0.008275399 0.25359762 0.43700027 -0.04081909
000170 54 ab 3e 3f 6d 32 b0 3c c0 3c 98 bd 60 5b 82 3b
       0.74480176 0.02150842 -0.07433462 0.003978178
000180 d8 c6 3d 3d 40 b5 97 bd 90 d6 56 3c 6a 6a ad 3e
       0.04633221 -0.074076176 0.013112679 0.3387025
000190 6e 08 e1 ba fd 1b 92 3d 0a f3 b2 3d a7 39 85 bb
       -0.001716865 0.071342446 0.08737762 -0.0040657106
0001a0 b9 e6 b5 3f 32 5f 10 bd 93 b4 5f 3d f0 48 61 3f
       1.4211036 -0.035247035 0.05461557 0.8800192
0001b0 88 f7 f7 bd ba fa f7 3e dc 91 ca bc bb 11 74 3f
       -0.1210776 0.48433477 -0.024727754 0.95339555
0001c0 d5 72 0f 3f c0 c2 ba bb e4 b8 6d bd 9c 8f 1c 3d
       0.56034595 -0.0056994855 -0.058037654 0.038222894
0001d0 e1 93 3a 3d f3 bd 02 3c 0c d8 a7 bd a3 00 a9 bd
       0.045551185 0.007979858 -0.081955045 -0.082520746
0001e0 a8 43 0e bc 61 59 08 3f 78 0b df 3e 4b 19 52 41
       -0.008683123 0.5326138 0.43563437 13.131175
0001f0 f0 a6 d8 bb 81 87 aa 3d 2d d2 85 bd 56 3b db 3d
       -0.0066116974 0.083266266 -0.065342285 0.10704677
000200 c8 83 d9 3e 6b da 83 bc c2 87 6a bd 7b cd 04 bd
       0.42483354 -0.01609536 -0.057258375 -0.032422524
000210 ad 7f ba 3e 8d 51 f7 bf da 90 04 bf 40 26 30 3f
       0.36425534 -1.9321762 -0.51783526 0.68808365
000220 ba 8e 17 bd 19 7f a6 bd ef 38 9e 3c 2f 66 77 bf
       -0.03700135 -0.08129711 0.019314257 -0.96640295
000230 ff df b7 3e f6 f4 02 bf 42 f1 50 be 09 4c 2c 3f
       0.35913083 -0.5115503 -0.20404533 0.6730352
000240 9a aa de 3c d2 4e 87 3e 14 6e b6 3d eb cc 21 3c
       0.027180959 0.26427323 0.089077145 0.009875516
000250 42 6a 9a be 4e a4 5b bf 0c c7 dd 3f 99 56 9d bd
       -0.30159193 -0.85797584 1.7326369 -0.07682533
000260 a4 fa a0 bf 00 45 a1 3f f2 8d ba 3f 61 59 82 3e
       -1.257649 1.2599182 1.4574568 0.25458816
000270 b8 f1 78 3f c4 e5 02 3d b4 59 f9 3d e9 26 7f 3e
       0.97243834 0.031957403 0.12175313 0.24917187
000280 43 a1 55 3c d7 f6 a9 bd 69 20 45 bd d5 d9 e4 3c
       0.013038936 -0.08299034 -0.04812661 0.027935902
000290 f7 12 8c bc 49 d2 11 bd fc 43 b8 3c bc f2 54 3c
       -0.017098887 -0.035600934 0.022493355 0.0129973255
0002a0 a9 cf 04 bc 37 2a 26 3d a1 f2 a7 bd ba 52 3b bd
       -0.008106151 0.040567603 -0.08200575 -0.04573319
0002b0 76 71 8e 3d 74 42 8c 3c 3d 83 6b 3f 0a f6 51 bd
       0.06955235 0.017121531 0.9199713 -0.05126003
0002c0 09 c8 c4 bc fa e1 0f 3c ef 7b 91 bd 28 0e e3 3c
       -0.024021165 0.008781904 -0.071037166 0.027716711
0002d0 5e 33 68 3d d0 a8 58 3f 37 a4 de 3f ae c2 2d bd
       0.056689613 0.8463259 1.7393864 -0.04242199
0002e0 da 6c 27 3d f2 3f 2c bd e3 22 7b 3f f1 46 74 3d
       0.040875293 -0.04205317 0.9810011 0.059637967
0002f0 79 90 8c 3f 36 48 a9 bc 9e b1 22 3a 62 80 ea bf
       1.098159 -0.020664316 0.00062062766 -1.8320429
000300 bb 41 bc 3c fe 06 02 bd 83 be 27 3d 97 ba 93 be
       0.022980561 -0.03174495 0.04095317 -0.28853294
000310 d7 4e 17 3d 80 01 88 ba 10 b6 11 bc 32 52 92 bb
       0.036940422 -0.0010376424 -0.008893505 -0.004465365
000320 be 21 bf bc f2 66 72 3f 09 88 10 bc 2a be 63 3d
       -0.02333152 0.9468833 -0.008821496 0.055601276
000330 cb e8 8d 3f 9e a0 4c bc a6 54 96 ba b3 2d 14 bc
       1.1086668 -0.012489466 -0.0011469319 -0.009044099
000340 d2 a9 0e 3d 6d 89 f5 3d 35 a0 bf 3d d9 77 87 3f
       0.034829922 0.119891025 0.09356729 1.058345
000350 44 24 49 3c 8f 35 6b 3d e9 e0 ab bf 99 51 e6 3c
       0.012276713 0.057424124 -1.3428012 0.02811508
000360 c2 48 df 3e a0 6c 54 3d 9f 17 b7 bd 8e 20 84 bd
       0.43610197 0.051861405 -0.08940052 -0.06451522
000370 aa df 66 3d 0d e6 8f 3c 96 35 32 bd f9 1f 65 bd
       0.056365646 0.017565751 -0.043508135 -0.055938695
000380 a6 2b 26 3f 1e 01 9f bd 1c c1 0f 3f e8 7a 2e 3e
       0.6491035 -0.07763885 0.56154037 0.17039073
000390 5f b5 fb 3c ac a2 83 3d 1c 84 fe 3e 9b af af bc
       0.030726133 0.064275116 0.49710166 -0.02144604
0003a0 9c f3 ec 3e 68 bf c1 bc 40 1e 61 3d 47 27 46 bc
       0.4627961 -0.02365084 0.05496049 -0.012094325
0003b0 5c d3 30 3c 9a 00 f9 bb 47 be 72 bf 6a 00 85 bd
       0.0107925795 -0.0075989487 -0.9482159 -0.064942196
0003c0 7b 23 6d 3f 65 23 53 3d 53 02 8b bf e3 b5 ce 3c
       0.92632264 0.051547427 -1.0860084 0.025233215
0003d0 08 f8 c0 bd 09 07 9a bc 46 67 f6 bc ec 01 2e 3d
       -0.09422308 -0.018802183 -0.030078541 0.0424823
0003e0 47 24 b5 3b ef ca 1d bd d7 b9 3d bd 27 10 b9 3c
       0.0055280062 -0.03852361 -0.04631981 0.02259071
0003f0 25 5d 0a c0 a4 8c 97 bc 82 27 5f bd 59 dd 83 3e
       -2.161935 -0.01849968 -0.054481037 0.25754812

main.4.bias f4 [256]
000000 c2 97 52 43 23 19 53 43 cc a3 13 43 cc 7a 57 43
       210.5928 211.09819 147.63983 215.47968
000010 7b 39 2e 3d 12 25 3e 42 10 82 44 c3 df 14 df c0
       0.042535286 47.5362 -196.50806 -6.9712977
000020 75 12 17 3d e1 14 4f 43 cc df 03 c3 eb b6 4d 43
       0.036882836 207.08156 -131.8742 205.71452
000030 c4 77 63 43 ae a7 75 c3 88 87 4d 3e de f3 ec c1
       227.46783 -245.655 0.20071232 -29.619076
000040 f5 76 1e 3c 2e c7 8b 43 ce 30 d9 bc 59 11 72 bc
       0.009671916 279.5561 -0.02651253 -0.014774644
000050 23 18 11 43 f2 0d 20 bd 5d c3 6c c3 5a b5 57 43
       145.09428 -0.0390758 -236.76314 215.7084
000060 2e 23 42 43 d7 3f f3 c2 e2 df 60 43 ba 77 99 43
       194.13742 -121.62469 224.87454 306.93536
000070 a7 59 c9 bd 2a d9 5a 43 0c 4f b8 bd bd 0d 47 42
       -0.09831553 218.8483 -0.08999452 49.763416
000080 78 2c 3e 43 7f 76 53 43 eb 34 00 43 28 8b 20 43
       190.1737 211.46288 128.20671 160.54358
000090 fa 26 54 bc 74 48 70 43 25 a8 44 43 34 01 95 c3
       -0.012948746 240.28302 196.65681 -298.0094
0000a0 8d 56 62 43 2e bd 81 43 28 5c 24 bd b9 17 d5 bd
       226.33809 259.47797 -0.04012695 -0.10404915
0000b0 c6 94 69 43 64 34 7f 3c 65 84 bc bd d7 6e 9a bd
       233.58115 0.015576456 -0.0920494 -0.07540672
0000c0 e3 34 85 bc f4 46 a7 3c 99 65 8f 3b 09 18 a8 bd
       -0.01626057 0.020419575 0.004376125 -0.08207709
0000d0 ba 0b c4 3c 35 62 bd bd 99 ad 1a ba 6c 1a 4a 43
       0.023931373 -0.09247247 -0.0005900502 202.10321
0000e0 82 a3 72 43 0b 02 50 43 5d 36 5c bd 7d 44 2f 43
       242.6387 208.00798 -0.053762782 175.26753
0000f0 ad 2f e3 bd ac 63 6b 43 25 60 98 bd fe da c3 bc
       -0.11093078 235.38934 -0.07440213 -0.023908135
000100 de 04 63 43 10 dc 67 3c cf 2a 7e c3 d8 a7 d4 bc
       227.01901 0.014151588 -254.16722 -0.02595894
000110 28 da 61 43 22 c4 0e be 97 b0 1c bd c0 f8 50 43
       225.85217 -0.13942006 -0.038254347 208.97168
000120 ad 02 e7 bc 06 13 6b 43 d3 cd 3a 43 ad 48 4d 43
       -0.028199518 235.07431 186.804 205.28389
000130 92 a2 32 c3 4e 75 5b 43 b2 b0 d5 c0 da 32 5b 43
       -178.63504 219.45822 -6.6778193 219.19864
000140 18 37 6d 43 a7 4c 89 bd 87 d5 cc 3e 81 6d 5e 43
       237.21521 -0.067040734 0.40006658 222.42775
000150 41 f0 45 43 11 eb 16 bd 82 e7 df bc 85 25 cd 3c
       197.93849 -0.03684527 -0.027332071 0.025042305
000160 d3 68 77 bd 57 2e 72 c2 91 5f 8d bc 1a b3 62 bd
       -0.060402703 -60.545254 -0.017257484 -0.055346586
000170 55 1f 96 c1 af bd cc bd 2c a0 8c bd 82 0c 2d bd
       -18.765299 -0.09997117 -0.06866488 -0.042248257
000180 11 6e 59 43 10 1a 5c 43 39 48 b0 c2 91 5c 8b bd
       217.42995 220.1018 -88.14106 -0.06804765
000190 b4 ff d8 bc 46 89 fd bc 40 b0 57 43 cd ad 3d bd
       -0.026489116 -0.030949246 215.68848 -0.046308327
0001a0 52 cd 9f bd 2a de f4 bc ec 62 54 43 ca cf 25 c3
       -0.078028336 -0.029891092 212.38641 -165.81168
0001b0 ed 58 b1 3a a0 e8 9e bd 9b f9 3d 43 2e 01 51 43
       0.001353053 -0.077592134 189.97502 209.00461
0001c0 88 00 51 43 a8 58 0e 3c 42 75 4e 43 19 46 49 43
       209.00208 0.0086881295 206.45804 201.27382
0001d0 4a 46 30 43 67 f2 81 bd 4d 3c 84 bd c2 81 27 43
       176.27457 -0.06345063 -0.06456814 167.50687
0001e0 69 32 aa c1 17 6a 7e bd b2 d1 5b 43 ca 69 14 43
       -21.274614 -0.062112894 219.81912 148.41324
0001f0 c4 fc 9c bd ec c1 73 43 ba cf 86 bc 44 c9 09 3d
       -0.07665399 243.7575 -0.016456474 0.033639207
000200 57 35 16 bd 91 8f 3c 43 e9 5e 22 bb ef 72 66 c3
       -0.036671963 188.5608 -0.002477581 -230.44896
000210 9a f3 4b 43 b2 55 53 43 17 16 9e b8 7f fb 4d 43
       203.95157 211.33475 -7.538142e-05 205.9824
000220 60 64 06 c3 79 2d a2 bd 80 0a 83 bc 5d 59 48 43
       -134.39209 -0.079188295 -0.015996218 200.34908
000230 54 39 50 43 9d cc 11 bd 7f 2a 13 bd 0b f1 64 43
       208.22394 -0.035595525 -0.0359292 228.94157
000240 9a 83 66 43 82 83 c4 bd 0f 9c 34 43 42 68 37 41
       230.51407 -0.095953956 180.6096 11.462954
000250 d4 8c 7a bd 7a 3d ab bd 05 0a 24 c3 e4 78 0e bd
       -0.06116946 -0.08361335 -164.03914 -0.03478326
000260 9a fa 9c 3d 7a 3a 2d 43 3b a5 01 be 6d 0f 71 3c
       0.07664986 173.22842 -0.12660687 0.01471315
000270 c9 c0 be bd 12 e5 33 bd cb 6b 55 43 37 32 ee bd
       -0.093141146 -0.04391963 213.42107 -0.116306715
000280 95 6b d0 bd da 3d 9c bd 7e 3f 7f bd 3a 32 35 43
       -0.1017677 -0.07628985 -0.06231641 181.1962
000290 3e 35 7c bd 43 74 fc bc 29 2c e6 bd db 0c 52 43
       -0.061574213 -0.030817157 -0.11238892 210.05022
0002a0 4b de a3 bd c5 8b 11 bd b1 b4 44 43 d4 5c c6 bb
       -0.080013834 -0.035533685 196.70583 -0.0060535464
0002b0 2d 43 62 c3 0d 90 51 43 d6 c6 4c 43 18 84 69 bd
       -226.2624 209.5627 204.7767 -0.05701074
0002c0 64 04 8e bd d8 fa 00 be a8 73 51 43 cb 62 1b 3c
       -0.06934431 -0.1259569 209.45178 0.009484003
0002d0 42 69 5d bd da 3d 2f bd b8 86 a9 c3 97 fb 54 43
       -0.05405546 -0.042783596 -339.0525 212.98277
0002e0 b4 bd 89 bd c4 86 5d 43 ac 22 06 bf 0a 58 f8 bc
       -0.06725636 221.52643 -0.52396655 -0.030315418
0002f0 e8 2a 6f bd fe 82 08 bd ef 69 9f bd a7 d4 4d 43
       -0.058390528 -0.03332805 -0.07783877 205.83067
000300 9e 67 bb bd ee 05 57 43 74 80 4f 43 15 9a 4d 43
       -0.09150623 215.02316 207.50177 205.60188
000310 a3 0f 35 bd ac cd 53 c3 4f 31 be 42 d4 bb ee bc
       -0.044204365 -211.8034 95.096306 -0.029142298
000320 48 0b 5c 43 12 72 e7 40 47 44 76 bd e3 13 53 43
       220.04407 7.2326746 -0.060123708 211.07768
000330 6f 7c f1 bc 6e 0e 9b bd 58 49 38 43 1f a2 6d 42
       -0.02947828 -0.075711116 184.2865 59.40832
000340 7e 70 21 c3 f6 90 88 bd 7c 91 80 3b d3 92 ed bd
       -161.43942 -0.06668274 0.003923593 -0.1160027
000350 68 c5 92 bd bc 2f 4d 43 1d 1e 5e 3c 55 b7 03 3d
       -0.071665585 205.18646 0.013556984 0.03215726
000360 04 e0 a1 bd e2 da d7 bd 56 3c 94 3c 0f 5f 6d 43
       -0.07904056 -0.105397955 0.018095177 237.37132
000370 15 82 47 bb c2 ee 2f bd c4 a0 c8 3e 67 c7 39 c3
       -0.0030442525 -0.042952307 0.39185154 -185.77892
000380 ab 96 e3 c0 78 8c 5b 43 0b 0d a6 bd 40 69 cf bd
       -7.112142 219.5487 -0.081079565 -0.10127497
000390 ff 2e 4d 43 86 9c 4e bd 8b a1 0a c3 49 60 45 43
       205.18358 -0.05044224 -138.63103 197.37611
0003a0 30 d6 62 43 c5 25 2e 43 53 6b d7 3b 94 69 0b 43
       226.83667 174.14754 0.0065740733 139.41241
0003b0 02 fb 74 bd c9 84 cb bd 12 96 64 43 ed 8a b4 3f
       -0.059809692 -0.09937436 228.58621 1.4104897
0003c0 fd 0f 5b 43 23 25 cf bc 74 40 5a 43 83 10 0d bd
       219.06245 -0.025286263 218.25177 -0.034439575
0003d0 c9 d0 46 3c de 5f b5 bd 5d 39 61 43 96 da 2c be
       0.012134739 -0.08856176 225.22408 -0.16880259
0003e0 3c 3a 00 43 49 4b 21 3b fd bf dc 38 86 01 50 43
       128.22748 0.0024611524 0.00010526178 208.00595
0003f0 02 50 28 3c 3e 72 b4 bd 22 a4 95 bd 4b bd 23 c3
       0.010272982 -0.088108525 -0.073066965 -163.73943

main.6.weight f4 [4, 256]
000000 ef 1f 50 3f 03 2f 69 3e 89 d9 3d c1 44 c5 87 3f
       0.81298727 0.2277184 -11.865609 1.0607076
000010 56 44 ee bc 91 d2 07 c1 5c e6 d5 bf cc 5b e0 3f
       -0.02908532 -8.488908 -1.6710925 1.7528014
000020 19 c5 8a bb a2 06 22 3f 5f 00 6b 40 94 d0 18 c1
       -0.0042349217 0.6329137 3.6718976 -9.550922
000030 c6 58 af be 61 a7 5d c1 0c 91 7a 40 0b 7b b2 be
       -0.34247416 -13.853364 3.915103 -0.348595
000040 dc b8 2d 3d 9c eb 3a 42 61 d7 c9 bc cf f7 d2 3c
       0.042412624 46.730087 -0.024638833 0.02575293
000050 b8 cd 20 41 ef 4e 98 3b ed 30 6e c0 d6 84 77 3f
       10.050224 0.0046480815 -3.7217362 0.96687067
000060 cd 6e 86 3e 48 11 73 40 9a 01 39 3f 30 7f cd 42
       0.2625641 3.7979298 0.7226807 102.74841
000070 95 5c ec bc 2c 07 bb bf 0d 07 4a 3c c9 48 1b c0
       -0.02885274 -1.4611564 0.012330783 -2.4263175
000080 f8 3c 32 bf 8e 06 2b 41 5e 5a 77 3f 45 73 34 c0
       -0.6962428 10.6891 0.96622264 -2.8195355
000090 f7 b0 3e 3b 6f fd 85 41 78 33 8a 40 14 d3 be c0
       0.0029097178 16.748747 4.318783 -5.9632664
0000a0 8f 36 ba 3f 6d 22 da 40 ef 1d 80 bd 32 cc ac bc
       1.45479 6.8167024 -0.062557094 -0.021093462
0000b0 44 7a 77 41 70 7a e2 bc 88 cd fb bc da fe be 3c
       15.46735 -0.027646273 -0.030737653 0.023314882
0000c0 58 af 83 3d db 42 fa 3a 3d 68 16 3d bd f5 41 bd
       0.064299285 0.0019093411 0.036720503 -0.047353495
0000d0 95 fd e3 3c 84 c2 5e bc ad cc d5 bc 79 1c 98 bf
       0.027830878 -0.013596181 -0.026098574 -1.1883689
0000e0 84 9b e4 41 5a af 3b 40 6a 6c 8a 3c 36 59 63 40
       28.575935 2.9325776 0.016897399 3.55232
0000f0 9e 51 31 bb d4 e1 b9 41 9b e8 de bb e6 24 f9 3a
       -0.0027056704 23.235268 -0.006802631 0.0019008189
000100 c0 65 9f 3f 18 31 da bc 53 64 84 c0 45 cc 8b bd
       1.2452927 -0.026634738 -4.1372466 -0.06826071
000110 81 9a d3 3f e4 16 d5 3b b5 21 19 3c a6 36 03 bf
       1.6531526 0.006502973 0.009346415 -0.5125526
000120 67 0c 63 bc 9c 7f 8b 40 3c c6 9d c0 22 e0 d3 c0
       -0.013857937 4.3593273 -4.9304485 -6.62111
000130 f1 0b a3 c1 07 7b 87 3f 7a de 6a c0 3e ae 8f 3f
       -20.38083 1.058442 -3.669829 1.122505
000140 bd 60 2b 42 cf c7 16 bd d4 b8 53 40 28 39 ea 3e
       42.84447 -0.036811646 3.308156 0.45746732
000150 2e 6f 0a 40 46 87 88 3d dc 8d 7d bc 3f 4a 68 3d
       2.1630359 0.06666426 -0.015475716 0.05671143
000160 23 10 a0 3c 68 4b b8 c0 5e a5 52 3d c1 48 37 3d
       0.019538945 -5.759205 0.051427238 0.044747118
000170 d0 f0 e5 c0 b1 83 a3 3b 65 b9 cd bb c3 5c 26 bd
       -7.185646 0.004990064 -0.0062782043 -0.04061581
000180 55 79 fc 3e 9f 8a a1 3f 14 ae 8f 40 95 37 2d bd
       0.4931132 1.2620429 4.49 -0.042289335
000190 3c b8 8a 3c 8f 25 3f bd fe a5 6f 3f dd 67 21 3c
       0.016933553 -0.046666678 0.9361266 0.009851423
0001a0 b8 3d b2 bc 8e a0 94 3c 16 7b 6a 3f bf e8 b6 40
       -0.021757945 0.018142965 0.91594064 5.7159114
0001b0 8b 45 1e bd 8f ac 69 bc 3e 07 34 40 49 02 56 3f
       -0.03864054 -0.014262333 2.812942 0.83597237
0001c0 d0 cb 27 3f 20 b6 ec 3b cd 90 c6 bf e3 aa b1 40
       0.6554537 0.0072238594 -1.551294 5.55211
0001d0 98 28 f0 c0 b9 dc 0d bb 99 78 f9 3c 25 d8 9c 40
       -7.5049553 -0.0021646454 0.030453013 4.901385
0001e0 e9 5c 92 41 67 23 ac 3d 0b 0d 5b bf 4e 9e fe bf
       18.295366 0.0840519 -0.85566777 -1.9892061
0001f0 39 0e cc 3b b1 3e 13 40 89 9a 5e bc 6b 48 2d 3d
       0.0062272814 2.3007014 -0.013586649 0.04230539
000200 90 ea 16 bd 57 3a 6d 41 8d 8c 6e bc 37 18 14 c1
       -0.03684479 14.826743 -0.014559877 -9.255912
000210 e7 e8 4c 41 56 a7 68 3f 16 c2 49 be cc 77 32 40
       12.806861 0.90880334 -0.19702944 2.7885618
000220 e7 09 1e c1 c2 14 a2 b9 23 d1 1f 3d 69 4b c7 40
       -9.877418 -0.00030914514 0.039017808 6.2279553
000230 f3 d0 05 3f a9 76 14 3c 39 07 0e bd 69 e2 96 3f
       0.52271956 0.009061494 -0.034674857 1.1787845
000240 0e 0b de 3f 93 d4 f9 3c df c5 31 c0 b7 8c 77 41
       1.7347124 0.030496871 -2.777702 15.471854
000250 4d a3 f3 bb b4 02 a4 3c f9 01 38 c0 c5 e8 1c bd
       -0.0074352385 0.02002082 -2.8751204 -0.038307924
000260 ae 2e 3f bd d8 53 3e c0 54 c2 7e 3b 86 6e aa bc
       -0.046675377 -2.9738674 0.0038873153 -0.020804655
000270 0f 79 db 3c cc bf d0 bc 4c fa a5 40 ef 69 93 bc
       0.026791124 -0.02548208 5.186804 -0.017994849
000280 f4 15 80 bc 2a a8 cf 3c 03 1f b2 3b f7 b0 8c 40
       -0.015635468 0.025348742 0.005435826 4.396602
000290 99 0f dd bc ab b4 d4 3c 65 c6 5a bd b6 4e ce 3f
       -0.026984977 0.025965055 -0.05341186 1.6117771
0002a0 80 ef 8a 3c 09 ba 70 3d 20 f8 95 bf b2 51 56 bc
       0.016959906 0.058771167 -1.1716347 -0.013081001
0002b0 26 23 8f c0 3c 30 fe 3f 03 f0 1b 3f e2 58 2c 3d
       -4.4730406 1.985847 0.60913104 0.042076953
0002c0 f8 db 5f bd d8 f2 2b bb 11 88 03 c0 97 62 4a bc
       -0.054653138 -0.0026237275 -2.0551798 -0.012352607
0002d0 49 ea 97 3c c6 db 1d bd 1d bc a8 c0 8f 78 85 40
       0.018544333 -0.03853967 -5.272963 4.1709666
0002e0 88 3d 37 bd fa 23 a2 3f de bd a7 bd 51 e9 6b bd
       -0.044736415 1.2667229 -0.08190511 -0.057595555
0002f0 d3 d4 01 3c 33 bc 39 3c ca 75 33 3c b2 82 47 3e
       0.007924276 0.011336374 0.010953376 0.1948345
000300 4e c2 26 bc c3 7a 4a 3f 0e 96 ee 3e e3 67 e5 be
       -0.010178162 0.7909357 0.46598858 -0.44805822
000310 e5 24 48 bc 76 75 d6 c1 ab e2 ed 40 bf 23 29 3d
       -0.012215828 -26.807354 7.4339194 0.041293856
000320 65 c0 5c 41 2b 2b 0e 40 8c 18 07 3d 1c 26 5a 3f
       13.796971 2.2213848 0.032982394 0.852144
000330 c0 58 3c bc e3 d3 0f 3d 12 b7 ee c0 9c 98 b7 40
       -0.011495769 0.03511418 -7.4598475 5.737379
000340 17 dd 99 c1 46 be aa bd a6 4c 34 bd 10 d7 2b 3d
       -19.232954 -0.08337073 -0.04401841 0.041953146
000350 9f 8b a7 3c 6b bf 2c 3e 9f f7 6b 3d 83 5d 2d 3d
       0.020452319 0.16869895 0.057609197 0.042325508
000360 2a 8d 70 bd 9f 51 53 bd 4c 2b d3 3c e5 9d 9e 41
       -0.058728375 -0.05159151 0.025777481 19.827097
000370 89 fa 84 3c c6 e7 08 bb ee 09 5b bf 1b 76 be c1
       0.016232746 -0.00208901 -0.85562027 -23.807669
000380 c8 7f 95 40 c7 a4 f3 c0 72 ea f0 bc d2 d5 73 bb
       4.6718483 -7.6138644 -0.029408667 -0.0037206304
000390 e3 33 a4 40 3d 7d 00 bd 3c 44 5b c0 cc 0d 7f bf
       5.131334 -0.031369437 -3.4260397 -0.9963043
0003a0 02 cc be 3f 94 3c 0b c0 60 1b 17 3b 88 6a d3 c0
       1.4906008 -2.1755724 0.0023057088 -6.6067543
0003b0 47 21 26 c0 4d e9 1c bc 2e 60 2b 40 48 d2 a8 c0
       -2.595781 -0.009577108 2.6777453 -5.275669
0003c0 e7 65 9d 3f c2 cf 53 3d 9b 95 74 3f 53 0f 9c bb
       1.2296723 0.051711805 0.9554078 -0.004762569
0003d0 4d b4 8a 3c 6d 7a 3f bd a6 83 18 c0 39 2f 91 bd
       0.016931677 -0.046747614 -2.3830352 -0.07089085
0003e0 ce b9 78 c0 f1 5e 04 bd a0 71 9d bc 3b 78 e1 3e
       -3.8863406 -0.032317106 -0.01921922 0.4403704
0003f0 e5 49 ff bb dc fc 62 bb c0 56 4d bc 82 4e 03 c0
       -0.0077907913 -0.003463558 -0.01253289 -2.0516667

main.6.bias f4 [4]
000000 47 b1 91 43 06 8b 86 43 7a 4d 38 43 05 2b 21 43
       291.38498 269.08612 184.30264 161.16805
