src/policy_network.pth (torch, 540948 bytes, 8 tensors)

main.0.weight f4 [256, 6]
0	0xbff30692	-1.898638
1	0x42c29ace	97.30235
2	0x433ba348	187.63782
3	0x43bd2425	378.28238
4	0xc194e6c7	-18.612684
5	0x4332209c	178.12738
6	0x40930d33	4.595361
7	0xc3e32e1f	-454.36032
8	0x442027ec	640.6238
9	0xc35798c0	-215.59668
10	0xc3c88006	-401.00018
11	0xc395efa6	-299.87225
12	0x429b8433	77.7582
13	0x430f7db8	143.49109
14	0x43ea8f16	469.11786
15	0x4400b89d	514.8846
16	0x42edf259	118.973335
17	0xc37490a5	-244.56502
18	0xbe432922	-0.1905866
19	0x3dd51e58	0.10406178
20	0xbe409bf6	-0.18809494
21	0xbd441a18	-0.047876447
22	0xbe29cb00	-0.16581345
23	0x3e8aa8ee	0.27082008
24	0xbea4ff23	-0.32225904
25	0xbe40b941	-0.18820669
26	0xbdec1768	-0.11527902
27	0xbe7b5c16	-0.24546847
28	0x3d1dd378	0.03853175
29	0xbece72a2	-0.40321833
30	0x4279c035	62.437702
31	0x43008152	128.50516
32	0xc41a46e4	-617.10767
33	0xc3d3a67c	-423.30066
34	0x42e7ba97	115.86443
35	0x42968741	75.26417
36	0x422e07ef	43.507748
37	0x41e81c1c	29.013725
38	0x43f15d73	482.73007
39	0x43f25998	484.69995
40	0x41997a92	19.184849
41	0xc32d2270	-173.13452
42	0x42819d93	64.80776
43	0x4328f00e	168.93771
44	0xc31f9091	-159.56471
45	0x421ef148	39.735626
46	0x430f44e1	143.26906
47	0x43bc1e18	376.2351
48	0x422e25ca	43.536903
49	0xc35de117	-221.87926
50	0x43f00a8a	480.08234
51	0x43fd62f7	506.77316
52	0xc2a52782	-82.57716
53	0xc32d03d8	-173.01501
54	0x41a91ee9	21.140093
55	0x418e7bd7	17.810469
56	0x440386f8	526.1089
57	0x43ed8c93	475.09824
58	0x412e4526	10.891882
59	0xc408fdfa	-547.9684
60	0x40ff8f2d	7.9862275
61	0x3f4508c6	0.7696651
62	0x442137ae	644.87
63	0x43fcf2e1	505.8975
64	0x3ff41b6e	1.9070871
65	0xc4076bc1	-541.68365
66	0x4255cc2b	53.449383
67	0x42ca65e3	101.199
68	0xc3235c20	-163.35986
69	0x41913ca1	18.154604
70	0x42a4ec83	82.46194
71	0x43c0e600	385.79688
72	0x42ca5b4f	101.17834
73	0x42e144c9	112.634346
74	0x438ea751	285.30716
75	0x43bca57c	377.29285
76	0x42af24f6	87.57219
77	0xc3db4c8a	-438.59796
78	0x423aa8b5	46.664753
79	0x42048ebb	33.139385
80	0x43efea12	479.82867
81	0x43f42394	488.27795
82	0x41b683ef	22.81442
83	0xc32275b5	-162.4598
84	0x422acb92	42.6988
85	0x42617241	56.361576
86	0x43bf6157	382.76047
87	0x43a44420	328.53223
88	0x4228d239	42.205296
89	0xc3fb0b4e	-502.08832
90	0x4220a3e6	40.160057
91	0x422f8415	43.878986
92	0x43bc136f	376.15182
93	0x439c326d	312.39395
94	0x4207058b	33.755413
95	0xc3f64397	-492.52805
96	0x4241002f	48.25018
97	0x426c0e10	59.013733
98	0x43ac566e	344.67523
99	0x437e05ec	254.02313
100	0x42300d4f	44.012997
101	0xc3f6c83e	-493.5644
102	0xbd5cb790	-0.053885996
103	0xbe97ba1a	-0.29634172
104	0x3c1ce540	0.009576142
105	0xbe8ec7a4	-0.2788669
106	0xbeb155a4	-0.3463565
107	0xbe6633d4	-0.22480708
108	0xc2ef9b82	-119.80373
109	0x42c0b432	96.351944
110	0xc3b1c4f7	-355.5388
111	0x42854b33	66.64687
112	0x42bcdcef	94.43151
113	0x431ac2fb	154.76164
114	0xbe8947ea	-0.2681268
115	0xbe0b262e	-0.13588783
116	0x3d82bda0	0.06383824
117	0xbeb7ec85	-0.35922638
118	0xbe341ff7	-0.17590319
119	0xbe7a456b	-0.24440543
120	0x427ff3e8	63.98819
121	0xc39641c3	-300.51376
122	0x43ecb971	473.44876
123	0x43e87a79	464.95682
124	0xc30b673d	-139.40327
125	0xc3079936	-135.59848
126	0xc153b7f2	-13.232409
127	0x3faf5bc9	1.3699886
128	0xc3ff86d9	-511.0535
129	0xc3850d84	-266.1056
130	0x421175c6	36.365013
131	0x430e0ee3	142.05815
132	0xbeb1000a	-0.34570342
133	0x3e90a6c0	0.2825222
134	0xbde60be8	-0.1123274
135	0xbe203f7e	-0.1564922
136	0xbead8102	-0.33887488
137	0xbecfcd75	-0.4058644
138	0x4293c6cf	73.8883
139	0x430e00d2	142.0032
140	0xc2a8a617	-84.324394
141	0x42e326d7	113.57586
142	0x42eeaa21	119.33228
143	0x43a60a02	332.0782
144	0x40894ed4	4.2908726
145	0xc275a605	-61.41213
146	0x4423f943	655.8947
147	0x43e3dcf4	455.7262
148	0x414faec2	12.9801655
149	0xc3a42c0e	-328.34418
150	0x424bc5c7	50.943142
151	0x42e5da79	114.926704
152	0xc30bbc8e	-139.73654
153	0x420a6d5d	34.6068
154	0x42c07e31	96.24647
155	0x43b93c85	370.4728
156	0x4262e86c	56.726974
157	0x428f8d03	71.77541
158	0x43f0c5e8	481.54614
159	0x43fb5ea8	502.7395
160	0x42668b33	57.635937
161	0xc2daea3f	-109.45751
162	0x416531ff	14.324706
163	0xc307221e	-135.13327
164	0x4407864f	542.0986
165	0x440395b5	526.3392
166	0x4038941c	2.8840399
167	0xc3931258	-294.1433
168	0x4108ec03	8.55762
169	0x4070dabb	3.7633502
170	0x43fff5e1	511.92093
171	0x43d2d2d3	421.64706
172	0x3fd7b98e	1.6853502
173	0xc410f056	-579.75525
174	0xc147dcdb	-12.49142
175	0x3f026dc0	0.50948715
176	0xc41c2a37	-624.6596
177	0xc38d419f	-282.51266
178	0x420a1f89	34.530796
179	0x4314506e	148.31418
180	0x42818479	64.758736
181	0x42956a9f	74.708244
182	0x43ec8264	473.01868
183	0x43f7fca3	495.97372
184	0x426b3610	58.802795
185	0xc2d2a2c1	-105.31788
186	0x427fca08	63.947296
187	0x421d39ad	39.306324
188	0x43ebc051	471.50247
189	0x43f6a8b6	493.31805
190	0x41d2c21b	26.344778
191	0xc2d1c1e3	-104.878685
192	0x420f10c8	35.766388
193	0xc309839d	-137.51411
194	0x43f34230	486.5171
195	0x43e2b516	453.41473
196	0xc206701a	-33.609474
197	0xc2cc3e54	-102.121735
198	0x41c41819	24.511766
199	0x41a2f93e	20.3717
200	0x440447bb	529.1208
201	0x43eda50f	475.28952
202	0x4158cdbb	13.550227
203	0xc407e157	-543.52094
204	0xbca65740	-0.020305276
205	0xbe7c0ae1	-0.24613525
206	0xbe7fc349	-0.24976839
207	0xbebb3c6a	-0.3656953
208	0xbe084472	-0.1330736
209	0x3e0d2d0c	0.13786715
210	0x4260ac8d	56.168507
211	0x421211cb	36.517376
212	0x43ed0baf	474.09128
213	0x43f5e4c8	491.78735
214	0x41c45189	24.539812
215	0xc3039a7d	-131.60347
216	0x42452b6a	49.292397
217	0xc344b891	-196.72096
218	0x438615bf	268.1699
219	0x42a164e8	80.69708
220	0xc32eed17	-174.92613
221	0xc3cff739	-415.93143
222	0xc146496d	-12.392926
223	0x3e8578d1	0.26068738
224	0xc4169428	-602.31494
225	0xc38ca299	-281.2703
226	0x4209b520	34.42688
227	0x431769e5	151.41365
228	0xc1684863	-14.517673
229	0x40af1ace	5.472022
230	0xc4067a84	-537.9143
231	0xc37630e0	-246.19092
232	0x421aa433	38.66035
233	0x43269137	166.56725
234	0x4250788c	52.11772
235	0x42a112ae	80.53648
236	0x4386cd2b	269.60287
237	0x433dbbf9	189.73427
238	0x42696e7e	58.357903
239	0xc3e6adaa	-461.35675
240	0x42339eeb	44.905193
241	0x420a7940	34.61841
242	0x43ef3464	478.4093
243	0x43f93f74	498.49573
244	0x41cccd37	25.600203
245	0xc329b748	-169.71594
246	0xbe889439	-0.26675585
247	0x3e0aaba4	0.13542038
248	0xbdf87bd4	-0.12132993
249	0x3e8109fc	0.2520293
250	0xbe061ce8	-0.13096964
251	0xbe995520	-0.29947758
252	0x410a90ca	8.660349
253	0x41424ac5	12.143254
254	0x440bb9ae	558.90125
255	0x43eaead0	469.83447

main.0.bias f4 [256]
0	0x4415dcb6	599.4486
1	0x443ef3e5	763.81085
2	0x4429dd6a	679.4596
3	0xbe066bea	-0.13127103
4	0xbe150dc6	-0.14556035
5	0xc42e2e3d	-696.7225
6	0x44291f9a	676.4938
7	0x42893c54	68.61783
8	0x44253f87	660.9926
9	0x43c4dd28	393.72778
10	0x442e8128	698.01807
11	0x421d7560	39.364624
12	0x440b8ae3	558.1701
13	0x4428d168	675.272
14	0x439908c5	306.0685
15	0x43807e7b	256.98813
16	0x43951099	298.12967
17	0x3e20f7d0	0.15719533
18	0x411cd2d0	9.801468
19	0x3daa34a4	0.08310822
20	0x4427be76	670.97595
21	0xc3ce9809	-413.18777
22	0xbe99173d	-0.29900542
23	0x430fc0bf	143.75291
24	0x44430ff9	780.2496
25	0x42a07bc0	80.2417
26	0x442aa324	682.5491
27	0x443d96b1	758.35455
28	0x43bb396e	374.44867
29	0xc3df1e8c	-446.23865
30	0x44281a4c	672.4109
31	0x4422421f	649.03314
32	0x4425cdf6	663.21814
33	0x43da5ffe	436.74994
34	0x3d53d828	0.051719815
35	0x4426603a	665.50354
36	0x42263bae	41.55828
37	0xc3dcf7a8	-441.9348
38	0xc3c5ef3e	-395.86908
39	0x430855ed	136.33565
40	0x44282b28	672.6743
41	0x3e2f9060	0.17144918
42	0x440f9c72	574.44446
43	0x442b3ebd	684.9803
44	0x441f398e	636.8993
45	0x43d9e02c	435.75134
46	0xbeb1bcd4	-0.34714377
47	0x3dbe33f8	0.09287256
48	0x4391e5a4	291.79407
49	0x442b36fc	684.85913
50	0xbdcd135f	-0.1001346
51	0xc427d885	-671.3831
52	0x43b1f101	355.88284
53	0xc4458496	-790.07166
54	0xbe458d0c	-0.19292086
55	0x443f1efa	764.484
56	0x3dcc79e0	0.09984183
57	0xc34651d4	-198.31964
58	0x440f5f20	573.4863
59	0xbe7ab762	-0.24484017
60	0x3f7207a9	0.9454294
61	0x43f771d7	494.88937
62	0x43f2d041	485.62698
63	0x442a117e	680.2733
64	0x3fecb0b2	1.8491423
65	0x43998a4f	307.08054
66	0xbebc1f91	-0.36742833
67	0xc42e36ba	-696.8551
68	0xc41a67a1	-617.6192
69	0x43835e9c	262.73914
70	0x43ae8fdc	349.1239
71	0x44418616	774.0951
72	0x3d818404	0.06324008
73	0x3e75f8dc	0.24020714
74	0x44238bca	654.1842
75	0x3e1ee0c4	0.15515429
76	0xc3d387e7	-423.06174
77	0x43515c40	209.36035
78	0x442604ff	664.07806
79	0xbe984eea	-0.29747707
80	0xc449a851	-806.62994
81	0xc3dffa2a	-447.9544
82	0x4428028e	672.0399
83	0x443dc617	759.09515
84	0xc4467bb8	-793.9331
85	0x4448f68e	803.8524
86	0x441c6734	625.61255
87	0xc435faf8	-727.9214
88	0x4426b3b9	666.80817
89	0x42a68646	83.26225
90	0x43518d93	209.55302
91	0x442ba1cf	686.52826
92	0xc3e75c85	-462.7228
93	0x43712f1b	241.184
94	0x3e86d68e	0.26335567
95	0xc3dcaf82	-441.37115
96	0x443db7c6	758.87146
97	0x441d2d14	628.70435
98	0xc2de1589	-111.04206
99	0x43809901	257.19534
100	0xbec916d6	-0.39275235
101	0x43f6db70	493.71436
102	0x43f85786	496.68378
103	0x3dd6c238	0.10486263
104	0x3ccbe3b0	0.024888843
105	0x3e11a87c	0.14224428
106	0xbe939d4a	-0.2883094
107	0x44255675	661.3509
108	0xc42845df	-673.09174
109	0x441fa92d	638.6434
110	0x43d8e411	433.78177
111	0x442d0a16	692.1576
112	0x441d2ff9	628.7496
113	0xbeb7abd7	-0.3587329
114	0xbc62ed60	-0.01385054
115	0x44290153	676.0207
116	0x429d6c1b	78.71114
117	0x442e8300	698.0469
118	0xc3d115b0	-418.16943
119	0xc45152a8	-837.2915
120	0x3e7b17f0	0.2452085
121	0x43862ef3	268.3668
122	0x3e5fe644	0.21865183
123	0x43c9a8c5	403.3185
124	0xba795000	-0.0009510517
125	0x440e3c59	568.94293
126	0x440bdff4	559.49927
127	0x44401f07	768.4848
128	0xbeb8312d	-0.35975018
129	0x3f8be423	1.0928997
130	0xc2b2dec8	-89.43512
131	0xc343bf2b	-195.74675
132	0xc43df7d7	-759.8725
133	0xbdd706e8	-0.10499364
134	0xc3f0a7c0	-481.31055
135	0x4404a0dd	530.5135
136	0x42677851	57.867496
137	0xc3c925c6	-402.2951
138	0x4385e43d	267.7831
139	0x43d94221	434.51663
140	0x4428f731	675.86237
141	0xc30ffaac	-143.97919
142	0x44023c2d	520.94025
143	0x4428a25e	674.537
144	0x4412b981	586.8985
145	0xbd33a860	-0.043861747
146	0x442a41e2	681.0294
147	0x43dc689a	440.8172
148	0x3d811a4c	0.06303844
149	0xc4569d0e	-858.454
150	0x435aa709	218.65248
151	0x3a7cce00	0.00096437335
152	0x4412f754	587.8645
153	0x3e0e4828	0.13894713
154	0x442ac048	683.0044
155	0x43950e8b	298.11362
156	0x3e921d1c	0.28537834
157	0x3ec7c336	0.39016122
158	0x43912fa9	290.37234
159	0x430d02d3	141.01103
160	0x3d4f17f0	0.050559938
161	0x438aa41a	277.28204
162	0x442da07b	694.5075
163	0x44278cd1	670.20026
164	0xbf13330a	-0.57499754
165	0xc4324c3b	-713.1911
166	0xc4425ed5	-777.48175
167	0xbe4a5e12	-0.19762447
168	0x3e452d60	0.1925559
169	0x42631a74	56.775833
170	0x43838869	263.0657
171	0x436a19dc	234.10101
172	0x43aea4fc	349.28894
173	0x4429a335	678.5501
174	0x436d0388	237.0138
175	0x442b58df	685.3886
176	0xbdef9960	-0.11699176
177	0xc32ec282	-174.7598
178	0x43290e2b	169.05534
179	0xbe8de364	-0.27712548
180	0x3da618e0	0.08110213
181	0x4426da9c	667.4158
182	0x3e865d7a	0.26243192
183	0x43056a68	133.41565
184	0x3cea91c0	0.028633952
185	0x3e7a1f20	0.24425936
186	0xbebf7d59	-0.3740032
187	0x4383e9ed	263.82755
188	0xc456088b	-856.1335
189	0xc4007401	-513.81256
190	0x438f1fbf	286.24802
191	0xbe8ec1ac	-0.27882135
192	0xc1ec6dc5	-29.553598
193	0x438e9ee9	285.2415
194	0xbe42098c	-0.18948954
195	0xc43f6969	-765.64703
196	0x43b89ae7	369.21017
197	0xbde4a834	-0.11164895
198	0xc1bf12b8	-23.88414
199	0x3da1ffac	0.07910094
200	0x3dc3d8e0	0.0956285
201	0x4410fb6c	579.92847
202	0x4423d01b	655.25165
203	0x4427ac8b	670.696
204	0x442bb666	686.85
205	0x438ff17a	287.88654
206	0xbe1e5398	-0.15461576
207	0xc42bad11	-686.70416
208	0x3e981eb0	0.29710913
209	0xc4032082	-524.50793
210	0x44399901	742.3907
211	0x3ec39bdb	0.38204846
212	0x443ce12d	755.5184
213	0x4421f118	647.7671
214	0x43aa3737	340.43137
215	0x442cead7	691.6694
216	0xbe3081ee	-0.17237064
217	0x43b48e75	361.11295
218	0x4380d90e	257.69574
219	0x433779f8	183.47644
220	0x3eb681fa	0.3564604
221	0x4387c406	271.53143
222	0x442b0fb1	684.2452
223	0x44245e2b	657.4714
224	0x443bae23	750.7209
225	0x4407b25b	542.7868
226	0xbecf1fbd	-0.40453902
227	0xbd967718	-0.07346934
228	0x42c28655	97.26237
229	0x44279e80	670.47656
230	0x43a07d5b	320.97934
231	0x3e93c0f8	0.2885816
232	0x4429a1fe	678.5311
233	0x3e680cac	0.22661084
234	0x3e2d6ea8	0.16936743
235	0xbe81a4a2	-0.25320917
236	0x439bf168	311.886
237	0x3c8aa2f0	0.016923398
238	0x3e39040e	0.18067953
239	0x3cbc4eb0	0.02298674
240	0xbd0fd310	-0.035113394
241	0xc230048d	-44.004444
242	0x4388c4bf	273.53708
243	0x4427225e	668.537
244	0x4445075d	788.11505
245	0x442ac6bb	683.10516
246	0xbeb8a721	-0.3606501
247	0x4398fc5b	305.97153
248	0x3cf2b1e0	0.029625833
249	0x438cd0bd	281.63077
250	0x43ecfd58	473.97925
251	0x4312dd46	146.86435
252	0xc191c614	-18.221718
253	0x4428f1b6	675.77673
254	0x44285bda	673.4352
255	0xc3be2b47	-380.3381

main.2.weight f4 [256, 256]
0	0xbd817216	-0.06320588
1	0x3d452e87	0.048140075
2	0xbc3bfebb	-0.011474307
3	0xbcfd20bc	-0.030899398
4	0xbcaf9fe8	-0.021438554
5	0xbd6076a0	-0.05480063
6	0x3d2be74f	0.04196864
7	0xbca67cc5	-0.020323167
8	0xbd0feed4	-0.035139874
9	0xbd5e055d	-0.054204334
10	0x3cf39c07	0.029737486
11	0xbc7b6d98	-0.015345953
12	0xbc4df908	-0.012571581
13	0xbcbcebb7	-0.023061616
14	0xbd142ced	-0.036175657
15	0x3c3628e0	0.011118144
16	0x3d2c5c44	0.04208018
17	0xbd145f5e	-0.03622376
18	0xbb455378	-0.0030109566
19	0xbd42b100	-0.04753208
20	0xbcf01348	-0.029306069
21	0x3d43ea38	0.04783079
22	0x3a2bc980	0.0006553158
23	0x3d5ad1d0	0.05342275
24	0xbc9269b4	-0.017872669
25	0xbd276901	-0.040871624
26	0xbd34aff8	-0.04411313
27	0x3d62e584	0.055394664
28	0xbd609392	-0.054828234
29	0x3cd13bb8	0.025541171
30	0x3c0f27cf	0.008737518
31	0x3c4bcbb0	0.0124387
32	0x3ceacb45	0.02866138
33	0xbcbdbb25	-0.023160527
34	0x3d1e674a	0.038672723
35	0xbd663374	-0.056201413
36	0xbcb4248c	-0.021990083
37	0x3d1e3d1e	0.038632505
38	0x3c35f906	0.011106735
39	0xbc085e60	-0.008323282
40	0xbca8c3cb	-0.020601174
41	0xbd1c513c	-0.03816341
42	0x3cfe092c	0.031010233
43	0xbc0f3f09	-0.008743056
44	0xbc0b1701	-0.008489371
45	0x3c039678	0.00803148
46	0x3d3cea2e	0.04612177
47	0xbd029b60	-0.03188646
48	0xbcb054dc	-0.02152484
49	0x3d2d793a	0.04235194
50	0x3d1094ee	0.03529828
51	0xbd1aa0fb	-0.03775118
52	0xbd8e7077	-0.06955045
53	0x3b98e87e	0.004666387
54	0x3d06a0fe	0.032868378
55	0x3c06fc8d	0.008238924
56	0x3d3595a0	0.044332147
57	0xbd685785	-0.05672409
58	0x3cc688f2	0.024235222
59	0xbd1f2660	-0.038854957
60	0x3ce0dd8f	0.027449397
61	0x3d22823f	0.039674994
62	0x3c61ec4e	0.01378925
63	0x3d3434e4	0.043995753
64	0xbd44e226	-0.048067234
65	0xbd8166fa	-0.06318469
66	0xbd762534	-0.060094073
67	0x3d20b990	0.039239466
68	0x3c734da8	0.014850058
69	0xbd3b75d6	-0.045766674
70	0x3cbf8719	0.02337985
71	0x3d4c96a2	0.049948342
72	0xbd7c6ffa	-0.061630227
73	0x3d39b532	0.045338817
74	0x3b3e74dd	0.0029061355
75	0xbad8d79e	-0.0016543751
76	0x3d46d6b0	0.048544586
77	0x3d67d4c2	0.056599386
78	0x3ca0c12b	0.01962336
79	0x3d4a4648	0.04938343
80	0x3cd50128	0.026001528
81	0x3b675352	0.0035297466
82	0xbd7cafcf	-0.0616911
83	0x3bb9be1a	0.005668414
84	0xbd500a16	-0.05079087
85	0x3c9da0a4	0.019241638
86	0x3ba3e830	0.005002044
87	0xbbb50640	-0.0055244267
88	0xbd47a1e8	-0.04873839
89	0xbd1b2fbe	-0.037887327
90	0x3d1ff4dc	0.039051875
91	0x3cc5235a	0.024064709
92	0x3cd40e19	0.025885629
93	0xbccf33a6	-0.025293183
94	0xbc305438	-0.010762267
95	0xbcbfe387	-0.023423923
96	0x3d1357df	0.035972472
97	0xbcdd0630	-0.02698049
98	0x3d213ed2	0.03936655
99	0x3d124d31	0.035718147
100	0xbd6a2058	-0.05715975
101	0xbbebf5c6	-0.0072009293
102	0xbca18086	-0.019714605
103	0xbd0d85c4	-0.034551397
104	0x3cdd0a14	0.026982345
105	0xbbf8d260	-0.007593438
106	0x3d60214e	0.05471926
107	0xbd3b779b	-0.04576836
108	0x3cb547bc	0.022128932
109	0xbd74f29a	-0.059801675
110	0xbd208073	-0.039185
111	0xbae6e4b4	-0.0017615766
112	0x3d301ce6	0.04299631
113	0x3d06d712	0.03291995
114	0xbd5232a8	-0.05131784
115	0x393be438	0.00017918728
116	0xbd326617	-0.04355439
117	0xbba619c1	-0.005068988
118	0xbd75a55d	-0.059972156
119	0xbcc99cd3	-0.024610912
120	0x3d2f94f2	0.042866655
121	0xbd8344d6	-0.06409614
122	0xbd741382	-0.059588917
123	0x3b9911a8	0.0046712942
124	0x3c0c5fd8	0.008567773
125	0xbc95574f	-0.018230109
126	0x3d5f8ad4	0.054575756
127	0xbd3a45d8	-0.045476764
128	0xbd1b699c	-0.037942514
129	0xbd5f28de	-0.054482333
130	0xbc3e96e8	-0.011632659
131	0xbcb3dcae	-0.021955814
132	0x3d1e6632	0.03867168
133	0xbb65fc80	-0.0035093129
134	0x3c540f5d	0.012943116
135	0xbd084f6f	-0.03327888
136	0x3d341cb2	0.04397268
137	0x3d3833bc	0.044971213
138	0xbd654402	-0.05597306
139	0xbcc25806	-0.023723613
140	0xbd593720	-0.053031087
141	0x3ca1ff49	0.01977505
142	0xbd7fe975	-0.0624785
143	0xbd149955	-0.03627904
144	0x3d5f8e88	0.054579288
145	0xbd747596	-0.05968245
146	0x3d217790	0.039420664
147	0xbacb896c	-0.0015528626
148	0x3d4cb4dc	0.04997717
149	0xbd1b5d87	-0.03793099
150	0x3d0d1341	0.03444219
151	0x3bf71950	0.0075408593
152	0xbacfd8da	-0.0015857473
153	0x3d2eba6e	0.042658262
154	0xbd85f779	-0.06541342
155	0xbd66d8d4	-0.056359127
156	0x3d773c46	0.060360216
157	0xbd19ba24	-0.037531033
158	0xbd56e785	-0.052466888
159	0xbc2043ef	-0.009781822
160	0xbca3e478	-0.020006403
161	0xbc7a3ddd	-0.015273538
162	0xbd2b842c	-0.041874096
163	0x3c81d747	0.015849723
164	0xbd7a9e23	-0.061185967
165	0xbaefaa9e	-0.0018285101
166	0x3cf1e787	0.029529346
167	0x3c44bf50	0.012008503
168	0x3c080f08	0.008304365
169	0x3b179222	0.0023127873
170	0xbcd64b45	-0.026158938
171	0xbc987cb2	-0.018614147
172	0xbd09b07d	-0.033615578
173	0xbd4588a2	-0.048226006
174	0xbd2023a2	-0.039096482
175	0x3d619150	0.05507022
176	0xbc2b5f80	-0.010459781
177	0x3c82278a	0.015887994
178	0x3d161641	0.036642317
179	0xbb9ffc40	-0.0048823655
180	0xbd09b8ac	-0.033623382
181	0xbd48bae5	-0.04900636
182	0xbcbc9f5c	-0.023025207
183	0x3cb6c060	0.022308528
184	0xbd5797b4	-0.05263491
185	0xbbfa0de0	-0.0076310486
186	0x3cc2c208	0.023774162
187	0x3d34d1ab	0.044145267
188	0x3c4d0214	0.0125127025
189	0x3bd03cd8	0.0063549094
190	0x3d14c7b8	0.03632328
191	0x3cec96c8	0.028880492
192	0x3c6af877	0.014341465
193	0xbcda4bcd	-0.026647473
194	0xbd4d493e	-0.050118677
195	0xbca6ecf4	-0.02037666
196	0xbc92db01	-0.017926695
197	0x3b966640	0.004589826
198	0xbc6098d6	-0.013708314
199	0x3ccefee8	0.025268033
200	0x3d2a1ff4	0.04153438
201	0xbd038be6	-0.03211584
202	0xbd8745ed	-0.06605134
203	0xbd1e9133	-0.03871269
204	0xbd155b05	-0.036463756
205	0x3cead7aa	0.02866729
206	0xbd252194	-0.040315226
207	0xbbc0a100	-0.0058785677
208	0xbc590690	-0.0132461935
209	0xbd38b41e	-0.045093648
210	0x3cb02a13	0.021504438
211	0xbd0531ac	-0.032518074
212	0xbc271af0	-0.0101992935
213	0xbd4e1000	-0.050308228
214	0xbc686c50	-0.01418598
215	0x3b0ee5bd	0.0021804415
216	0xbb26ad80	-0.0025433004
217	0xbcf78c3b	-0.030218234
218	0x3c3fbb78	0.011702411
219	0xbcb5dae4	-0.022199102
220	0xbd0ded16	-0.03464993
221	0xbd3cc862	-0.046089537
222	0xbca334fc	-0.019922726
223	0xbd863e40	-0.06554842
224	0x3d547c30	0.051876247
225	0xbd167081	-0.036728386
226	0xbcd42ea0	-0.025901139
227	0x3bbd50b0	0.005777441
228	0x3c2271a5	0.00991479
229	0xbc4fb4dc	-0.012677398
230	0x3d14206f	0.036163744
231	0xbd153c30	-0.036434352
232	0x3c829fdd	0.01594537
233	0xb913ce00	-0.00014095753
234	0xbd503fa4	-0.050841942
235	0xbcc64b84	-0.02420593
236	0x3c0c7c36	0.008574536
237	0x3c43a078	0.011940114
238	0x3d1a42bb	0.037661295
239	0x3d2b4320	0.041812062
240	0xbd0ba0d4	-0.034088925
241	0xbd084038	-0.03326437
242	0xbca35365	-0.019937227
243	0xbd51c5d9	-0.051214073
244	0xbcc4e16e	-0.024033275
245	0xbd517cf4	-0.051144555
246	0x3cc2bc34	0.023771383
247	0x3d1753b7	0.03694507
248	0x3ba22740	0.0049485266
249	0xbd573b77	-0.052546944
250	0xbd5d08d0	-0.053963482
251	0xbcf884ad	-0.030336702
252	0x3c3aff2c	0.011413377
253	0xbba90d8d	-0.005159086
254	0x3b9ad016	0.004724513
255	0x3d56a871	0.052406732

main.2.bias f4 [256]
0	0xbd63daec	-0.055628702
1	0xbcdb0a26	-0.026738238
2	0xbd709b3c	-0.058741793
3	0x3b9c5f99	0.0047721383
4	0x440c65da	561.59143
5	0x3bccbaa2	0.0062478343
6	0x3c0dd676	0.0086570885
7	0x3d41da4b	0.04732732
8	0x442cb181	690.7735
9	0xbdccd985	-0.10002426
10	0x3d0d0d02	0.034436233
11	0x443cd1d3	755.2785
12	0xc4460220	-792.0332
13	0x43f9fe12	499.98492
14	0xc4085e10	-545.4697
15	0xbd5337e8	-0.05156699
16	0x3bb58aec	0.0055402424
17	0xba0a44c7	-0.0005274531
18	0x3bc696b1	0.0060604443
19	0x4429965f	678.34955
20	0x442e14b1	696.3233
21	0x440dbfcc	566.9968
22	0xbcd9292c	-0.02650889
23	0x43f2ecc1	485.84964
24	0x3cce7125	0.025200436
25	0xbd5c3779	-0.05376384
26	0x43e16f3d	450.86905
27	0xc42d8414	-694.0637
28	0x43275af0	167.35522
29	0x43e75fb8	462.7478
30	0x441cbc20	626.93945
31	0xbd9fd9cf	-0.078052156
32	0xbd3275cf	-0.043569382
33	0x3c527907	0.012846238
34	0x3b58adb9	0.003306253
35	0x3d0572e4	0.03258027
36	0xbd43f73b	-0.0478432
37	0xbd3277f5	-0.04357143
38	0x443795fc	734.3435
39	0x43f8afa4	497.3722
40	0xbdcb7482	-0.099343315
41	0xbca8ffee	-0.02062985
42	0x3d74d620	0.059774518
43	0xbb2448c6	-0.002506779
44	0xbd5d1582	-0.05397559
45	0xbdf6e43a	-0.120552495
46	0xbb400bd1	-0.0029303918
47	0xbd367eda	-0.04455457
48	0xbd84b0a7	-0.06479006
49	0x38b13b2e	8.451041e-05
50	0xbca2fd91	-0.0198963
51	0xbd11fe6d	-0.03564303
52	0xbd7206cd	-0.059088517
53	0xbd2589f0	-0.04041475
54	0xbd4158aa	-0.047203697
55	0xc44a3f68	-808.9907
56	0xbd2801f9	-0.041017506
57	0xbd7624df	-0.060093757
58	0xbd83e6ca	-0.06440504
59	0xbd1d2cfb	-0.038372975
60	0xbcca3310	-0.024682552
61	0xbd390ef6	-0.045180283
62	0x440afc4e	555.94226
63	0xbdb859f4	-0.09001532
64	0xbca531c6	-0.020165335
65	0xbd3e5f4e	-0.04647761
66	0x3d2e0840	0.042488337
67	0x43deff67	445.99533
68	0xbd485884	-0.04891254
69	0xbd433365	-0.047656436
70	0x3bdd5b73	0.0067552864
71	0xbd92d110	-0.07168782
72	0xc2852e03	-66.58987
73	0xc4334e49	-717.2232
74	0xbd90d1bf	-0.07071256
75	0xbdad7e15	-0.08471314
76	0xbb297aa0	-0.0025860444
77	0x40ac86ca	5.3914537
78	0x3c687b4c	0.0141895525
79	0xb9ee2306	-0.00045420992
80	0x43d288d8	421.0691
81	0x443ede70	763.4756
82	0x44339123	718.26776
83	0x3c8cd0eb	0.017189464
84	0x3be57432	0.007002377
85	0x3d0458d0	0.03231126
86	0xbdae6180	-0.085146904
87	0x40986c59	4.763226
88	0xbd8182c6	-0.06323771
89	0x443bbcb4	750.9485
90	0x43a84066	336.5031
91	0x3cd111f8	0.025521263
92	0x442a0fe8	680.24854
93	0xb8e9f53a	-0.00011155983
94	0x3a9fbfb1	0.0012187866
95	0xbdac34d0	-0.08408511
96	0xbd3013fb	-0.042987805
97	0xbd2ed958	-0.042687744
98	0xbd93e500	-0.07221413
99	0x443095e6	706.34216
100	0xbd4a0260	-0.04931867
101	0xbd2c8da5	-0.04212727
102	0x39fc51ff	0.00048126277
103	0x3d16b844	0.036796823
104	0x44356549	725.5826
105	0xbb597c5a	-0.0033185692
106	0xbda6a46d	-0.081368305
107	0xc43664e7	-729.5766
108	0x3c27fa06	0.010252481
109	0xc45685d4	-858.09106
110	0xbb76b378	-0.0037643593
111	0xbd0330f3	-0.032029103
112	0x441b5bc3	621.4338
113	0xbd76eade	-0.06028258
114	0x442b3c6b	684.94403
115	0x43e5491b	458.57114
116	0xbd3f6f31	-0.0467369
117	0xbd6d67d5	-0.05796035
118	0xbb998349	-0.00468484
119	0xbd82e299	-0.06390876
120	0xbd83ac6c	-0.06429371
121	0x431e83e1	158.51515
122	0xc32a7806	-170.46884
123	0x44342bbb	720.6833
124	0xbdcfc304	-0.10144618
125	0x3c929650	0.01789394
126	0xbd7a6132	-0.06112785
127	0x44457e7c	789.9763
128	0x442df138	695.76904
129	0x3c4c8a0b	0.012484084
130	0x43c41885	392.19156
131	0x441a293e	616.6444
132	0xbd600314	-0.054690436
133	0xbce5bf1c	-0.02804523
134	0x42edd5ae	118.91734
135	0x443eae3b	762.72235
136	0xbd9b80a6	-0.07592897
137	0xbcad358a	-0.021143693
138	0xbd043add	-0.0322827
139	0x4019aa43	2.401017
140	0x44461e3e	792.47253
141	0x442b798c	685.8992
142	0xc44b3cc5	-812.9495
143	0x3d7989eb	0.060922544
144	0xbcb5bc19	-0.022184419
145	0xbd4c9933	-0.04995079
146	0x3d1870ec	0.037217066
147	0xbdaf4ffd	-0.085601784
148	0x442fb564	702.8342
149	0x4065a3c6	3.588121
150	0x442fa2b4	702.54224
151	0xbbe71504	-0.007052066
152	0x444174d1	773.82526
153	0x408c443a	4.3833284
154	0x4438b137	738.769
155	0xbc8b2c89	-0.01698901
156	0xc4443657	-784.84906
157	0xbcf24764	-0.029575057
158	0x3cae6c7f	0.02129197
159	0x444b6553	813.5832
160	0x44481d46	800.4574
161	0xbdbf5c5e	-0.093437895
162	0xbc151eae	-0.009101553
163	0xbca34357	-0.019929571
164	0xbdbd3b36	-0.09239809
165	0xbda2a5f2	-0.07941808
166	0x3c3b6acd	0.0114390375
167	0xbd4709cf	-0.04859334
168	0xbdbd7014	-0.09249893
169	0x3cf20e98	0.029547974
170	0x442fc9fe	703.1561
171	0x43d2ccfa	421.60138
172	0xbd982326	-0.07428579
173	0x442ad4e0	683.3262
174	0x443d6335	757.5501
175	0x3ca7f3ed	0.020502055
176	0xbcb4d57c	-0.022074454
177	0xbd852297	-0.06500738
178	0x3b1b1e91	0.0023669342
179	0xbce8e2b1	-0.028428407
180	0x3cf1e875	0.02952979
181	0x44306431	705.5655
182	0x3fd8ac63	1.6927608
183	0x3d022c9c	0.031780824
184	0xbd0d7aa6	-0.034540795
185	0x3d802308	0.06256682
186	0x44283aff	672.9218
187	0xbbc38862	-0.005967186
188	0x3cd85b96	0.02641086
189	0xbcba2e99	-0.022727298
190	0xbc2c8390	-0.010529414
191	0xc453f30c	-847.7976
192	0x3c4da07b	0.012550469
193	0xbd8c3abd	-0.06847141
194	0xc4062e82	-536.7267
195	0x442ebff8	698.9995
196	0xbcbdec56	-0.023183983
197	0xbd0d0fc0	-0.03443885
198	0xbcca7315	-0.024713079
199	0x3cc8b79e	0.024501618
200	0xbdb4306b	-0.087982975
201	0x43d2b185	421.38687
202	0x43c379b9	390.95096
203	0x43f84f88	496.62134
204	0xc4563a97	-856.91547
205	0xbd6263b0	-0.05527085
206	0xbd7a5a71	-0.061121408
207	0xbb101031	-0.0021982307
208	0xbc3a12ea	-0.0113570485
209	0xbd95591c	-0.07292387
210	0xbd844379	-0.06458182
211	0x43f331b3	486.38828
212	0xbd5008b2	-0.050789542
213	0xbe15d8c3	-0.1463347
214	0x432aa3f7	170.64049
215	0xbc0a464e	-0.0084396135
216	0x442a687c	681.63257
217	0x40f782e2	7.734727
218	0xbd587a03	-0.052850734
219	0x3d0477aa	0.032340683
220	0xbc9fdc0f	-0.019514112
221	0xbd3e30da	-0.046433307
222	0xbcc4fef6	-0.024047356
223	0xbd7a96c9	-0.061178956
224	0xc44a24e9	-808.5767
225	0x3af230d1	0.0018477683
226	0xc44f9809	-830.37555
227	0x443152ba	709.2926
228	0xba032e80	-0.00050041825
229	0x3fc50bc7	1.5394219
230	0x3fc4db8a	1.5379498
231	0xbd2f6dcb	-0.042829316
232	0x3f558b76	0.83415926
233	0xbcae3c05	-0.021268854
234	0xbdbf0450	-0.093269944
235	0xbd697a9e	-0.057001702
236	0xbce06537	-0.027392013
237	0xbd63ff02	-0.055663116
238	0x4427f91e	671.89246
239	0x3af01c28	0.0018318938
240	0x44314753	709.11444
241	0x3d3d71d0	0.04625112
242	0xbde430f7	-0.11142152
243	0xbd20edef	-0.03928941
244	0x3c0c3c4d	0.008559299
245	0xbdb9c482	-0.09070684
246	0xbd8c5716	-0.06852548
247	0xbcd0c549	-0.025484698
248	0xbbcdbe60	-0.006278798
249	0xbd59e3f6	-0.053195916
250	0x3cce103d	0.025154227
251	0x43e91fdd	466.24893
252	0xc41e4fd9	-633.2476
253	0xbd880c2f	-0.06642949
254	0xbd1c68fc	-0.03818606
255	0xc425d9c8	-663.40283

main.4.weight f4 [256, 256]
0	0xbc924c0d	-0.01785853
1	0x3c49de7b	0.01232111
2	0xbc44f2be	-0.012020765
3	0xbd0457b0	-0.032310188
4	0x43d3f9be	423.9511
5	0xbca001ba	-0.019532073
6	0xbcf6ccf8	-0.030127034
7	0x3d356d12	0.04429347
8	0x4384e1e3	265.76474
9	0xbdaf73dd	-0.08567021
10	0xbabb8f40	-0.001430966
11	0x439aee8a	309.8636
12	0xc3fb1c1c	-502.2196
13	0x438d9138	283.13452
14	0xc2f5423f	-122.62939
15	0xbda5db95	-0.080985226
16	0x3d2019fe	0.039087288
17	0xbc4e74a0	-0.012601048
18	0xbcb5f186	-0.022209894
19	0x43c8ea0c	401.8285
20	0x43c593be	395.15424
21	0x4305d928	133.84827
22	0x3cb018c8	0.021496192
23	0x42cfd225	103.91044
24	0xbcd4a923	-0.025959557
25	0xbd2b8b3b	-0.041880827
26	0x43d0a17f	417.2617
27	0xc41c40a6	-625.01013
28	0x431d0f21	157.0591
29	0x43d36bbf	422.84177
30	0x439b4932	310.57184
31	0xbce91546	-0.028452527
32	0xbca7ac85	-0.020468006
33	0x3c1a0730	0.009401128
34	0x3b9d6644	0.004803451
35	0xbcc2ce55	-0.023780027
36	0xbd29bb44	-0.041438356
37	0x3cc54d7e	0.024084803
38	0x4392e52c	293.7904
39	0x43d32ce1	422.35062
40	0x3d1196dc	0.03554426
41	0xbd678d47	-0.056531217
42	0x3b07c45f	0.0020716412
43	0x3c00a799	0.007852458
44	0xbd1f6c5c	-0.0389217
45	0x3d137f39	0.03601
46	0xbd9a1ca2	-0.075249925
47	0x3d020875	0.031746347
48	0xbca41e5d	-0.02003401
49	0xbabdb6a1	-0.0014473983
50	0x3ce56a52	0.028004799
51	0x3d3680ec	0.044556543
52	0x3d6b7e2b	0.05749337
53	0xbc75b5b5	-0.014996936
54	0x3b3b8cc8	0.0028617848
55	0xc3dcc408	-441.5315
56	0x3c3f9503	0.011693242
57	0x3d165df8	0.03671071
58	0xbcab364e	-0.020899918
59	0x3c81506b	0.015785417
60	0x3cb48323	0.022035187
61	0x3d3d4429	0.04620758
62	0x43c66fd3	396.87363
63	0xbd917ac0	-0.07103491
64	0x3cbdd370	0.02317211
65	0xbd0c6a86	-0.034281276
66	0xbd57e1ba	-0.052705504
67	0x43bcfb52	377.96344
68	0xbd2bb632	-0.041921802
69	0xbc86e578	-0.016466841
70	0x3c20e9ed	0.009821397
71	0x3d939ef0	0.07208049
72	0xc284a62f	-66.32458
73	0xc3bf9069	-383.1282
74	0x3d5c7103	0.053818714
75	0x3ba296a8	0.0049618073
76	0xbd70b28c	-0.058764026
77	0x3d04d1ba	0.032426573
78	0x3d51aa68	0.051187903
79	0x3d8b4f87	0.06802278
80	0x432c8719	172.52773
81	0x43aa822d	341.017
82	0x43890497	274.03586
83	0x3c391f84	0.011299018
84	0xbcdf7e68	-0.027281955
85	0xbd38de9e	-0.04513418
86	0x3ccde8b5	0.025135377
87	0xb9b589e9	-0.0003462576
88	0x3bd3cf31	0.006463908
89	0x43aa3ee2	340.49127
90	0x43ad4f20	346.61816
91	0xbc9a6976	-0.018849116
92	0x4359e090	217.8772
93	0x3ca78f89	0.020454185
94	0xbd2e5d24	-0.042569295
95	0x39c24a23	0.000370578
96	0x3d04d56e	0.032430105
97	0xbd6c081c	-0.05762492
98	0x3d7a60e1	0.061127547
99	0x43a4b761	329.43265
100	0xbb0c739e	-0.0021431218
101	0x3d8e2c5c	0.06942055
102	0x3db96a15	0.09053437
103	0xbb82bd02	-0.0039898166
104	0x439596df	299.17868
105	0xbd07555b	-0.033040386
106	0x3d816909	0.06318862
107	0xc3f2e19d	-485.7626
108	0xbc4f8aea	-0.012667397
109	0xc3cf4762	-414.55768
110	0xbcd5731c	-0.026055865
111	0xbcf13162	-0.029442493
112	0x4399e457	307.7839
113	0xbd3b7086	-0.045761608
114	0x43682cde	232.17526
115	0x43d94d43	434.6036
116	0x3cb4f692	0.02209023
117	0x3c0fde41	0.008781017
118	0xbda013bc	-0.07816264
119	0xbd501f93	-0.05081136
120	0xbd8c8683	-0.068615936
121	0x4374d375	244.826
122	0xc2cacb87	-101.397514
123	0x43be23a8	380.27856
124	0xbccbddf2	-0.024886105
125	0x3d1559cd	0.036462594
126	0xbc8bda69	-0.01707192
127	0x43962ed2	300.36578
128	0x437be82d	251.90694
129	0xbc83da22	-0.016095225
130	0x42ec486b	118.14144
131	0x4313afaf	147.68626
132	0x3bc5282f	0.006016753
133	0xbd9b4959	-0.07582349
134	0xc29a676a	-77.20198
135	0x43c33f0e	390.4926
136	0xbe6535a0	-0.22383738
137	0xbc929a56	-0.017895859
138	0x3c92f7f1	0.017940493
139	0xbc741194	-0.014896769
140	0x43b27c3f	356.97067
141	0x43bdf50a	379.91437
142	0xc3cbad08	-407.3518
143	0x3ca09c02	0.01960564
144	0x3cde831a	0.027162123
145	0xbc163606	-0.009168154
146	0x3d6ac08c	0.057312533
147	0x3c558988	0.013033278
148	0x43c434a4	392.41125
149	0xbd576bdd	-0.0525931
150	0x4378a8f7	248.66002
151	0xbd346d34	-0.044049457
152	0x43248cb1	164.54958
153	0xbcb870ca	-0.02251472
154	0x438599d8	267.2019
155	0x3cecf017	0.028923078
156	0xc3cf2bcb	-414.34213
157	0x3d53fd9d	0.051755536
158	0xbd3bb656	-0.045828186
159	0x434fbc8a	207.73648
160	0x43acabe1	345.3428
161	0xbc8e9217	-0.017403645
162	0xbd7dcb82	-0.06196166
163	0x3d46a68b	0.04849867
164	0xbc8c0acd	-0.017094994
165	0xbd25040d	-0.040287066
166	0x3d51492a	0.051095165
167	0xbd4b9379	-0.049701188
168	0x3d47da67	0.04879227
169	0x3c4a7fd4	0.012359578
170	0x43c67155	396.8854
171	0x43cd26cf	410.3032
172	0x3bc5e98f	0.0060398052
173	0x43ef25c1	478.29495
174	0x438a0de4	276.10852
175	0x3c48feb5	0.012267758
176	0xbd371804	-0.044700637
177	0x3bab87a1	0.005234674
178	0xbd0fb52f	-0.0350849
179	0x3cdded0a	0.027090568
180	0x3d68a40e	0.05679708
181	0x43820d6f	260.10495
182	0x3d8c1815	0.06840531
183	0xbd67e9db	-0.056619506
184	0x3d45e331	0.04831237
185	0x3aef000a	0.0018234265
186	0x43b93ad5	370.45963
187	0x3d76ad85	0.060224075
188	0x3d62d23e	0.055376284
189	0xbca36a49	-0.019948142
190	0xbcdda28a	-0.027055044
191	0xc3d76c3a	-430.84552
192	0x3cbc49f6	0.022984486
193	0xbd24a6b5	-0.040198047
194	0xc30415cd	-132.08516
195	0x4385e35a	267.77618
196	0x3d0c01ce	0.03418141
197	0xbd065ce7	-0.032803442
198	0xbc3d7563	-0.011563632
199	0xbce3dbf3	-0.02781484
200	0x3cb71842	0.022350434
201	0x42f4754d	122.2291
202	0x42d2a02f	105.31286
203	0x43d3f1e6	423.88983
204	0xc3d90be4	-434.0929
205	0x3c9b25d3	0.018938934
206	0xbdde05bb	-0.10840937
207	0x3d338f03	0.04383756
208	0x3d0c99f6	0.034326516
209	0x3d849172	0.06473054
210	0x3cf6258d	0.030047202
211	0x4338a0dc	184.62836
212	0x3c155f3d	0.009116945
213	0x3ce579b4	0.028012134
214	0x438e00b8	284.0056
215	0x3d5fe24c	0.054659173
216	0x4370f13e	240.94235
217	0xbc451b74	-0.012030471
218	0xbd2d1621	-0.042257432
219	0xbd131832	-0.035911746
220	0x3cc0934f	0.023507742
221	0x3d4a785f	0.0494312
222	0xbd476da5	-0.04868855
223	0x3bf8be4d	0.007591045
224	0xc403acbe	-526.6991
225	0xbc8d75cd	-0.017268086
226	0xc3fbc3a8	-503.52856
227	0x4374f37f	244.95116
228	0x3d72b726	0.059256695
229	0xbd4ea8e4	-0.050454035
230	0xbc8a5b20	-0.016889155
231	0xbd5bcd37	-0.053662505
232	0x3ccc6873	0.024952149
233	0x3d2345ff	0.039861675
234	0x3d9578d6	0.07298438
235	0xbd58f02b	-0.052963417
236	0xbd4b0fe5	-0.049575705
237	0xbca3fde4	-0.020018525
238	0x439c75bf	312.9199
239	0xbd080111	-0.033204142
240	0x43cc6fb7	408.87277
241	0x3d51873e	0.051154368
242	0x3c850a21	0.016240181
243	0xbbf5c9f7	-0.0075008827
244	0xbd534f9d	-0.051589597
245	0xbda211b7	-0.07913535
246	0xbcd456fe	-0.025920387
247	0x3ccc0919	0.024906682
248	0x3c270df7	0.010196201
249	0xbc0ed659	-0.008718097
250	0xbd3cff39	-0.046141837
251	0x43cf7875	414.94107
252	0xc3ab71f6	-342.89032
253	0x3d27d03c	0.040970072
254	0xbd5f55b5	-0.054525096
255	0xc407d30f	-543.2978

main.4.bias f4 [256]
0	0x44259bd2	662.4347
1	0x4427a758	670.61475
2	0x444abf9e	810.994
3	0x4426a900	666.6406
4	0xba8eee13	-0.0010904692
5	0x44291e54	676.4739
6	0xbdfa101f	-0.12210106
7	0xc10b0e6f	-8.691024
8	0x442812d3	672.2941
9	0x4422c02a	651.00256
10	0xbda49f2c	-0.08038172
11	0x442add35	683.45636
12	0x442f8cea	702.2018
13	0xbd113993	-0.035455298
14	0xc3efce92	-479.61383
15	0x39d6b894	0.00040954782
16	0xc40e8703	-570.10956
17	0x430261d8	130.3822
18	0xbbcca1f3	-0.006244892
19	0x3c86cdfe	0.016455647
20	0xc4156f6e	-597.7411
21	0x3c577741	0.013150991
22	0xc44405f5	-784.0931
23	0x4426864d	666.09845
24	0x44230b3b	652.1755
25	0xc3f97bdd	-498.96768
26	0x44289099	674.25934
27	0xc22d426b	-43.31486
28	0xbe1b9ba0	-0.15196085
29	0x4434f364	723.803
30	0x4221ada7	40.419582
31	0xbd026740	-0.031836748
32	0x4422fb3e	651.92566
33	0x442c93e0	690.31055
34	0xc435031f	-724.04877
35	0x442a281c	680.6267
36	0x3b142f37	0.002261115
37	0x442855f9	673.3433
38	0x442da1ae	694.52625
39	0xc40c5bb4	-561.43286
40	0x44288c9a	674.1969
41	0x4432ddf4	715.468
42	0xbd1e8a33	-0.038706016
43	0xbdefbdb8	-0.11706108
44	0x4433286b	716.63153
45	0x3c95edce	0.01830187
46	0xbdb2bd20	-0.08727479
47	0xbd1917da	-0.037376262
48	0xbd3fd53d	-0.04683422
49	0xbc901314	-0.017587222
50	0x441c8ad6	626.1693
51	0x435860cf	216.37816
52	0x3cc65c8e	0.024214055
53	0xbe064e1c	-0.13115734
54	0xbcbb4dfc	-0.022864334
55	0xbd6413d9	-0.05568299
56	0x442a5267	681.28754
57	0x4425a335	662.5501
58	0xc3eac3c4	-469.52942
59	0x41a43431	20.525484
60	0xbdb7f2c9	-0.089818545
61	0x44459a51	790.4112
62	0xbd962905	-0.073320426
63	0xbc88f09c	-0.016716294
64	0x44255282	661.2892
65	0x3c2fb43f	0.010724126
66	0x4402c506	523.0785
67	0xbcc31e3e	-0.023818132
68	0x44284e49	673.2232
69	0xbdb163c0	-0.08661604
70	0x3b920af7	0.0044568735
71	0x44285b64	673.428
72	0x3c7acfd4	0.015308339
73	0x3edc01d3	0.42970142
74	0x441c2618	624.5952
75	0x44296707	677.6098
76	0xc41e343d	-632.8162
77	0x442a4e96	681.2279
78	0x4409b9a9	550.90094
79	0x4428afa6	674.7445
80	0x44221f94	648.4934
81	0xbda9df4e	-0.08294545
82	0xbde4baac	-0.11168417
83	0x44288f71	674.2413
84	0x44274c6c	669.1941
85	0x4405c4f5	535.07745
86	0xbd309bd8	-0.043117374
87	0xbc119176	-0.008884778
88	0xbd72c4ba	-0.059269644
89	0xc42cdbc0	-691.4336
90	0x43bad884	373.69153
91	0xbcd626cf	-0.026141552
92	0x3c8b84ad	0.017031038
93	0xbd8e6839	-0.06953473
94	0x44200e7e	640.22644
95	0x441455e5	593.3421
96	0x4422cb2d	651.1746
97	0x44273736	668.8627
98	0xbc4cbd3f	-0.012496292
99	0xbdbe7518	-0.092996776
100	0xbd382475	-0.044956643
101	0x44272e0f	668.71967
102	0x4426d128	667.26807
103	0xbd02b83b	-0.031913977
104	0xc4163f7a	-600.9918
105	0xbd97cfe1	-0.07412697
106	0x4424cbcf	659.1845
107	0x3c3a6a90	0.011377946
108	0x3c98f69e	0.018672284
109	0xc442df88	-779.4927
110	0xc3f2c07a	-485.50372
111	0x4425b916	662.89197
112	0x4429de80	679.47656
113	0x3bd7a97f	0.006581485
114	0x44279bfc	670.43726
115	0x442b1e13	684.4699
116	0xc4438d29	-782.2056
117	0xbcf3d23c	-0.029763333
118	0xbd614ab9	-0.0550029
119	0x4424d457	659.3178
120	0xc41aeb07	-619.6723
121	0x44469a02	794.4064
122	0x442762e8	669.5454
123	0x3cad5ac7	0.02116145
124	0xbd873429	-0.06601746
125	0x3c212e89	0.009837755
126	0x432fb440	175.7041
127	0x3cbb5ba3	0.022870844
128	0xbcfd8f35	-0.030952075
129	0x442d2b15	692.67316
130	0x441d1342	628.3009
131	0xbd75a991	-0.059976164
132	0x44292ef9	676.73395
133	0x44264eb3	665.2297
134	0x3ce0dd99	0.027449416
135	0x442dba03	694.90643
136	0xc4281c79	-672.4449
137	0xbdd4a72d	-0.10383449
138	0xbd72d7ad	-0.059287716
139	0x4428c0a6	675.01013
140	0x4424e2cd	659.54376
141	0xbd9eb133	-0.07748642
142	0xbd4b51f6	-0.04963871
143	0x442a3709	680.8599
144	0x440eb7b6	570.8705
145	0x44270535	668.08136
146	0x442a191e	680.39246
147	0x44221fad	648.49493
148	0xbd25c512	-0.040471144
149	0xbe066230	-0.13123393
150	0x3d130722	0.035895474
151	0xc3f8822a	-497.0169
152	0x3c497cfe	0.012297867
153	0x44243ea3	656.9787
154	0x4416d4ba	603.32385
155	0xc3fb836d	-503.02676
156	0x4404d8aa	531.3854
157	0xbd8af76b	-0.067854725
158	0x4426e380	667.5547
159	0xbc2f3404	-0.010693554
160	0xbd8d242b	-0.06891664
161	0xbda95d59	-0.08269758
162	0xbd70c58b	-0.05878214
163	0xbd60b606	-0.05486109
164	0x443ae872	747.63196
165	0xbd24b33b	-0.04020999
166	0xbd11e43f	-0.035618063
167	0xbd5ccc7c	-0.05390595
168	0xbd566876	-0.052345715
169	0xbd33ef3d	-0.043929327
170	0x4428cc68	675.19385
171	0xbb6aecc3	-0.0035846687
172	0x44247d0b	657.9538
173	0x4425e966	663.64685
174	0x442620bc	664.5115
175	0xbd791611	-0.06081206
176	0x442dc45d	695.0682
177	0xbdaba0fb	-0.08380314
178	0x442f6c88	701.6958
179	0xc4414a09	-773.1568
180	0xbd83d577	-0.064371996
181	0xbbb4af59	-0.005514067
182	0xbdc84ad0	-0.09779894
183	0x4427332b	668.7995
184	0xbd4bb8e7	-0.049736883
185	0x44263842	664.879
186	0x3cb50251	0.022095831
187	0xbd3f7870	-0.046745718
188	0xbd8922a4	-0.0669606
189	0xbd5e9b08	-0.054347068
190	0xbda254cc	-0.0792633
191	0x44283ea1	672.9786
192	0xbdc868ed	-0.09785638
193	0x442d118e	692.2743
194	0x44258664	662.09985
195	0x4425b553	662.8332
196	0xbd20098f	-0.039071616
197	0x3aa31369	0.0012441698
198	0x44202535	640.58136
199	0xc4391daa	-740.4635
200	0x442b7f9a	685.9938
201	0x42ae9701	87.29493
202	0x44235137	653.269
203	0x44269c36	666.4408
204	0xbc9d52a2	-0.019204441
205	0xbd8b45fe	-0.06800459
206	0x43bab08b	373.37924
207	0xbb9e376f	-0.0048283855
208	0xbd4eb697	-0.0504671
209	0xbe0881b0	-0.13330722
210	0xbc73e66e	-0.014886482
211	0xbd6b1165	-0.057389636
212	0xbd8a49ff	-0.06752395
213	0x4424a1dc	658.52905
214	0xbb365891	-0.0027823786
215	0x3b99ff63	0.004699634
216	0xbd23809b	-0.03991757
217	0xbdc2ecd7	-0.0951783
218	0x3d209778	0.03920695
219	0x442d1731	692.36237
220	0xbc076249	-0.008263179
221	0x44097740	549.8633
222	0xbd8c3565	-0.06846122
223	0x3aab6799	0.0013077139
224	0x43bdabf5	379.3434
225	0x441f84dc	638.0759
226	0xbd18a380	-0.0372653
227	0x440902f9	548.04645
228	0xbd5ecc5b	-0.054394107
229	0xc39764dd	-302.788
230	0xbddfa022	-0.10919215
231	0x4427e505	671.5784
232	0x442ae2a9	683.54156
233	0xc40ab2bb	-554.79266
234	0x3cbab44e	0.022791054
235	0x4428bf93	674.99335
236	0xbd6e6677	-0.058203187
237	0x440f3c78	572.9448
238	0xc3e901ea	-466.01495
239	0xc2727be7	-60.621
240	0x4424acc7	658.69965
241	0xbba8707f	-0.0051403637
242	0x4427a538	670.58154
243	0xbcfd953b	-0.030954948
244	0x3d3b1a87	0.045679595
245	0xbdcb5c0d	-0.09929667
246	0x4432f883	715.883
247	0x4415767b	597.85126
248	0x3c7517b3	0.014959264
249	0xba9a4436	-0.0011769596
250	0x3d0065aa	0.031346954
251	0x4424b7ea	658.87366
252	0x3c8b3ffd	0.016998285
253	0x43a34826	326.56366
254	0xc40a56e5	-553.3577
255	0xbbf350ed	-0.0074254186

main.6.weight f4 [4, 256]
0	0x4346886c	198.5329
1	0x4348eeda	200.93301
2	0x43dadfb2	437.74762
3	0x43487fb9	200.49892
4	0x3ccf989a	0.02534132
5	0x4348ab30	200.6687
6	0xbc20ff25	-0.009826456
7	0x43e42363	456.27646
8	0x434b15d7	203.08531
9	0x434055f9	192.33583
10	0xb870b9f2	-5.7393634e-05
11	0x434c95b1	204.58473
12	0x43595ce7	217.3629
13	0xbd084dbc	-0.03327726
14	0xc3ba9ecb	-373.24057
15	0x3d2d3ec9	0.042296205
16	0xc3dff423	-447.90732
17	0x43ba0b13	372.08652
18	0xbc8c008c	-0.017090105
19	0x3cc87f9b	0.02447491
20	0xc3e84ef1	-464.61673
21	0x3c6127cd	0.013742399
22	0xc3c82fc8	-400.3733
23	0x43471b60	199.10693
24	0x4342831d	194.51216
25	0xc3e78453	-463.03378
26	0x434b2641	203.14943
27	0x43e201cc	452.01404
28	0x3b767876	0.0037608421
29	0x4366afa3	230.68608
30	0x4363e7f1	227.90602
31	0xbce36b17	-0.027761025
32	0x433f6ef2	191.43338
33	0x4352b043	210.68852
34	0xc39965bd	-306.79483
35	0x434ab93b	202.72356
36	0x3ba03d57	0.004890125
37	0x434ef3b6	206.952
38	0x4354d976	212.84946
39	0xc3ca2790	-404.30908
40	0x434bdccd	203.8625
41	0x435b178c	219.09198
42	0xbca7184d	-0.02039733
43	0xbd72f0be	-0.05931162
44	0x4361ef0b	225.93376
45	0xbce3a127	-0.027786804
46	0xbd79b176	-0.060960256
47	0x3cbefedc	0.023314886
48	0x3ce747ee	0.028232541
49	0x3c530a77	0.012880913
50	0x433008f4	176.03497
51	0x43add95b	347.6981
52	0xbd802b29	-0.06258232
53	0xbcf4222f	-0.029801456
54	0x3be4692b	0.006970545
55	0x3cbe6f33	0.023246383
56	0x434ec0fc	206.75385
57	0x434674db	198.45647
58	0xc3bb032f	-374.02487
59	0x43e5590a	458.69562
60	0xbd2ba902	-0.041909225
61	0x43be8069	381.0032
62	0xbbe3c72b	-0.006951233
63	0x3d81ef2b	0.06344446
64	0x43463638	198.21179
65	0xbcd6fe94	-0.02624444
66	0x428e3a8e	71.114365
67	0xbd8a442d	-0.06751285
68	0x434aafda	202.68692
69	0xbbcc46f0	-0.0062340423
70	0xbc7b3678	-0.015332811
71	0x434a8fe4	202.56207
72	0x3bf78cad	0.0075546117
73	0xbb9649e2	-0.0045864442
74	0x431bfbdb	155.98381
75	0x434d5907	205.34776
76	0xc3baaee1	-373.36624
77	0x434cb79a	204.7172
78	0x43052ad3	133.16728
79	0x434ae82b	202.9069
80	0x43620031	226.00075
81	0xbc6e1c01	-0.014533044
82	0x3c093519	0.008374476
83	0x43481e87	200.11925
84	0x43519a2c	209.60223
85	0x431db4dd	157.7065
86	0x3b0eec40	0.0021808296
87	0x3abc9233	0.0014386832
88	0xbd472391	-0.048617903
89	0xc3e33410	-454.40674
90	0x43f4df3c	489.74402
91	0x3d4730c1	0.04863048
92	0xbd1a2666	-0.037634276
93	0xbccd01b5	-0.025025228
94	0x433f4835	191.28206
95	0x4350f516	208.95737
96	0x4341c623	193.77397
97	0x4349222e	201.13351
98	0xbd0ee9f9	-0.034891102
99	0xbd2f27f5	-0.042762715
100	0x3d4778ff	0.048699375
101	0x4393d730	295.68115
102	0x434753d3	199.32744
103	0xbbca68a1	-0.0061770235
104	0xc3c34168	-390.511
105	0x3ccfe493	0.025377547
106	0x4344600c	196.37518
107	0xbc202941	-0.009775461
108	0xbc3d7439	-0.011563354
109	0xc4030963	-524.14667
110	0xc3b93e5e	-370.48724
111	0x43465309	198.32436
112	0x434cd111	204.81667
113	0x3bb5eb81	0.005551756
114	0x43494f4d	201.30977
115	0x434f427a	207.25967
116	0xc3fb46b4	-502.55237
117	0x3c019490	0.007908955
118	0xbcb8f7f7	-0.022579176
119	0x43441a89	196.10365
120	0xc3ed079f	-474.05954
121	0x43aa750c	340.91443
122	0x43488bb4	200.54572
123	0x3cbee43c	0.02330219
124	0xbcbe797c	-0.023251288
125	0xbcd885f6	-0.026431065
126	0x43847539	264.9158
127	0x3d290338	0.041262835
128	0xbd15e7ff	-0.0365982
129	0x43561580	214.08398
130	0x4347b50b	199.7072
131	0xbcba624a	-0.022751946
132	0x434af031	202.93825
133	0x43461252	198.07156
134	0xbac60d75	-0.0015110212
135	0x435cd171	220.81813
136	0xc3f17e2e	-482.98578
137	0xbaf484e0	-0.0018655322
138	0x3cc11cae	0.023573246
139	0x434a4b8f	202.29515
140	0x434226dd	194.15181
141	0xbcb91bb7	-0.022596223
142	0xbcc249b6	-0.023716789
143	0x434d1c35	205.11018
144	0x4347563c	199.33685
145	0x43579709	215.58998
146	0x434f5c07	207.35948
147	0x43ae72c5	348.89664
148	0xbcc0db6a	-0.023542125
149	0x3c6ea5ba	0.0145658795
150	0xb941a016	-0.00018465551
151	0xc30c10f6	-140.06625
152	0xbd3f9596	-0.046773516
153	0x43431dbd	195.11617
154	0x438a5a88	276.70728
155	0xc3c0695d	-384.82315
156	0xc28c7079	-70.21967
157	0xbb87c93b	-0.0041438616
158	0x43488aec	200.54266
159	0xbd49da6b	-0.049280565
160	0xbc7b03e5	-0.015320753
161	0xbc131101	-0.008976222
162	0x3d19582a	0.037437595
163	0x3d09c4c0	0.0336349
164	0x43aea9c2	349.32623
165	0x3ba915a2	0.0051600495
166	0xbd445f83	-0.04794265
167	0xbdf6f5e2	-0.12058617
168	0x3d3d2c12	0.046184607
169	0xbce21d50	-0.027601868
170	0x434a38ac	202.22137
171	0xbcd93f67	-0.02651949
172	0x433f1ba9	191.10805
173	0x4346e5b0	198.89722
174	0x4347aa4f	199.66527
175	0xbcafc148	-0.021454468
176	0x435be093	219.87724
177	0x3cda3dfd	0.026640886
178	0x43595c44	217.36041
179	0xc3cb0c05	-406.0939
180	0x3d50bd45	0.05096175
181	0xbd385e2d	-0.045011688
182	0xbd263970	-0.04058212
183	0x434973b7	201.45201
184	0xbc8bba8f	-0.017056732
185	0x4347a110	199.62915
186	0xbc88c356	-0.016694706
187	0xbd2e48f4	-0.042550042
188	0x3d14c68a	0.036322154
189	0xbce79b06	-0.028272163
190	0xbbe4e814	-0.0069856737
191	0x434aca01	202.78908
192	0x3c9e1127	0.019295288
193	0x4354c40d	212.76582
194	0x434597d1	197.59303
195	0x4346fbf0	198.98413
196	0x3b600af6	0.003418622
197	0x3c46aa1f	0.012125521
198	0x43ad6018	346.75073
199	0xc3e69d2b	-461.22787
200	0x4350b780	208.7168
201	0x4290dd60	72.43237
202	0x43e06596	448.79364
203	0x43486be8	200.42151
204	0x3be27ede	0.0069120964
205	0x3d193868	0.03740731
206	0xc2b2c931	-89.39295
207	0x3d3e3512	0.04643733
208	0xbc39c50f	-0.011338486
209	0xbd807f27	-0.062742524
210	0xbd191154	-0.03737004
211	0x3d88299e	0.06648563
212	0x3d2c69b4	0.042092994
213	0x434f0905	207.03523
214	0x3d3ea852	0.04654724
215	0x3cfb94b8	0.030710563
216	0xbd0f2c1e	-0.034954183
217	0xbd3bc668	-0.04584351
218	0x3cc34cbb	0.023840299
219	0x435121e3	209.13237
220	0x3d434cc9	0.04768065
221	0x42e6bcbc	115.36862
222	0x3ca4953b	0.02009069
223	0xbd2285a1	-0.03967822
224	0x4400ac3e	514.6913
225	0x433b9f56	187.6224
226	0x3d0b4acb	0.034006875
227	0x4324c144	164.75494
228	0x3cdba76e	0.026813235
229	0xc3c66bb4	-396.84143
230	0xbcb68c0f	-0.022283582
231	0x434866c9	200.4015
232	0x434ebaf0	206.73022
233	0xc3eb96fe	-471.17963
234	0x3d4a3a6a	0.049372114
235	0x434b8c8b	203.549
236	0xbd412917	-0.047158327
237	0x43e52a0c	458.3285
238	0xc3b45480	-360.66016
239	0x437fd2f1	255.82399
240	0x4344cbe9	196.79652
241	0x3c2e2407	0.010628707
242	0x43492845	201.1573
243	0xbcbf42b6	-0.02334724
244	0x3c82c6b9	0.015963899
245	0xbcf5f10c	-0.030022167
246	0x43647edf	228.49559
247	0x4332c915	178.78548
248	0x3cf08527	0.029360367
249	0x3ca2108c	0.01978328
250	0xbc9da201	-0.019242289
251	0x43431b03	195.10551
252	0xbd4f4bd7	-0.050609436
253	0x43b21b1a	356.21173
254	0xc3d5cb68	-427.5891
255	0x3caf3f27	0.021392418

main.6.bias f4 [4]
0	0x443ef0e8	763.76416
1	0x443e3a9d	760.91583
2	0x4414a726	594.6117
3	0x441984ea	614.0768
